ROS/models/baselinebest.onnx (onnx, 776691 bytes, 12 tensors)

model._model.a2c_network.sigma f4 [11]
-1.3544751 -1.7767766 -1.8831128 -1.7353767 -1.9245197 -1.7707219 -2.0050077 -2.0168405
-1.9572277 -1.8547242 -1.6376784
00000000: 715f adbf 6a6d e3bf d709 f1bf d320 debf
00000010: a956 f6bf 04a7 e2bf 0c52 00c0 ea13 01c0
00000020: 7086 fabf 9a67 edbf 729f d1bf

model._model.a2c_network.actor_mlp.0.bias f4 [512]
0.023277368 0.018235035 -0.042363886 -0.053610437 -0.025256217 -0.06906519 -0.0374606 -0.0142831355
-0.01477942 -0.034678154 -0.04486975 -0.019339606 0.036937613 -0.007325709 0.10625964 0.06883403
0.025147762 -0.09470045 -0.06214603 0.07517015 -0.018508326 -0.036039595 0.13837016 -0.06236206
-0.019452661 -0.05025713 0.016814508 0.0059293746 -0.014027869 0.039011553 -0.010544598 -0.12127639
0.0071513327 0.01297143 0.00025135095 0.0059596896 0.1266246 0.006589788 0.012329093 0.10875668
0.11545295 0.013742374 0.05769443 -0.003842506 -0.03025889 0.13928488 0.05491944 0.1415703
0.021012312 0.10115095 -0.001854344 0.105800174 0.14968252 0.052038822 0.11824481 0.029920144
-0.0498833 -0.05495493 -0.075667486 -0.027453432 0.08262224 -0.047058996 -0.0387574 -0.037311353
0.015046536 0.09774504 0.00017180391 -0.08009331 -0.09693167 0.0889354 -0.016210826 -0.13340013
-0.036492057 -0.015361299 0.13199346 -0.064033315 0.06006039 0.03927449 -0.06400894 -0.027961602
0.03152933 0.06878174 0.16492027 -0.06300852 0.038277376 0.015061167 -0.05084137 -0.033188056
-0.013040119 -0.06322384 0.021139577 0.04416949 0.09584255 -0.030531531 -0.06969594 0.05122061
0.029049965 -0.104685694 0.09751886 -0.06506341 -0.028905157 -0.008967171 -0.060996298 0.03707435
-0.017826455 -0.023189304 -0.06892064 -0.05812643 -0.012128604 0.07208984 0.1116643 0.072238475
0.1181893 -0.056893658 0.12035625 0.052773435 -0.03756029 0.050374202 -0.014205791 -0.07765065
0.037560303 0.0266072 -0.008775714 0.09914702 -0.038518414 -0.0075164726 -0.071455166 -0.049220312
0.06765284 -0.019500403 -0.060974866 -0.047699623 0.037468363 0.04724857 0.040592287 0.08992836
0.008912614 0.0071716495 -0.020168182 0.07719236 0.04867721 -0.06993007 -0.050634213 -0.08094448
-0.059434567 0.023171633 -0.065831736 -0.08657288 0.06094825 0.05197264 0.048497397 0.026657311
0.025103187 0.0033023185 0.12914284 0.11824067 -0.015605793 -0.023062104 -0.06813698 -0.06096575
0.016647318 0.009441615 0.014271177 0.087384656 0.029862499 -0.015930716 0.14100894 -0.12677579
-0.050137434 -0.09532674 0.17327203 -0.0030827292 0.03129012 0.00039384115 -0.050989237 -0.036647435
-0.07520734 0.0034022355 0.09869437 0.12723364 -0.033210423 -0.02644245 0.0041339872 -0.07693303
-0.00064730505 0.0048180735 -0.02703798 0.1369657 -0.040890645 -0.019991899 0.0011061903 -0.080357864
-0.0723822 -0.025386415 0.11862656 0.063641004 -0.016774226 0.0752263 -0.031097002 0.0131535875
-0.07644793 -0.009529783 -0.02206935 -0.03743591 -0.0047149663 0.114990085 -0.06208078 0.03429435
-0.03510568 -0.03188562 -0.05392657 0.03604774 0.0021505395 -0.0019929134 0.086262874 -0.04277853
0.0995103 0.023193978 -0.01871964 0.04978472 -0.053859513 -0.055621967 -0.057432752 -0.04798421
0.012342902 -0.057830483 0.06347723 -0.090933725 0.017161213 0.07761944 -0.027926004 0.025330124
-0.03573762 0.053457666 -0.04970477 -0.01669845 0.10138602 -0.0233452 -0.004520378 -0.024837304
0.028563188 -0.04414496 -0.0054283887 0.055350203 -0.028018497 -0.014820835 0.07102936 0.011056055
0.06801136 -0.04951913 -0.10894341 -0.007919981 0.12658802 0.10585091 0.053766724 -0.10473083
00000000: 2eb0 be3c a461 953c c185 2dbd 9e96 5bbd
00000010: 20e6 cebc 0d72 8dbd 4970 19bd d003 6abc
00000020: 6125 72bc ae0a 0ebd 58c9 37bd 186e 9ebc
00000030: e54b 173d 800c f0bb a79e d93d dbf8 8c3d
00000040: ae02 ce3c 4ff2 c1bd d68c 7ebd cff2 993d
00000050: c69e 97bc 419e 13bd e8b0 0d3e 5c6f 7fbd
00000060: 305b 9fbc 6cda 4dbd 94be 893c 334b c23b
00000070: 26d5 65bc 94ca 1f3d 40c3 2cbc c25f f8bd
00000080: ba55 ea3b 1f86 543c c1c7 8339 8049 c33b
00000090: e1a9 013e 26ef d73b f7ff 493c d2bb de3d
000000a0: 9972 ec3d b227 613c ff50 6c3d 8ed2 7bbb
000000b0: 7ee1 f7bc b2a0 0e3e 35f3 603d cef7 103e
000000c0: 0322 ac3c 3b28 cf3d 760d f3ba c3ad d83d
000000d0: 6046 193e a926 553d 562a f23d 171b f53c
000000e0: 6e52 4cbd 6c18 61bd 8ef7 9abd 05e6 e0bc
000000f0: d935 a93d efc0 40bd 14c0 1ebd cad3 18bd
00000100: bf85 763c 8d2e c83d 4326 3439 f607 a4bd
00000110: 1d84 c6bd c323 b63d 91cc 84bc 0b9a 08be
00000120: b278 15bd f5ad 7bbc 4b29 073e e623 83bd
00000130: e201 763d 4ade 203d 1e17 83bd bb0f e5bc
00000140: e624 013d 71dd 8c3d dce0 283e 9c0a 81bd
00000150: bdc8 1c3d 1dc3 763c 0a3f 50bd 33f0 07bd
00000160: 39a6 55bc 807b 81bd e82c ad3c 11eb 343d
00000170: 1949 c43d 431d fabc bfbc 8ebd b4cc 513d
00000180: 31fa ed3c 7465 d6bd f8b7 c73d f73f 85bd
00000190: 82ca ecbc 0beb 12bc 41d7 79bd 46db 173d
000001a0: c908 92bc 7ff7 bdbc 4426 8dbd fb15 6ebd
000001b0: 0db7 46bc d7a3 933d 41b0 e43d c4f1 933d
000001c0: 3b0d f23d 5309 69bd 567d f63d f528 583d
000001d0: d2d8 19bd 2e55 4e3d 68bf 68bc 4e07 9fbd
000001e0: d5d8 193d 58f7 d93c 03c8 0fbc 980d cb3d
000001f0: 7cc5 1dbd be4c f6bb 1657 92bd 3d9b 49bd
00000200: 928d 8a3d 4fbf 9fbc c8c0 79bd ae60 43bd
00000210: 6d78 193d b787 413d 1944 263d 5c2c b83d
00000220: 3606 123c 2800 eb3b be37 a5bc 0717 9e3d
00000230: c161 473d 7f37 8fbd d265 4fbd 38c6 a5bd
00000240: a971 73bd 70d2 bd3c cad2 86bd 1f4d b1bd
00000250: dfa4 793d 43e1 543d 35a5 463d 6f60 da3c
00000260: 33a5 cd3c b66b 583b 053e 043e 2a28 f23d
00000270: 71af 7fbc bdec bcbc 678b 8bbd 39b7 79bd
00000280: f55f 883c 01b1 1a3c a8d1 693c baf6 b23d
00000290: 33a2 f43c 2281 82bc a664 103e 83d1 01be
000002a0: e95c 4dbd aa3a c3bd 396e 313e 9d07 4abb
000002b0: 122a 003d 777c ce39 17da 50bd 9f1b 16bd
000002c0: 4e06 9abd 0af8 5e3b 4620 ca3d 8949 023e
000002d0: a707 08bd d69d d8bc 6676 873b 108f 9dbd
000002e0: e8af 29ba eee0 9d3b c17e ddbc bd40 0c3e
000002f0: f37c 27bd 0dc6 a3bc 96fd 903a aa92 a4bd
00000300: 1e3d 94bd 2cf7 cfbc 7bf2 f23d 3756 823d
00000310: 1a6a 89bc 3f10 9a3d 24bf febc 2582 573c
00000320: bb90 9cbd cf22 1cbc c8ca b4bc 6656 19bd
00000330: 0180 9abb ec7f eb3d 6a48 7ebd 3b78 0c3d
00000340: f9ca 0fbd 7f9a 02bd 1be2 5cbd cca6 133d
00000350: 11f0 0c3b 8a9b 02bb 97aa b03d 8a38 2fbd
00000360: 0ecc cb3d 4c01 be3c ee59 99bc 10eb 4b3d
00000370: cb9b 5cbd dcd3 63bd 9b3e 6bbd 178b 44bd
00000380: e239 4a3c a8df 6cbd 5a00 823d 763b babd
00000390: ac95 8c3c f1f6 9e3d 13c5 e4bc 1f81 cf3c
000003a0: 9c61 12bd 6df6 5a3d 3b97 4bbd 30cb 88bc
000003b0: 79a3 cf3d 6f3e bfbc ae1f 94bb 9a77 cbbc
000003c0: 59fd e93c 58d1 34bd a0e0 b1bb e5b6 623d
000003d0: 0c87 e5bc 16d3 72bc d777 913d 7524 353c
000003e0: 8a49 8b3d 92d4 4abd b91d dfbd cfc2 01bc
000003f0: 4aa0 013e 5dc8 d83d 7f3a 5c3d 1e7d d6bd

model._model.a2c_network.actor_mlp.0.weight f4 [512, 27]
0.20857005 0.12952793 0.14426371 -0.043761294 0.111609146 -0.15689889 -0.11185546 0.21208465
0.12611456 -0.2255163 -0.03294626 -0.030168489 0.08674326 0.117800884 0.117523596 -0.009438579
0.16266073 -0.030595537 0.091937244 0.061754506 0.0844917 -0.09055274 0.13731232 0.14075875
-0.039459728 -0.15441404 -0.05132828 -0.15551312 -0.06843495 0.18819675 0.27907375 -0.24508111
-0.045318037 -0.12848769 0.17071517 0.20112959 0.02704282 -0.03680834 0.04196886 0.14656238
-0.1301207 0.082634486 -0.026504882 0.0081302645 -0.16963051 -0.14371504 0.13443027 -0.0053985897
0.0051342514 0.16383675 -0.12062717 0.14272228 0.017255576 0.0061151707 -0.07780506 -0.04809934
0.12436248 -0.05994362 -0.00019164517 -0.06406856 -0.2157276 0.26223078 -0.13874622 -0.017490715
0.024379943 0.0085928645 -0.08452589 0.078183345 0.17360233 -0.14491719 0.03542612 0.07786198
-0.028297734 0.051819306 -0.0074459915 -0.01521453 0.103401594 -0.04610529 0.0056202384 -0.17183825
0.04903884 -0.004390934 -0.043807313 -0.10605725 -0.006101608 0.032414984 0.03339645 -0.18206665
0.1819256 -0.14414649 -0.016514143 0.012723776 0.022822412 0.120450616 0.071313076 0.031839535
-0.074693486 0.0042990707 0.08234609 0.0099934805 0.04688949 0.0078060287 0.24889822 -0.17794958
0.14902146 -0.37023875 0.19430172 0.011259206 0.07085277 -0.030617667 0.13163872 -0.17073442
-0.18103546 0.17487349 0.12272721 0.094076686 0.14945383 -0.11900746 -0.15459542 0.11691489
0.114405595 -0.14500435 0.052620735 0.17910466 -0.025019122 0.1616429 -0.0026542372 0.08062964
0.039384395 0.18010943 -0.15152687 -0.049282227 -0.14130437 -0.13368636 0.060909808 0.15598617
0.10200118 -0.07346783 -0.117292166 -0.018231966 -0.16401185 -0.026192646 -0.0815771 0.0025840006
-0.2603962 -0.03468009 0.06302431 0.10091575 -0.059343595 0.033135645 -0.08281951 0.06820701
0.06323895 -0.015301025 -0.11364164 0.015038519 -0.109200455 0.07655431 0.028248673 0.076027945
-0.09725615 0.18436 0.09638371 -0.04834015 0.15144077 0.023509026 -0.1931103 -0.11038502
-0.029456066 -0.082350835 -0.1619846 0.1103449 -0.037873168 0.082285956 0.0071695023 -0.06032697
-0.19564198 -0.11898661 -0.025222616 -0.03448836 -0.06597355 0.0009778346 -0.10244536 0.07754028
0.15142407 0.011156696 -0.1573475 -0.006422205 -0.15066653 0.124023974 -0.12753916 0.06814591
0.1773716 -0.11745694 0.06944192 -0.16866091 -0.15009217 0.180604 0.18468109 0.09165779
-0.17177874 -0.037037563 -0.084223926 0.14359616 0.1327786 -0.05003719 -0.12275274 -0.03483052
0.017166339 -0.0015850132 -0.058581106 0.022193167 0.04462759 0.24009806 -0.016495407 -0.1125413
-0.06230599 -0.08843367 0.07000411 0.23145533 -0.023402758 0.14739473 -0.06661164 -0.13408782
-0.18912229 0.22597165 -0.14102262 0.08572426 0.12093857 0.09526353 -0.15634388 -0.062795185
0.0673478 -0.12793542 0.10063177 -0.07265959 -0.02326114 -0.16039526 0.16715464 0.07130824
0.123221174 0.06533384 0.012589301 -0.12635928 0.020614225 -0.1642561 -0.13950396 -0.12640911
-0.3298315 0.013150023 0.11382271 0.047906827 0.122966476 0.015731025 0.0033288267 0.1615028
00000000: 6393 553e f8a2 043e deb9 133e 0b3f 33bd
00000010: 5693 e43d 1aaa 20be 7a14 e5bd b82c 593e
00000020: 2d24 013e bfed 66be a8f2 06bd e823 f7bc
00000030: 73a6 b13d 9741 f13d 36b0 f03d 45a4 1abc
00000040: 8990 263e 7ea3 fabc 9849 bc3d 4bf2 7c3d
00000050: fc09 ad3d b773 b9bd 9a9b 0c3e 1023 103e
00000060: 86a0 21bd b71e 1ebe 9a3d 52bd d53e 1fbe
00000070: a027 8cbd a6b6 403e c1e2 8e3e 8bf6 7abe
00000080: 689f 39bd 4792 03be f5cf 2e3e eaf4 4d3e
00000090: e788 dd3c 58c4 16bd 8ae7 2b3d 7314 163e
000000a0: 5c3e 05be 453c a93d c420 d9bc cd34 053c
000000b0: 9fb3 2dbe 092a 13be 17a8 093e a7e6 b0bb
000000c0: 393d a83b d2c4 273e 610b f7bd ca25 123e
000000d0: 915b 8d3c c561 c83b 4258 9fbd d003 45bd
000000e0: c2b1 fe3d 7187 75bd 5cf4 48b9 6136 83bd
000000f0: b2e7 5cbe 1d43 863e 7d13 0ebe b048 8fbc
00000100: 72b8 c73c 16c9 0c3c e91b adbd 971e a03d
00000110: cfc4 313e 2c65 14be fb1a 113d 1a76 9f3d
00000120: a6d0 e7bc 7b40 543d 81fd f3bb 5d46 79bc
00000130: 37c4 d33d e7d8 3cbd fa29 b83b 5ef6 2fbe
00000140: f3dc 483d d3e1 8fbb 4c6f 33bd 8b34 d9bd
00000150: ffef c7bb 93c5 043d b7ca 083d ae6f 3abe
00000160: b44a 3a3e 239b 13be ab48 87bc 6277 503c
00000170: 11f6 ba3c d0ae f63d 970c 923d 2c6a 023d
00000180: e6f8 98bd 38df 8c3b 11a5 a83d b2bb 233c
00000190: 320f 403d b7c9 ff3b 2ddf 7e3e 6a38 36be
000001a0: 1599 183e ef8f bdbe 08f7 463e 8878 383c
000001b0: 421b 913d e7d1 fabc 4dcc 063e 01d5 2ebe
000001c0: 5c61 39be 0912 333e 6758 fb3d 47ab c03d
000001d0: 6d0a 193e 2fba f3bd 434e 1ebe 1371 ef3d
000001e0: 7b4d ea3d 057c 14be d788 573d 3667 373e
000001f0: e7f4 ccbc b785 253e b6f2 2dbb 2721 a53d
00000200: 8851 213d 9b6e 383e dc29 1bbe 29dc 49bd
00000210: 18b2 10be 14e5 08be 907c 793d d7ba 1f3e
00000220: ffe5 d03d 4d76 96bd e036 f0bd 345b 95bc
00000230: b9f2 27be f691 d6bc e511 a7bd 5658 293b
00000240: a752 85be b60c 0ebd e412 813d ebac ce3d
00000250: 4512 73bd 3eb9 073d 469d a9bd 1eb0 8b3d
00000260: 6c83 813d 26b1 7abc f3bc e8bd 1f64 763c
00000270: 7da4 dfbd 82c8 9c3d c369 e73c 8ab4 9b3d
00000280: 3b2e c7bd dec8 3c3e d364 c53d 5200 46bd
00000290: 4a13 1b3e 0096 c03c b5be 45be 8b11 e2bd
000002a0: d94d f1bc 8ea7 a8bd 4adf 25be 82fc e13d
000002b0: e520 1bbd 8a85 a83d 25ee ea3b 6a19 77bd
000002c0: 5f56 48be 40af f3bd a99f cebc ab43 0dbd
000002d0: 241d 87bd af2a 803a dfce d1bd 70cd 9e3d
000002e0: e90e 1b3e 93ca 363c b41f 21be 5c71 d2bb
000002f0: 5448 1abe 4800 fe3d a099 02be 1590 8b3d
00000300: e7a0 353e 448d f0bd 9137 8e3d 72b5 2cbe
00000310: c3b1 19be 41f0 383e 0a1d 3d3e 14b7 bb3d
00000320: c4e6 2fbe b3b4 17bd 987d acbd df0a 133e
00000330: 1df7 073e ccf3 4cbd ca65 fbbd 73aa 0ebd
00000340: 6ca0 8c3c 38c0 cfba bef2 6fbd 72ce b53c
00000350: 6bcb 363d 44dc 753e 6021 87bc 0e7c e6bd
00000360: 9134 7fbd b61c b5bd 515e 8f3d a002 6d3e
00000370: 24b7 bfbc a5ee 163e af6b 88bd 514e 09be
00000380: 46a9 41be 1d65 673e 3c68 10be 3390 af3d
00000390: a4ae f73d 8719 c33d 9c18 20be c39a 80bd
000003a0: a5ed 893d 8101 03be 0818 ce3d 8dce 94bd
000003b0: 258e bebc a83e 24be 962a 2b3e 0e0a 923d
000003c0: 625b fc3d c0cd 853d 5b43 4e3c 5464 01be
000003d0: 2adf a83c c032 28be 20da 0ebe 6471 01be
000003e0: addf a8be 3273 573c e21b e93d f339 443d
000003f0: d9d5 fb3d 5ade 803c 7228 5a3b fd60 253e

model._model.a2c_network.actor_mlp.2.bias f4 [256]
-0.074555516 0.0036922216 -0.09030053 -0.013287041 -0.04484219 -0.059239104 0.053242754 -0.063617215
-0.08184962 0.015161537 0.0460591 -0.017639661 -0.022181736 -0.034129396 -0.08013489 -0.010256484
-0.1271569 -0.051681433 0.010128868 0.01630011 -0.009724736 -0.00017226848 -0.011995816 0.05097216
-0.10963258 -0.027093371 0.004538104 -0.13843833 -0.08320103 -0.053687897 0.020436171 0.021113899
-0.036017146 -0.009847043 0.0012644818 -0.110712074 -0.0047235624 -0.013873202 -0.08982565 -0.0012596551
-0.038531616 -0.041404046 -0.16103116 -0.028287888 0.061022673 -0.056159534 0.024311012 -0.097611606
-0.024639182 -0.019660205 -0.004145943 -0.0020028562 -0.10611858 -0.086463965 -0.05315249 0.035412878
-0.018267218 -0.01931202 -0.046441287 0.051270492 0.016062059 -0.06635223 0.019393912 -0.07334091
0.0605194 -0.057020567 0.011531653 -0.12582159 0.050006267 -0.049888495 -0.020167563 -0.09834369
0.014563737 -0.003548801 -0.041343182 -0.0655997 -0.0117663145 -0.07045196 -0.06141004 -0.08218839
-0.1529513 -0.10320153 -0.07680621 -0.0026992888 -0.13604088 -0.024488863 0.028731741 -0.04030698
0.0008838858 -0.031567514 -0.033408877 -0.05969314 0.028517116 0.064464204 -0.023927905 -0.013064929
0.041111458 -0.022605555 -0.06570414 -0.0038303896 -0.04617439 0.057606306 -0.018450601 -0.012335222
0.043129798 -0.06754297 -0.027923213 -0.04722636 -0.10417731 -0.05501055 -0.0421986 -0.0010769076
0.0028675406 0.022695435 -0.025580563 -0.06378071 0.012828195 -0.02703401 -0.102467775 0.02158671
-0.09139063 -0.07946397 -0.031529177 -0.011464483 -0.057275962 -0.06548398 -0.014900009 -0.01308944
-0.10178739 -0.10383248 -0.016910924 0.06049817 -0.11848496 0.013976678 -0.014900897 -0.08594626
-0.075813934 -0.008086517 0.0026572044 -0.08712213 0.016952703 -0.03549798 -0.11314208 -0.048148133
0.045044735 -0.029199295 0.057434235 0.007689493 0.03579695 -0.022088753 -0.011224503 -0.04469867
-0.058446385 -0.012860685 0.014946396 -0.07511426 0.011604645 -0.09968525 -0.039841767 0.0044686324
-2.7528113e-05 0.02799192 -0.018959006 -0.05321062 0.05551669 -0.05847768 0.050661325 -0.028195323
-0.06306204 -0.14407378 -0.029558951 0.08416624 -0.005656804 -0.04223689 0.055544823 -0.06723044
0.017007161 -0.031229716 -0.078409426 0.043114983 -0.10606389 -0.056827873 -0.04664261 -0.040104743
-0.07277985 0.0148390485 -0.015697313 -0.06283558 0.045735355 0.00068487227 -0.011349261 -0.05586752
0.07945896 -0.042577215 -0.032312322 0.010178295 0.023896152 -0.009652427 -0.005437336 -0.04535618
-0.12464384 -0.08418454 0.028960658 0.009011533 -0.039759994 -0.04040768 -0.09079805 -0.012459961
-0.0530483 -0.04216835 -0.026767543 -0.11450368 0.021140473 -0.0075528002 -0.057626966 -0.01094041
-0.07426389 -0.092726745 -0.05159454 -0.027647642 -0.0009744293 -0.0626314 -0.07226805 -0.016357401
-0.08554812 -0.011625961 -0.13611865 -0.09625723 -0.014909497 -0.11067475 -0.09409585 0.006739697
0.014984417 -0.058268692 -0.024784133 -0.048662107 0.026275124 0.025359897 -0.0009205701 -0.033762354
-0.09443703 -0.007297238 -0.014235356 -0.036838826 0.006197145 -0.08124834 -0.027773747 -0.01881898
0.03304922 -0.087251395 -0.01728753 -0.0047956216 0.025884919 -0.12698556 0.0010131322 0.0028349573
00000000: 90b0 98bd 33f9 713b 7cef b8bd e4b1 59bc
00000010: 72ac 37bd b4a4 72bd 1315 5a3d be49 82bd
00000020: c6a0 a7bd 1868 783c 78a8 3c3d 0d81 90bc
00000030: 79b6 b5bc 44cb 0bbd c31d a4bd d00a 28bc
00000040: 6b35 02be e9af 53bd 8df3 253c cf87 853c
00000050: 8054 1fbc f8a2 34b9 198a 44bc 2fc8 503d
00000060: 0c87 e0bd ebf2 ddbc 60b4 943b c7c2 0dbe
00000070: 4d65 aabd d7e7 5bbd c269 a73c 0ef7 ac3c
00000080: b786 13bd 7e55 21bc f8bc a53a 03bd e2bd
00000090: 1dc8 9abb 6d4c 63bc 83f6 b7bd 031b a5ba
000000a0: 54d3 1dbd 4a97 29bd 5ae5 24be 00bc e7bc
000000b0: e9f2 793d 8a07 66bd e327 c73c 98e8 c7bd
000000c0: 1cd8 c9bc 700e a1bc b1da 87bb 5a42 03bb
000000d0: b354 d9bd 0514 b1bd 6db6 59bd 180d 113d
000000e0: 22a5 95bc 3e34 9ebc 3839 3ebd 0201 523d
000000f0: 9494 833c aee3 87bd fbdf 9e3c c233 96bd
00000100: 31e3 773d 668e 69bd 42ef 3c3c 60d7 00be
00000110: 5fd3 4c3d e157 4cbd 7236 a5bc 6b68 c9bd
00000120: be9c 6e3c 0093 68bb 7857 29bd 2359 86bd
00000130: 80c7 40bc 1e49 90bd 1889 7bbd 6352 a8bd
00000140: 449f 1cbe 535b d3bd 934c 9dbd 8de6 30bb
00000150: 4d4e 0bbe de9c c8bc d45e eb3c ef18 25bd
00000160: 92b4 673a f04c 01bd bfd7 08bd cb80 74bd
00000170: ba9c e93c cf05 843d 7404 c4bc 490e 56bc
00000180: 7d64 283d 492f b9bc e48f 86bd 4607 7bbb
00000190: 5b21 3dbd 97f4 6b3d b725 97bc ac19 4abc
000001a0: dfa8 303d f853 8abd 39bf e4bc 6d70 41bd
000001b0: ea5a d5bd be52 61bd 70d8 2cbd 0627 8dba
000001c0: 59ed 3b3b c7eb b93c 548e d1bc 769f 82bd
000001d0: 592d 523c 6e76 ddbc a0da d1bd 9dd6 b03c
000001e0: 032b bbbd 02be a2bd bd24 01bd 87d5 3bbc
000001f0: 339a 6abd 771c 86bd 2b1f 74bc 1775 56bc
00000200: e875 d0bd 20a6 d4bd c788 8abc eecc 773d
00000210: 3ea8 f2bd 70fe 643c e422 74bc 9804 b0bd
00000220: 5644 9bbd 507d 04bc 7e24 2e3b 166d b2bd
00000230: 65e0 8a3c 5466 11bd 09b7 e7bd fa36 45bd
00000240: d480 383d 5c33 efbc 2940 6b3d 24f8 fb3b
00000250: d39f 123d 79f3 b4bc fae6 37bc f415 37bd
00000260: 7a65 6fbd 9fb5 52bc bbe1 743c 81d5 99bd
00000270: 6921 3e3c c827 ccbd 1f31 23bd 9b6d 923b
00000280: 2cec e6b7 504f e53c eb4f 9bbc 61f3 59bd
00000290: 7865 633d 4b86 6fbd 4082 4f3d e1f9 e6bc
000002a0: ac26 81bd 1488 13be 9d25 f2bc 5a5f ac3d
000002b0: b65c b9bb 9700 2dbd f882 633d 1db0 89bd
000002c0: 9a52 8b3c 76d5 ffbc 1f95 a0bd 5699 303d
000002d0: 0638 d9bd 58c4 68bd 520c 3fbd df44 24bd
000002e0: 9a0d 95bd 7b1f 733c a797 80bc f1af 80bd
000002f0: ff54 3b3d 0089 333a 40f2 39bc 57d5 64bd
00000300: 61bb a23d 7265 2ebd ed59 04bd ddc2 263c
00000310: ddc1 c33c 3725 1ebc ae2b b2bb 67c7 39bd
00000320: 4545 ffbd f268 acbd e73e ed3c 1ca5 133c
00000330: 60db 22bd 8682 25bd 54f4 b9bd dd24 4cbc
00000340: 2d49 59bd b8b8 2cbd 9b47 dbbc e880 eabd
00000350: c92e ad3c 7b7d f7bb 410a 6cbd 683f 33bc
00000360: ab17 98bd 85e7 bdbd cc54 53bd 4f7d e2bc
00000370: d870 7fba e444 80bd 4501 94bd f5ff 85bc
00000380: da33 afbd d17a 3ebc b062 0bbe 8322 c5bd
00000390: f746 74bc 71a9 e2bd 53b5 c0bd add8 dc3b
000003a0: 3381 753c 27ab 6ebd 1808 cbbc eb51 47bd
000003b0: ee3e d73c 8fbf cf3c 6a52 71ba 654a 0abd
000003c0: 3468 c1bd ab1d efbb 693b 69bc 4fe4 16bd
000003d0: 6c11 cb3b 8865 a6bd c585 e3bc 432a 9abc
000003e0: 9e5e 073d dcb0 b2bd 949e 8dbc 9724 9dbb
000003f0: 9c0c d43c 8108 02be 13cb 843a b1ca 393b

model._model.a2c_network.actor_mlp.2.weight f4 [256, 512]
0.023995094 -0.04776651 -0.0128336 -0.020997945 -0.012371619 0.011399501 -0.05696259 -0.034140375
-0.058314417 0.07138983 -0.0200766 -0.13963212 0.010058789 0.015570418 -0.004824024 0.023659218
0.031596806 -0.014877041 -0.025048751 -0.065827526 0.114260584 -0.055434264 -0.09388984 0.067202404
-0.11671221 -0.013420928 -0.099083364 0.013538242 -0.027012672 -0.089816 0.038730875 0.018348759
-0.0027511122 0.0037945255 0.019515917 -0.101660065 0.054224905 0.030630155 -0.0407703 -0.06936642
0.035261817 0.014487139 0.028345708 0.03241932 -0.0715559 -0.0019797552 -0.042717528 0.016567364
-0.014048226 0.0032152082 -0.053414095 0.027822157 -0.034876764 0.040141154 -0.017326504 0.019875854
0.093492806 -0.04574111 -0.0024065601 -0.009052599 0.055671386 0.009884089 0.037832607 0.05567389
-0.024391655 -0.045648143 0.060445182 0.007230586 -0.035866823 -0.032928858 0.048632707 0.012224414
0.035406128 0.08159543 -0.032117844 0.057970233 -0.0816428 -0.077067696 -0.067113206 0.13662654
-0.019739754 -0.12531625 -0.09399602 0.015443572 0.009287938 -0.03957203 0.015481667 0.06831589
-0.12539312 0.003955508 0.0650716 -0.011056321 -0.02314783 0.0068804785 0.06205506 -0.03038402
-0.1201927 0.033838704 -0.0511071 -0.03788181 -0.060784876 0.029534413 0.030451953 0.0114229135
-0.011006814 -0.032333333 -0.044986237 0.09912344 -0.042843327 0.028936442 -0.026695581 -0.009882258
-0.05903578 -0.02685918 -0.0016557425 -0.058278024 -0.0541258 0.04901439 0.008114642 0.1369442
-0.08992684 0.012411841 -0.014964104 -0.054151606 0.022990916 0.07573755 -0.042865876 -0.07386213
0.0011420756 -0.0057239803 0.036482982 0.034171715 -0.017486557 0.0018809084 -0.00973402 -0.077872194
0.05113849 0.08420118 0.018281782 0.0029193223 0.052698795 0.05504815 0.050433595 0.06027689
0.03583263 -0.12133045 -0.06198765 -0.0018627003 0.05712425 -0.045816023 0.023085158 -0.0074862563
-0.013214751 -0.040694892 -0.07255134 0.010493699 0.028495673 0.003937787 0.044865657 -0.061739888
-0.009621618 0.0761212 0.01111395 -0.037415422 -0.07510997 0.020839196 -0.07539284 -0.06734225
0.020636057 0.02903634 -0.063772865 0.0324737 0.015021258 0.05329558 -0.033206005 -0.010122902
0.0037999114 0.038640484 0.027492179 -0.0008921676 -0.03833665 0.06075964 -0.052338738 0.023108598
-0.0005070688 -0.0036809181 0.04675149 0.03214295 -0.12388165 -0.08803715 0.04617721 0.018385446
0.07337004 0.004882539 0.032392833 -0.10853159 0.096961625 -0.009444587 -0.06333735 0.012791927
0.002480816 -0.0002520915 -0.012330834 0.112584434 0.038857438 -0.05098255 -0.02946975 -0.041684024
-0.039802525 0.021880113 -0.03876462 -0.071502246 0.014154768 -0.11365489 -0.053730737 0.032533057
-0.09725693 -0.061428946 -0.094417825 0.015102181 -0.02686528 -0.01768265 -0.004274603 -0.007685469
0.058461025 -0.04091827 0.07029841 0.00479893 -0.013045274 -0.08109179 -0.044608537 -0.0038437033
-0.013965164 0.08630127 -0.070183314 -0.04432743 -0.032730527 0.035338793 0.016412001 -0.0822095
-0.056365505 -0.025224797 -0.025785731 -0.060910214 -0.09859762 0.040566444 0.025306454 0.027037354
0.0116759455 -0.079445705 -0.07578401 -0.058910098 0.0021735833 -0.014199372 0.004360318 -0.03895099
00000000: 5c91 c43c d1a6 43bd 0544 52bc e203 acbc
00000010: 55b2 4abc f9c4 3a3c 9b51 69bd c7d6 0bbd
00000020: 19db 6ebd d534 923d af77 a4bc b9fb 0ebe
00000030: 9ecd 243c 111b 7f3c d912 9ebb fad0 c13c
00000040: a76b 013d d5be 73bc 0a33 cdbc 95d0 86bd
00000050: 7401 ea3d 0a0f 63bd 5149 c0bd 6aa1 893d
00000060: d006 efbd 74e3 5bbc 38ec cabd 81cf 5d3c
00000070: ae49 ddbc 73f1 b7bd 44a4 1e3d 2350 963c
00000080: 014c 34bb 93ad 783b d8df 9f3c 2733 d0bd
00000090: ef1a 5e3d 17ec fa3c c2fe 26bd fb0f 8ebd
000000a0: b26e 103d 775b 6d3c 4235 e83c 1fca 043d
000000b0: e68b 92bd c8be 01bb 93f8 2ebd 48b8 873c
000000c0: 882a 66bc 3eb6 523b bdc8 5abd 4beb e33c
000000d0: f0da 0ebd 0d6b 243d 50f0 8dbc b0d2 a23c
000000e0: 2879 bf3d 085b 3bbd 61b7 1dbb 5a51 14bc
000000f0: ae07 643d e0f0 213c 5df6 1a3d 4e0a 643d
00000100: 02d1 c7bc 8cf9 3abd 5e95 773d 8dee ec3b
00000110: 17e9 12bd 69e0 06bd 1733 473d e948 483c
00000120: 0406 113d 811b a73d 008e 03bd 3272 6d3d
00000130: 5734 a7bd abd5 9dbd a672 89bd d4e7 0b3e
00000140: 44b5 a1bc e752 00be fc80 c0bd 0907 7d3c
00000150: 6f2c 183c 4816 22bd d1a6 7d3c 34e9 8b3d
00000160: 0e67 00be 359d 813b 4244 853d 9225 35bc
00000170: 85a0 bdbc a375 e13b 722d 7e3d e9e7 f8bc
00000180: 9727 f6bd 749a 0a3d ae55 51bd f529 1bbd
00000190: 90f9 78bd 27f2 f13c 6076 f93c 2c27 3b3c
000001a0: ed55 34bc f56f 04bd 7d43 38bd 3b01 cb3d
000001b0: 7c7c 2fbd 1e0c ed3c b1b0 dabc 32e9 21bc
000001c0: 81cf 71bd c807 dcbc 8005 d9ba f0b4 6ebd
000001d0: 04b3 5dbd 50c3 483d 47f3 043c 1a3b 0c3e
000001e0: 902b b8bd 095b 4b3c 002c 75bc 13ce 5dbd
000001f0: 7257 bc3c 4a1c 9b3d 2194 2fbd 0745 97bd
00000200: b3b1 953a 3a90 bbbb 2e6f 153d a4f7 0b3d
00000210: f83f 8fbc d088 f63a 707b 1fbc 757b 9fbd
00000220: 9876 513d ab71 ac3d adc3 953c 1a52 3f3b
00000230: b1da 573d 2b7a 613d 7593 4e3d e6e4 763d
00000240: 3cc5 123d 197c f8bd c3e6 7dbd da25 f4ba
00000250: 1efb 693d 95a9 3bbd 161d bd3c 454f f5bb
00000260: af82 58bc b0af 26bd cc95 94bd c4ed 2b3c
00000270: c26f e93c 8d08 813b 0dc5 373d f7e2 7cbd
00000280: fea3 1dbc 6fe5 9b3d 4917 363c ea40 19bd
00000290: 42d3 99bd f6b6 aa3c 9067 9abd bcea 89bd
000002a0: f30c a93c 9edd ed3c 599b 82bd 2403 053d
000002b0: b91b 763c 774c 5a3d 0503 08bd 87da 25bc
000002c0: ef07 793b 7c45 1e3d 4737 e13c 5be0 69ba
000002d0: e406 1dbd 1adf 783d 2561 56bd 3e4e bd3c
000002e0: d0ec 04ba 8f3b 71bb 7e7e 3f3d 53a8 033d
000002f0: aab5 fdbd d24c b4bd 5024 3d3d 139d 963c
00000300: 0843 963d b5fd 9f3b 59ae 043d cf45 debd
00000310: d193 c63d 78bd 1abc 03b7 81bd 3b95 513c
00000320: 3095 223b 262b 84b9 4407 4abc ab92 e63d
00000330: fa28 1f3d 14d3 50bd 8c6a f1bc debc 2abd
00000340: f907 23bd ec3d b33c a6c7 1ebd c56f 92bd
00000350: 66e9 673c e5c3 e8bd c314 5cbd 6241 053d
00000360: a42e c7bd eb9c 7bbd 225e c1bd 236f 773c
00000370: 9314 dcbc 34db 90bc f811 8cbb 63d6 fbbb
00000380: d474 6f3d ea99 27bd 9df8 8f3d 5840 9d3b
00000390: d8bb 55bc 7413 a6bd 71b7 36bd a4e6 7bbb
000003a0: 25ce 64bc b8be b03d 45bc 8fbd ae90 35bd
000003b0: 7210 06bd 69bf 103d 7672 863c 745d a8bd
000003c0: 84df 66bd 3ca4 cebc 993c d3bc fd7c 79bd
000003d0: 8ded c9bd 0029 263d 7b4f cf3c 717d dd3c
000003e0: 774c 3f3c 6eb4 a2bd a634 9bbd b74b 71bd
000003f0: ad72 0e3b 7ca4 68bc 00e1 8e3b 138b 1fbd

model._model.a2c_network.actor_mlp.4.bias f4 [128]
-0.015047554 0.0122451335 -0.106229134 0.04727796 -0.04640654 -0.013261355 -0.012948605 0.039068475
-0.056136467 -0.0401543 0.04840584 -0.03040861 -0.012393113 -0.08020913 -0.05130907 -0.07538649
-0.08238409 -0.09389439 0.06105335 0.00052900944 -0.0056876997 -0.040357344 -0.065331385 -0.08049595
0.053521726 -0.06494352 0.017142326 0.00724846 -0.08478395 -0.06673982 0.06771065 -0.04889419
-0.059870232 -0.10353751 -0.048543725 0.028030913 0.052306227 -0.007875347 0.065664664 -0.050767165
-0.0012136779 0.0037284738 0.026144754 -0.12024173 -0.07629822 -0.076098375 -0.016050607 -0.08321106
0.058403958 0.004056535 0.027304487 0.031263083 0.058360763 0.0020238585 0.0047251843 -0.057231806
0.02956971 0.038409337 -0.062383495 0.024213016 -0.05784063 0.056137513 0.0027388758 -0.044779215
-0.08519617 0.050904877 0.04893592 -0.033858873 0.040071145 -0.07505247 -0.0880751 -0.084742665
0.044553634 0.05819451 0.054311585 -0.050007485 0.079714745 0.041820873 -0.10356993 0.03825464
0.116831765 0.04817276 -0.0056070583 -0.07956347 0.06123588 0.0024534026 -0.0011220268 0.045005754
0.012540015 -0.0592354 0.046412252 -0.04246634 -0.042211927 -0.048723046 0.06223919 0.017428746
0.04110476 -0.053429343 -0.049391907 -0.07334102 -0.042765684 -0.005068659 0.059097506 -0.080585726
0.035992656 -0.02490579 -0.05102317 -0.098592356 -0.05588193 -0.036803715 -0.059300337 -0.08753039
0.03525021 0.0029392892 0.010567361 -0.09228389 -0.09966272 -0.06781747 -0.045461137 -0.09277213
-0.022464635 -0.024159841 -0.046498258 -0.07888984 0.020106832 -0.042730577 0.05864504 -0.011191944
00000000: 048a 76bc d09f 483c a98e d9bd 89a6 413d
00000010: c914 3ebd 2846 59bc 6326 54bc 4406 203d
00000020: 5aef 65bd d678 24bd 3445 463d 7a1b f9bc
00000030: 7c0c 4bbc af44 a4bd 7629 52bd 3b64 9abd
00000040: fdb8 a8bd b44b c0bd 1413 7a3d 39ad 0a3a
00000050: e25f babb be4d 25bd 76cc 85bd 10db a4bd
00000060: 9939 5b3d 1c01 85bd 106e 8c3c 7d84 ed3b
00000070: 35a3 adbd e3ae 88bd e2ab 8a3d 4645 48bd
00000080: 7d3a 75bd 790b d4bd c9d5 46bd 16a1 e53c
00000090: 0e3f 563d 9907 01bc 327b 863d 3bf1 4fbd
000000a0: 4614 9fba 6959 743b 862d d63c 4c41 f6bd
000000b0: 3e42 9cbd 77d9 9bbd 907c 83bc 8f6a aabd
000000c0: fd38 6f3d afec 843b a9ad df3c b80d 003d
000000d0: b20b 6f3d b6a2 043b b8d5 9a3b e66b 6abd
000000e0: 2d3c f23c 1c53 1d3d d685 7fbd 605a c63c
000000f0: 4cea 6cbd 73f0 653d b67e 333b 696a 37bd
00000100: 547b aebd a281 503d 0871 483d 9aaf 0abd
00000110: a421 243d 1cb5 99bd b860 b4bd 908d adbd
00000120: df7d 363d 5e5d 6e3d d375 5e3d a6d4 4cbd
00000130: 7c41 a33d 5d4c 2b3d 791c d4bd e6b0 1c3d
00000140: 7e45 ef3d cd50 453d 6abb b7bb 2cf2 a2bd
00000150: 79d2 7a3d 44c9 203b f910 93ba f457 383d
00000160: a374 4d3c d2a0 72bd c61a 3e3d 2ff1 2dbd
00000170: 6ae6 2cbd d191 47bd 85ee 7e3d bbc6 8e3c
00000180: 775d 283d bad8 5abd 2b4f 4abd d133 96bd
00000190: 122b 2fbd fe16 a6bb 3a10 723d 210a a5bd
000001a0: 096d 133d 3a07 ccbc acfd 50bd caea c9bd
000001b0: 73e4 64bd 7ebf 16bd e9e4 72bd 2243 b3bd
000001c0: 8662 103d 17a1 403b b922 2d3c 56ff bcbd
000001d0: f81b ccbd e3e3 8abd 7535 3abd 51ff bdbd
000001e0: c107 b8bc dcea c5bc f574 3ebd ff90 a1bd
000001f0: 15b7 a43c 4206 2fbd c835 703d 6a5e 37bc

model._model.a2c_network.actor_mlp.4.weight f4 [128, 256]
-0.06443748 0.05381591 -0.023051767 -0.030490004 0.058393102 -0.034809373 0.02913687 -0.14492953
-0.06548575 -0.023208117 -0.042088043 -0.089139156 0.023320824 -0.008856409 0.04497384 -0.04851706
0.062888935 0.02824069 0.045570362 -0.0027970173 -0.007931036 0.045391444 -0.05064645 -0.08518596
-0.061601136 -0.024370337 0.05679218 -0.046581347 -0.016636511 -0.044300865 0.036474425 0.025969565
0.020359786 -0.0070125167 -0.060235076 0.027387988 -0.04764346 0.025720937 0.037539907 0.05310222
0.07105608 0.017877735 0.025018094 0.023730068 -0.037852544 0.02662471 -0.030122593 0.06694216
-0.0035093846 -0.028207475 -0.01953962 0.088825665 0.04715723 -0.057120666 -0.027130218 -0.039922126
0.059815917 -0.026496086 0.025841052 -0.057117116 -0.011352942 0.014845605 0.004989528 -0.06680701
-0.0024745956 -0.0077908454 0.021976758 0.027271623 0.03413136 -0.04300393 -0.003017766 -0.07022378
0.020028332 0.005135753 -0.065817095 -0.038216397 0.0075429804 -0.008053877 0.023267409 0.03376835
0.02424331 0.043632995 0.055983424 0.013019483 -0.022024456 0.011694543 -0.022688754 0.016121637
0.0010638078 0.07314589 -0.05223814 -0.0037628259 0.04814627 -0.059878208 0.05228189 -0.003843921
0.0016282938 0.02216861 -0.027656456 0.06306472 0.07117822 0.015438052 -0.08593778 0.06615719
-0.03867007 0.010587992 0.01639976 0.04166881 -0.015488275 -0.018241802 -0.05141364 0.041820396
-0.028469233 -0.01763913 0.037036337 -0.049805414 0.0076079606 0.04513609 0.050488833 0.041661005
-0.025377126 0.03400887 -0.010273674 -0.07609508 -0.00604058 -0.011488253 -0.056885734 0.03505018
-0.071683295 -0.00055636145 -0.012910045 -0.0074145137 -0.022020996 0.014570566 -0.019133784 0.026580326
-0.010299493 0.03648134 0.01815953 -0.009822454 0.037880335 -0.02289542 0.067885436 0.018040778
0.0346338 0.027354816 0.012417231 -0.0087626465 -0.050093085 0.079154335 -0.028265852 -0.08190751
-0.070732936 0.030795114 0.032772306 0.08705121 -0.0614316 0.07914698 -0.008656831 -0.0743129
0.046885986 -0.021402156 0.023879627 0.017314479 -0.048496507 -0.044048365 -0.070761986 -0.0005307394
0.02839407 -0.014473116 0.06205193 -0.0567176 0.0030565755 -5.366412e-05 -0.043722387 -0.014386383
-0.06804112 -0.04485225 -0.08395438 -0.036407672 -0.013751857 0.037009843 -0.070963696 -0.08400704
0.06922283 0.0061683482 0.036214247 -0.013805159 -0.003844701 -0.015904455 -0.03376191 -0.019499334
0.035118375 0.06953066 -0.08135432 0.031915337 0.017225549 0.004399585 -0.028994236 0.009258527
-0.035052262 0.023422506 -0.07043203 0.037775453 -0.08217588 -0.038629565 -0.03626291 -0.0020949466
0.040761042 0.038852096 0.051800586 0.04846144 0.045296866 -0.027533108 -0.059269857 -0.03749623
-0.009689132 0.060474943 0.02373121 0.02094237 -0.07588697 0.006637805 0.0643885 -0.019672789
-0.0026000624 -0.011003561 0.09818637 0.006921087 -0.039345548 0.016185611 -0.026994457 -0.044095263
-0.019611098 0.017985256 0.06994697 -0.0026428683 -0.072339974 -0.059674498 -0.04634419 -0.0016788471
-0.023106657 -0.03418431 0.034358144 0.0122955 0.015143233 -0.05609721 0.06413919 0.11060133
0.011266519 0.065415524 0.051846102 0.008399398 -0.04061459 0.05062781 -0.09892046 -0.00029277842
00000000: ccf7 83bd 126e 5c3d 0fd7 bcbc 2cc6 f9bc
00000010: 9b2d 6f3d 4694 0ebd 72b0 ee3c 6868 14be
00000020: 651d 86bd f31e bebc 8364 2cbd 978e b6bd
00000030: 500b bf3c 791a 11bc 7d36 383d d3b9 46bd
00000040: eacb 803d 0559 e73c fda7 3a3d 2a4e 37bb
00000050: 2df1 01bc 61ec 393d a772 4fbd fa75 aebd
00000060: 7951 7cbd 4da4 c7bc eb9e 683d 15cc 3ebd
00000070: 4b49 88bc d374 35bd 3566 153d 20be d43c
00000080: 91c9 a63c 41c9 e5bb 0eb9 76bd c65c e03c
00000090: ca25 43bd b7b4 d23c 72c3 193d b781 593d
000000a0: da85 913d 5474 923c bff2 cc3c 8f65 c23c
000000b0: 450b 1bbd 101c da3c a8c3 f6bc f918 893d
000000c0: b4fd 65bb 5d13 e7bc 8e11 a0bc 3bea b53d
000000d0: f127 413d 5cf7 69bd 3140 debc 6285 23bd
000000e0: 8901 753d 520e d9bc 9db0 d33c a3f3 69bd
000000f0: b101 3abc fb3a 733c 327f a33b 1dd2 88bd
00000100: d32c 22bb 594a ffbb 9a08 b43c bd68 df3c
00000110: 53cd 0b3d e424 30bd b6c5 45bb 7cd1 8fbd
00000120: 7512 a43c d249 a83b 1dcb 86bd cc88 1cbd
00000130: 1b2b f73b 69f4 03bc 4b9b be3c ae50 0a3d
00000140: e899 c63c 83b8 323d e04e 653d ab4f 553c
00000150: a26c b4bc 789a 3f3c c4dd b9bc 8611 843c
00000160: 776f 8b3a 83cd 953d a9f7 55bd be99 76bb
00000170: 0635 453d da42 75bd 8925 563d 4bea 7bbb
00000180: 796c d53a f29a b53c cb8f e2bc 1328 813d
00000190: e3c5 913d e2ef 7c3c 2600 b0bd 6c7d 873d
000001a0: 8264 1ebd 4279 2d3c ca58 863c eaac 2a3d
000001b0: 89c2 7dbc d56f 95bc 1c97 52bd dd4b 2b3d
000001c0: 4f38 e9bc f07f 90bc 6ab3 173d c300 4cbd
000001d0: 334c f93b 9fe0 383d 61cd 4e3d bba4 2a3d
000001e0: b1e3 cfbc e34c 0b3d e952 28bc bdd7 9bbd
000001f0: 0ff0 c5bb 3a39 3cbc 0401 69bd c790 0f3d
00000200: b1ce 92bd c9d8 11ba a784 53bc 73f5 f2bb
00000210: 6065 b4bc 62b9 6e3c 74be 9cbc fcbe d93c
00000220: 34bf 28bc 756d 153d 4bc3 943c 5cee 20bc
00000230: 6928 1b3d 2d8f bbbc 8507 8b3d 41ca 933c
00000240: 2cdc 0d3d 3517 e03c a471 4b3c 3491 0fbc
00000250: 682e 4dbd ab1b a23d ca8d e7bc 20bf a7bd
00000260: 6edc 90bd 0946 fc3c 413c 063d e847 b23d
00000270: b49f 7bbd d017 a23d 62d5 0dbc 5d31 98bd
00000280: 850b 403d 9353 afbc 359f c33c 18d7 8d3c
00000290: 46a4 46bd 0f6c 34bd a9eb 90bd 5121 0bba
000002a0: ae9a e83c a620 6dbc 2a2a 7e3d b750 68bd
000002b0: d450 483b 6915 61b8 3f16 33bd ddb4 6bbc
000002c0: 2559 8bbd feb6 37bd 46f0 abbd 3620 15bd
000002d0: 784f 61bc a297 173d 6a55 91bd e20b acbd
000002e0: b3c4 8d3d db1f ca3b 6455 143d 092f 62bc
000002f0: 61f7 7bbb 0f4a 82bc ee49 0abd 11bd 9fbc
00000300: 49d8 0f3d 1766 8e3d 189d a6bd a8b9 023d
00000310: 981c 8d3c 652a 903b 5285 edbc 14b1 173c
00000320: f692 0fbd 8ee0 bf3c ab3e 90bd 6fba 1a3d
00000330: d44b a8bd 093a 1ebd 6b88 14bd 5f4b 09bb
00000340: 0df5 263d 6023 1f3d da2c 543d 817f 463d
00000350: 3589 393d 1d8d e1bc f3c4 72bd a695 19bd
00000360: 2abf 1ebc 93b4 773d f467 c23c 558f ab3c
00000370: a16a 9bbd f281 d93b 1ede 833d d428 a1bc
00000380: cf65 2abb 4848 34bc f015 c93d 49ca e23b
00000390: cc28 21bd b097 843c 7b23 ddbc 3c9d 34bd
000003a0: 74a7 a0bc d155 933c 5b40 8f3d f933 2dbb
000003b0: fb26 94bd 3f6d 74bd 68d3 3dbd c30c dcba
000003c0: 2c4a bdbc d904 0cbd 20bb 0c3d 1173 493c
000003d0: 531b 783c 30c6 65bd 685b 833d f382 e23d
000003e0: 3597 383c 93f8 853d 945c 543d a19d 093c
000003f0: 7c5b 26bd 1b5f 4f3d cf96 cabd 0e80 99b9

model._model.a2c_network.value.weight f4 [1, 128]
0.038681313 0.017544532 -0.075768694 0.080585085 0.008211874 0.015245971 0.020348711 0.05842917
-0.07153108 -0.02227959 0.09728304 0.002054178 0.0067070397 -0.068040036 0.009519604 -0.004668877
-0.06053899 -0.060473323 0.0762764 0.008994488 0.016413879 0.011904145 -0.0017976426 -0.05127125
0.055459373 0.0021674023 0.04468555 0.023918478 -0.049646594 -0.059147917 0.10958585 -0.007336665
-0.063311085 -0.065256506 -0.016630724 0.020587701 0.04340327 0.021663142 0.018372012 -0.0019555131
0.010855248 0.015409952 0.03426298 -0.028563762 0.011094436 -0.00609115 -0.017312275 -0.031836186
0.04199341 -0.013813968 0.005190888 0.027887031 0.035178278 -0.002961663 0.0011356658 -0.048593517
0.076048166 0.075681314 -0.021358034 0.024096798 -0.11944089 0.086655416 0.06606572 -0.010942936
-0.034395143 0.048184503 0.048381627 0.025302919 0.015708424 -0.024304325 -0.009943539 -0.021046678
0.06554641 0.04111426 0.021697601 0.002870141 0.102847494 0.051598676 -0.09583093 0.11689335
0.1242776 0.014386555 -0.0011273378 -0.027109852 0.065169655 0.0387964 0.004436479 0.017351978
0.03991793 -0.009183538 0.065576054 -0.028823763 -0.012312375 -0.008270718 0.10648435 0.002827994
0.05347338 -0.042698566 -0.020538107 -0.06419536 -0.02948078 -0.0004785209 0.09906462 0.0047398377
0.006563495 0.005723263 -0.009435734 -0.04642199 0.0067624543 0.0102359485 -0.032903485 -0.055638727
0.032685123 0.0485427 0.003203178 -0.05181212 0.0129249655 -0.022292653 -0.03639434 -0.07593613
0.029311905 0.029241074 -0.05307417 -0.03454928 0.0752482 -0.014693912 0.026055032 -0.021968195
00000000: 4c70 1e3d 8db9 8f3c 9e2c 9bbd cb09 a53d
00000010: 198b 063c 3dca 793c 57b2 a63c 6d53 6f3d
00000020: e37e 92bd b083 b6bc 553c c73d 639f 063b
00000030: bac6 db3b 9358 8bbd 1df8 1b3c 61fd 98bb
00000040: bbf7 77bd e0b2 77bd cd36 9c3d 9e5d 133c
00000050: 6676 863c 9a09 433c e09e ebba cd01 52bd
00000060: 5e29 633d fa0a 0e3b 3208 373d aff0 c33c
00000070: 3a5a 4bbd 1645 72bd 8c6e e03d 6868 f0bb
00000080: 3ea9 81bd 34a5 85bd 283d 88bc 8aa7 a83c
00000090: a1c7 313d e776 b13c e780 963c 1128 00bb
000000a0: 36da 313c 067a 7c3c 5757 0c3d 8dfe e9bc
000000b0: 70c5 353c 4598 c7bb 79d2 8dbc a966 02bd
000000c0: 4801 2c3d fb53 62bc 5318 aa3b 5873 e43c
000000d0: 1917 103d 7618 42bb 9fda 943a ff09 47bd
000000e0: 24bf 9b3d cefe 9a3d 0bf7 aebc a666 c53c
000000f0: 6d9d f4bd 6578 b13d 774d 873d 004a 33bc
00000100: ece1 0cbd 1d5d 453d d02b 463d 1148 cf3c
00000110: f4ae 803c dd19 c7bc 3aea 22bc 156a acbc
00000120: 323d 863d 6d67 283d 2bbf b13c fa18 3c3b
00000130: b5a1 d23d 2259 533d 0243 c4bd c865 ef3d
00000140: 4185 fe3d 96b5 6b3c 2ec3 93ba 7b15 debc
00000150: ab77 853d f9e8 1e3d e25f 913b bc25 8e3c
00000160: fc80 233d 8d76 16bc bd4c 863d d01f ecbc
00000170: d8b9 49bc e881 07bc 7814 da3d de55 393b
00000180: e706 5b3d b1e4 2ebd 883f a8bc db78 83bd
00000190: ad81 f1bc fde1 fab9 64e2 ca3d a450 9b3b
000001a0: 9612 d73b 368a bb3b 5698 1abc fc24 3ebd
000001b0: 9497 dd3b aeb4 273c cec5 06bd 6fe5 63bd
000001c0: d6e0 053d b6d4 463d 69ec 513b f238 54bd
000001d0: 3cc3 533c 159f b6bc 3b12 15bd 6784 9bbd
000001e0: 851f f03c fa8a ef3c 4d64 59bd 8c83 0dbd
000001f0: ba1b 9a3d bcbe 70bc 5d71 d53c a5f6 b3bc

model._model.a2c_network.mu.bias f4 [11]
-0.011394364 -0.034589235 0.017465929 0.03477335 -0.01663789 0.026614444 0.014979922 -0.020547371
0.002449955 0.008879372 -0.041121133
00000000: 6daf 3abc 71ad 0dbd b514 8f3c 806e 0e3d
00000010: 2f4c 88bc 8906 da3c 596e 753c f652 a8bc
00000020: 6d8f 203b c97a 113c a26e 28bd

model._model.a2c_network.mu.weight f4 [11, 128]
-0.025071904 0.14445388 0.00024553476 0.016908256 -0.008885077 0.19788916 0.107490584 0.123368144
0.13027841 -0.01929599 0.07047469 0.10966802 -0.12838182 -0.0484939 0.16899057 -0.058774255
0.031275287 0.050131235 -0.10239724 -0.06661522 -0.007822419 -0.13178256 -0.12489556 0.07527201
0.028668255 -0.019616583 -0.10129449 -0.019054871 -0.04843235 0.042770192 0.053393956 -0.026288832
-0.030014241 -0.12226009 -0.10886871 -0.015825905 -0.136649 0.040627066 -0.2050335 -0.035082873
-0.11484039 -0.04187562 0.17701499 0.1591508 0.06812336 0.079122804 -0.028127179 0.09483814
-0.13494582 -0.061828587 0.019937191 -0.0053662625 0.08581351 0.018096074 -0.052795514 -0.04544683
0.02830232 0.028661449 -0.08173882 -0.13051379 -0.16105835 0.04154611 0.051956747 -0.19305463
0.060448505 -0.039086595 0.00038970483 0.075723946 -0.01209666 0.05450805 -0.06327455 0.02452574
0.09409227 -0.0037159151 0.06220634 -0.022954715 -0.1055423 0.014657144 0.022146849 -0.05992296
-0.11932959 -0.09673778 0.07653113 -0.20495613 0.108301654 0.058328893 0.01406842 0.051935088
0.0134246545 0.056413926 0.09704269 0.062955365 0.015462661 -0.086504504 -0.031432778 -0.030549593
-0.09959206 0.13457818 -0.04770107 -0.07263672 0.14007498 0.25273886 0.039666995 -0.13262734
-0.111936286 -0.12122269 -0.09785881 -0.12244053 0.041554827 -0.0100277085 -0.0002970376 0.21171853
-0.07848853 -0.0025151512 -0.137307 0.05194726 0.20598021 -0.016182508 0.012428668 -0.068445235
-0.20574506 0.06465306 -0.020286301 -0.04317583 -0.016397102 -0.015023236 0.100164644 0.26712924
-0.015838848 0.12542255 0.050975043 0.09270284 0.06050573 0.0061488934 0.14257446 -0.031002637
-0.038640976 -0.027006298 0.0951092 0.14672403 0.0773669 0.045120332 0.07795188 -0.054438986
0.022265056 0.029333357 -0.084411055 0.02293596 0.0461841 0.0027058022 0.04743772 0.024860434
0.014206267 0.026928429 -0.009782137 -0.055433523 0.038504913 0.11584349 0.0112641845 -0.0055720713
0.108212784 -0.03556056 0.11968386 0.053673167 -0.03125129 0.030437464 -0.0035204245 0.03728788
0.07888842 -0.025474062 -0.10485441 -0.08840141 0.030912707 0.016214335 0.010500098 -0.038483255
0.040307246 -0.09451565 -0.04242907 -0.025476625 -0.13784437 -0.08630393 -0.059624698 -0.05202662
-0.00045551138 0.007206739 0.11362868 -0.050016474 -0.06093794 -0.049401645 0.11966886 -0.031323362
0.079642095 0.04142869 -0.04078299 -0.03168179 -0.073588856 0.09485098 -0.01716125 0.0129332105
0.0066589233 -0.08455821 -0.04610988 -0.0287381 0.0056305393 -0.016309235 -0.08105193 -0.012831387
0.016636718 -0.071970396 0.057877615 0.033944186 0.039106384 0.06574145 -0.0042648357 -0.026507454
-0.06750651 -0.11345632 0.11282239 0.09099425 0.020138262 -0.061837576 -0.02745402 0.044689726
0.05310717 -0.031399786 -0.03701953 -0.043005772 0.02019725 -0.09977252 0.0059714615 -0.06700547
0.002882171 0.03940901 -0.046054184 0.055533785 0.10757359 -0.002688529 0.0923166 0.016424457
0.00012914292 -0.061534524 0.0062806443 0.042872652 0.034544226 0.015660163 -0.04865106 0.04786913
0.029870538 0.05790674 0.012175342 -0.11634097 0.07668009 0.0070521124 -0.0814712 0.055034522
00000000: 9863 cdbc b8eb 133e 1ebb 8039 2f83 8a3c
00000010: b792 11bc 75a3 4a3e 0624 dc3d 70a8 fc3d
00000020: b467 053e a012 9ebc 0955 903d a099 e03d
00000030: 8676 03be 8aa1 46bd dd0b 2d3e 46bd 70bd
00000040: 841a 003d 6956 4d3d a5b5 d1bd 8f6d 88bd
00000050: 9a29 00bc 02f2 06be 3ec9 ffbd 3628 9a3d
00000060: b0d9 ea3c f5b2 a0bc 7c73 cfbd f618 9cbc
00000070: 0061 46bd cc2f 2f3d 9fb3 5a3d ad5b d7bc
00000080: 6de0 f5bc 8063 fabd 8ff6 debd 54a5 81bc
00000090: b7ed 0bbe 9168 263d 4df4 51be 0fb3 0fbd
000000a0: 7031 ebbd c585 2bbd 6b43 353e 6df8 223e
000000b0: 4384 8b3d 230b a23d f86a e6bc 803a c23d
000000c0: 3d2f 0abe f93f 7dbd 5253 a33c 79d7 afbb
000000d0: febe af3d 383e 943c 1c40 58bd 7526 3abd
000000e0: 44da e73c 6acb ea3c af66 a7bd 68a5 05be
000000f0: 7bec 24be 412c 2a3d 99d0 543d 1db0 45be
00000100: da98 773d 4419 20bd 4c51 cc39 2815 9b3d
00000110: 1231 46bc d543 5f3d 1696 81bd 34ea c83c
00000120: 73b3 c03d b686 73bb 13cc 7e3d 870b bcbc
00000130: 9026 d8bd 8524 703c 4f6d b53c c771 75bd
00000140: 1263 f4bd 751e c6bd 5abc 9c3d 05e0 51be
00000150: 42cd dd3d 47ea 6e3d 3b7f 663c e3b9 543d
00000160: 15f3 5b3c 4a12 673d 51be c63d beee 803d
00000170: 1a57 7d3c 4629 b1bd a8bf 00bd 2443 fabc
00000180: ecf6 cbbd ddce 093e 3262 43bd 90c2 94bd
00000190: d16f 0f3e fd66 813e dc79 223d 76cf 07be
000001a0: da3e e5bd 9a43 f8bd 336a c8bd 1ac2 fabd
000001b0: 6535 2a3d 424b 24bc b6bb 9bb9 becc 583e
000001c0: 98be a0bd 3cd5 24bb 359a 0cbe a6c6 543d
000001d0: 7aec 523e 2e91 84bc 9da1 4b3c 042d 8cbd
000001e0: d5ae 52be d368 843d 752f a6bc 24d9 30bd
000001f0: 3753 86bc 0524 76bc 1f23 cd3d 2ac5 883e
00000200: 79c0 81bc c56e 003e 35cb 503d fdda bd3d
00000210: dbd4 773d a87c c93b 0aff 113e 3ef9 fdbc
00000220: 0046 1ebd 503c ddbc 9dc8 c23d d33e 163e
00000230: 8a72 9e3d 19d0 383d 3ca5 9f3d 6afb 5ebd
00000240: 3565 b63c 824c f03c b4df acbd 32e4 bb3c
00000250: 8a2b 3d3d d453 313b 0e4e 423d 1ca8 cb3c
00000260: 67c1 683c 0299 dc3c 4245 20bc 430e 63bd
00000270: 54b7 1d3d 5a3f ed3d 6a8d 383c ec95 b6bb
00000280: aa9e dd3d f3a7 11bd d01c f53d 65d8 5b3d
00000290: 5a01 00bd fd57 f93c ecb6 66bb 2dbb 183d
000002a0: 4090 a13d fbae d0bc e9bd d6bd cc0b b5bd
000002b0: a53c fd3c edd3 843c 9a08 2c3c 9ea0 1dbd
000002c0: 3619 253d 6c91 c1bd 1bca 2dbd 5bb4 d0bc
000002d0: 1327 0dbe 1dc0 b0bd 0739 74bd dd19 55bd
000002e0: b4d1 eeb9 8226 ec3b 27b6 e83d 13de 4cbd
000002f0: 109a 79bd 6159 4abd f314 f53d ed4c 00bd
00000300: 651b a33d 21b1 293d 110c 27bd c4c4 01bd
00000310: c1b5 96bd 3b41 c23d c095 8cbc d1e5 533c
00000320: 1933 da3b db2c adbd b7dd 3cbd 2a6c ebbc
00000330: 6380 b83b f29a 85bc 8efe a5bd bd3a 52bc
00000340: ba49 883c 3765 93bd 1411 6d3d 0f09 0b3d
00000350: 042e 203d 74a3 863d 09c0 8bbb 2926 d9bc
00000360: da40 8abd c95b e8bd 6d0f e73d 315b ba3d
00000370: fff8 a43c 6649 7dbd 41e7 e0bc 930c 373d
00000380: e786 593d 109d 00bd caa1 17bd d226 30bd
00000390: b474 a53c 8955 ccbd 40ac c33b 2a3a 89bd
000003a0: cee2 3c3b 586b 213d 50a3 3cbd 6577 633d
000003b0: 8b4f dc3d 0832 30bb 7c10 bd3d 958c 863c
000003c0: 8a6a 0739 a00b 7cbd ddcd cd3b 3c9b 2f3d
000003d0: 3f7e 0d3d be49 803c 5546 47bd 6c12 443d
000003e0: 0fb3 f43c 9e2f 6d3d 167b 473c 2d44 eebd
000003f0: 730a 9d3d 6815 e73b 5fda a6bd e16b 613d

onnx::Sub_38 f4 [27]
-0.014067484 -0.073428944 3.148585 -0.021291578 0.116378166 0.02654631 -0.050299313 -0.014521566
0.30334622 0.031338844 -0.7410009 -0.6762524 -0.000918186 0.01258838 0.0007616345 0.009771919
9.828641e-05 0.003925154 -0.008995555 -0.00015358235 -0.00014999334 0.011878913 -0.08098332 0.75224465
-0.0037684632 -0.008754395 0.70549387
00000000: 4e7b 66bc ea61 96bd 6b82 4940 ad6b aebc
00000010: ad57 ee3d a677 d93c a706 4ebd ddeb 6dbc
00000020: 3250 9b3e 295d 003d 3cb2 3dbf e11e 2dbf
00000030: 6bb2 70ba 7e3f 4e3c 6da8 473a 661a 203c
00000040: 1d1f ce38 949e 803b 1862 13bc f30a 21b9
00000050: 8847 1db9 c69f 423c 95da a5bd 1b93 403f
00000060: 52f8 76bb 986e 0fbc 3f9b 343f

onnx::Div_41 f4 [27]
1.1663121 1.1906018 1.8428584 0.1768529 0.3156452 0.13713951 0.32256442 0.13752702
0.13229154 0.18680811 0.6490551 0.6356896 0.0527838 0.06769634 0.041205082 0.059302926
0.045878813 0.043175545 0.051277835 0.0073404233 0.008449285 1.4440848 1.4444324 0.27427015
1.7390488 1.7297281 0.28871912
00000000: b749 953f a465 983f c9e2 eb3f ed18 353e
00000010: 3f9c a13e 4d6e 0c3e 2a27 a53e e2d3 0c3e
00000020: 6f77 073e a04a 3f3e 7a28 263f 8ebc 223f
00000030: d333 583d 61a4 8a3d a9c6 283d a0e7 723d
00000040: 6ceb 3b3d d7d8 303d b508 523d ef87 f03b
00000050: df6e 0a3c c5d7 b83f 29e3 b83f 236d 8c3e
00000060: 2799 de3f bb67 dd3f fed2 933e
