ROS/models/m1best.onnx (onnx, 780103 bytes, 12 tensors)

model._model.a2c_network.sigma f4 [9]
00000000: 58c8 f4bf 5735 03c0 213a d1bf c416 c8bf
00000010: 9288 d4bf 27fd debf 0a57 cbbf 5399 cebf
00000020: d36b d0bf
-1.912364 -2.0501306 -1.6345865 -1.5631948 -1.6604178 -1.7421006 -1.5885937 -1.6140541
-1.6282905

model._model.a2c_network.actor_mlp.0.bias f4 [512]
00000000: 8a9e afbd 2955 953d 6a2c 483d f17f 0d3d
00000010: dd9f d9bd e7ea 6ebd c80f 69bd fe38 fd3d
00000020: 9b1a 6d3d 2f6f c1bc 821b ca3d 37db 3e3d
00000030: a606 9abc d113 373b 08b2 5e3d 9eca 92bd
00000040: 6f80 223d a8c3 863d 501f 82bd 297b edbd
00000050: 5cf3 1c3d b97d 1c3d b5af a63d 80ee d53d
00000060: dddb 48bc b9fc b43d 45ef 9ebb fa02 023d
00000070: 21a0 a43d 2905 e53c 7084 48bd 3d7d b13d
00000080: bcc9 463c 756e 523d b9b2 0abd 0090 c2bd
00000090: 9709 00bd 1937 81bc 4fb8 d63d 0174 8bbd
000000a0: 9e0b 1c3c 5b31 ebbc 9af3 a83d 37bc 99bd
000000b0: 8be0 efbb a13f 27bc ff09 143c 1a89 293d
000000c0: 01d6 47bd a08a 9f3d 9722 79bd fd8a b53c
000000d0: d198 81bd 494c e23c 44af e23d edaa f0bd
000000e0: 2db2 823d 4925 21bd d556 b1bd dda3 5c3c
000000f0: cae8 97bd 1ba1 bb3c 52ae 8fbd cdaf 4cbd
00000100: 9b77 47bd 3560 9b3d 38f1 003d 8147 f23b
00000110: dbf4 57bd e102 97b9 9384 f1bc 3b84 10bc
00000120: 8c5b 3bbd ff06 fdbd 7664 933d 0c34 87bd
00000130: 3757 f3bc db03 2bbd d98f 96bd 4dc8 373b
00000140: 9164 8bbd e7ca d33d 790a afbc 5352 d5bd
00000150: 3a8d dd3b 74c6 063c 7637 c43c 25ab 01be
00000160: 32d3 38bc 7d74 85bd 8388 1dbd 3529 8abd
00000170: 84eb 853d 031f 1b3d 0fe9 c63d a6e2 52bd
00000180: 38e9 fb3d 891f 1fbc 9ca9 c73b 1bbc 98bd
00000190: 487b cabc 03f8 a9bd 537a 4dbd e7a6 06bd
000001a0: 1ed0 13bd 6a0b 86bc ca9a 7c3c e439 d5bc
000001b0: 565c 00bc 62d3 dabd ce97 e1bd 6bf5 973d
000001c0: d353 67bd b974 763d b4eb dcbd a4b8 e5bc
000001d0: a843 d3bb 8f42 0ebd 91da eabd 9d75 28b9
000001e0: 34da d9bd e93a 883d c0c3 043e 669e 8ebc
000001f0: 7138 233d 5f52 0bbd b4c2 a2bd 4f34 a03d
00000200: 0fcd af3d b49a 023e c817 19bd b452 12bd
00000210: 7983 e3bd 8f44 67bd cd71 7bbd 2698 42bd
00000220: 57b8 bbbd 6bb3 13be 6573 27bc ebad 6cbd
00000230: e567 ec3c f34a 893d 2221 c83a 864f d13c
00000240: 7f93 21bd 0846 3c3d f222 5ebc a768 b43a
00000250: 4a52 b1bc 4d2d bcbb e670 b2ba f863 643c
00000260: 4557 50bb 194f 793d c11f cebd 3236 003d
00000270: cd22 343d 866b 9dbd 30ff 8f3d 56e6 c1bc
00000280: a81d 1f3d 2d5c 91bd 260c 91bc 611e dabd
00000290: b967 423c d9b9 e73c 2791 063b 2d93 bc3d
000002a0: b81c c53c 2333 08bd 1f52 33bc 29f6 c1bd
000002b0: 60cf 273d 7667 2ebc 8fe8 063d 6892 883b
000002c0: 7201 aebd 629a 60bd 7349 2e3d 91b6 acbd
000002d0: ff15 9b3c 6351 6bbd 5b43 68bd b2a7 51bc
000002e0: 60b0 a4bc 355a 803d bb2d 81bd 3d70 1c3d
000002f0: d692 c4bc cb79 c0bd 2f42 54bd da96 3c3b
00000300: 2ccf 023d 6d09 b9ba ad98 0cbe d134 ddbd
00000310: 7c3b 9b3c caf3 71bd 303b d83d 0d38 10bc
00000320: 52a2 6e3c 7fba 8a3b f4f2 b03d 9349 793c
00000330: 5da3 6abd ba25 a93d 41f4 f2bc bad1 f83d
00000340: 1b3d 26bd 59b6 033e ea64 01be 8a78 a3bc
00000350: 898f e63d e44b 56bd 0b99 a6bc c970 a03c
00000360: 72e1 48bc 0cfa 1fbd 9812 83bc eb60 5dbc
00000370: 4f34 3dbb db8d 97bd 4545 bebd 6329 30bd
00000380: 0e08 9a3d c617 aebc 37e6 6abd db49 bebd
00000390: 19f5 8d3d f4b9 2e3c a28a b2bd c628 3c3e
000003a0: 16e0 75bd f5e3 94bc 23b1 38bc b9a2 14be
000003b0: a610 b63b d7f5 54bd 86ad 763d c3b0 fd3d
000003c0: 7ca8 4fbd 4e00 293d 7cd6 07bd a63b cbbd
000003d0: 864e 2ebd 56c8 04be 9f7a 813d 3ba2 69bd
000003e0: fc6e 2c3d 336c 513c 99b8 10bd 173b dabd
000003f0: a869 2bbd 71a2 e73d 328e 80bd 9ac0 9f3b
-0.08575161 0.07291634 0.04887048 0.034545843 -0.106261946 -0.05832949 -0.056899816 0.12364386
0.0578867 -0.023612587 0.09868528 0.04659578 -0.018801998 0.0027935395 0.054369003 -0.071675524
0.039673265 0.06580287 -0.06353629 -0.115957566 0.038318023 0.038205836 0.08138982 0.10445881
-0.012259451 0.088372655 -0.0048503005 0.03174112 0.08038355 0.027956562 -0.048954427 0.086664654
0.012133058 0.05137487 -0.03386185 -0.09500122 -0.031259146 -0.015773343 0.10484373 -0.06809235
0.009524254 -0.028710058 0.08249588 -0.07506602 -0.007320469 -0.010208041 0.009035586 0.041390516
-0.048788074 0.077901125 -0.060824003 0.022161001 -0.063279755 0.027624266 0.110685855 -0.117513515
0.063816406 -0.0393422 -0.0865914 0.013466802 -0.07417448 0.02290397 -0.07015671 -0.049972344
-0.04869805 0.075867094 0.031480044 0.007393778 -0.052723747 -0.0002880311 -0.029482162 -0.008820589
-0.045741603 -0.1235485 0.07196896 -0.06601724 -0.029704673 -0.041751724 -0.073516555 0.0028042973
-0.06806291 0.10341435 -0.021367298 -0.10416093 0.0067612203 0.008226026 0.023952227 -0.12662943
-0.011280822 -0.06516359 -0.038460266 -0.06746141 0.06539062 0.037871372 0.09712421 -0.05148568
0.12300342 -0.009712108 0.006093217 -0.07457753 -0.024716988 -0.082992576 -0.050165486 -0.032874014
-0.036087148 -0.016362865 0.015417764 -0.026028581 -0.007834515 -0.10684849 -0.110152826 0.07419857
-0.056476425 0.06016991 -0.10787144 -0.028042145 -0.0064472742 -0.034731444 -0.114674695 -0.00016065543
-0.10637322 0.06651861 0.12965298 -0.017409515 0.03984875 -0.034014102 -0.07947293 0.07822477
0.08584034 0.12754327 -0.037376195 -0.035723403 -0.11109061 -0.056461867 -0.061387826 -0.04750838
-0.091660194 -0.14423911 -0.010220383 -0.05778305 0.028858135 0.067037486 0.0015268663 0.025550615
-0.039447304 0.045965225 -0.013558136 0.0013764099 -0.021645684 -0.005742705 -0.0013613969 0.01393985
-0.0031790298 0.06086645 -0.1006465 0.031301685 0.0439785 -0.07686524 0.07031095 -0.023669403
0.03884664 -0.07097659 -0.017705988 -0.106503256 0.01186555 0.028286861 0.0020533295 0.09207759
0.024061546 -0.033251893 -0.010944872 -0.094707794 0.040969253 -0.010644784 0.03293663 0.0041678436
-0.084963694 -0.05483473 0.042550515 -0.08433259 0.018931387 -0.057450663 -0.05670486 -0.012796329
-0.020103633 0.062672056 -0.063075505 0.038192976 -0.023995798 -0.0939823 -0.05182093 0.0028776438
0.031935856 -0.0014117189 -0.13730116 -0.108010896 0.018949263 -0.059070386 0.10558164 -0.008802426
0.014565067 0.004233658 0.0864009 0.015215295 -0.0572847 0.08259149 -0.029657485 0.12149377
-0.04058562 0.12862529 -0.12636152 -0.019954938 0.11257846 -0.05231847 -0.020336648 0.01958503
-0.012260782 -0.039056823 -0.016000077 -0.013511877 -0.002887029 -0.07400104 -0.09290556 -0.04300822
0.075210676 -0.02125157 -0.057348456 -0.092914306 0.06931514 0.010664452 -0.08717848 0.18374929
-0.060028158 -0.018175105 -0.011272701 -0.14515199 0.005556184 -0.051992264 0.06022408 0.1238723
-0.05069779 0.041260056 -0.033163533 -0.099234864 -0.042555355 -0.12967047 0.06322216 -0.05703948
0.04209803 0.012782144 -0.035332296 -0.10655802 -0.04184881 0.1131028 -0.062771216 0.004875255

model._model.a2c_network.actor_mlp.0.weight f4 [512, 29]
00000000: 5687 fdbc 4e6c c43d 3856 2abe a3bb 50be
00000010: 0cb0 e23d 04af 54be 0975 983d 31d5 603e
00000020: 2365 db3d 1ecd 523d 8415 49bd 3f43 f83c
00000030: 58ac 04be 8d4d 563d 7262 89bd 870f ebbd
00000040: bb95 8f3d 04be a0bd e0b8 c43c d4a0 c43b
00000050: 06ce 66bb 5c8b 333d ac2a 8cbd fbed 39bd
00000060: d7c3 823d 1bda 41be 31a6 21be 58a1 873d
00000070: 46b9 49bd b4a4 6ebe dbe3 b43d cde8 2cbc
00000080: 8bf3 04bd 344c 193e 2cf8 e1bc 86f6 e7bc
00000090: 6cad 273e 5d3a a33d d99c a23d 9222 d23c
000000a0: ac1d d13d 7767 943c d8d7 043e 6455 733d
000000b0: a89b 91bc abb7 f03d 6ac4 433e c17e 0b3e
000000c0: f773 19be 7260 cc3c 4609 243d 6a3f 533d
000000d0: cea9 25be 5f2a 513e 0c9b 15be cd34 a13c
000000e0: e9bf 30be 228f 013d a56a d33c 5b27 1f3e
000000f0: 2119 18be bef2 b4bd c5a1 30bd 035f 103e
00000100: bb7d 4a3d 81c6 8bbc 566a 383d ffdb 3abc
00000110: b53d 45bd 3ab8 0b3d 2326 71bd da96 7d3c
00000120: 9759 93bd fa08 373e 87cc 833c b42b 823d
00000130: 7e93 273e 036e 47be 217e 2d3e 6fb7 9f3d
00000140: bb29 903d bb11 f13d 8dcf abbd 2d49 833d
00000150: 926e 86bc cfc6 54be fcca 263e b8c6 923d
00000160: ac70 d3bd 7892 c33d 114e 5cbe 31a9 2fbe
00000170: 2ce4 8bbe bdce 433d 94b8 073e 9670 103e
00000180: fb22 8fbd 8bf6 423e 75cd 4b3d 03b4 5abc
00000190: d908 1dbe 1532 9e3c 34e8 0b3e a321 3a3e
000001a0: a442 103e 5dd7 93bd a014 403d a7a3 a03d
000001b0: b9ec 9dbd f267 a4bd 5644 3b3e bad4 5e3d
000001c0: 58c2 4d3e e67e b8bd 2f43 1e3e 10ff 8dbd
000001d0: 9675 a4bd 405a eb3d c11f f2bd d93a 59be
000001e0: e1db 8d3d 81f4 fdbd 6b68 913d 77bd 2b3e
000001f0: 38f2 76be eb73 183e 0a70 fcbb 89a5 bc3d
00000200: 5d92 4b3c ea7e e8bc 65fa 1a3d 4cac c93c
00000210: c2aa 5abd 5612 f7bd c6f5 913c 77fa 193d
00000220: 740a 6dbd 463e 69bd d7d0 c43c d2c5 1dbe
00000230: f2b1 d6bd d174 04be c869 e73d 6f7e 413c
00000240: c88e c6ba 3016 8ebd 554e 3bbd aed6 05be
00000250: cec9 af3a 8c36 b6bd 1be7 54be 4874 953b
00000260: 5c17 e13d c525 cbbc 6bd8 113e c81d e1bd
00000270: 8ca9 8e3c 0407 2e3d 78e7 5a3d 486a dc3d
00000280: 1ddc f2bd 4962 debd e339 903d e4a6 ea3d
00000290: 14be f73d 9583 68bd 7960 ee3d 1950 533e
000002a0: 35bb ba3c 5c41 a93c 1c1d 9bbe 6b64 f2bd
000002b0: 4c77 b43d 502e 32be 3a62 1fbe f3c6 2d3e
000002c0: 5090 ef3d 4121 433e 4194 fd3d 22ed 283e
000002d0: 8496 97bd bbed 60be 6a83 9f3d 9be6 77bb
000002e0: 59ba 56bd 3e69 36bd ac25 d03d efb0 e4bd
000002f0: e239 eb3d d13f ea3c 369a 1f3e 84ea 93bc
00000300: c3bf 8a3d 779c 8bbd fc43 1a3d 32fa 6b3d
00000310: 8d51 433e 7dd3 06be 4a49 903d 02f1 3bbe
00000320: 9a8e 7cbc ba31 77bd cd5d 2dbd 4edb 54bb
00000330: 86a8 9d3d 8996 233e 80fd c23c a20e ef3d
00000340: e516 fa3b bc1b 8bbd 3b9f b3bd f1dd 423c
00000350: dfef c83b c170 233e f40c 2d3e c281 f53d
00000360: 10b4 44be 802a 273e 18eb 903d c9d3 8c3b
00000370: b76d 41be 1b3c abbd 7d06 fc3d 32d0 10be
00000380: a1d6 b93d d6fa 91bd c562 10be ed80 f33d
00000390: 36bb 83bb f1f8 fabd a80b 473d 9205 213e
000003a0: cc91 55bd 3212 3cbe 3a02 1dbe 0daf bbbd
000003b0: 3b71 34be 1d93 a7be f874 80bd 1073 2a3e
000003c0: 6f99 f9bc d667 89bd dd52 213e 8b0c 493c
000003d0: b421 8d3c 7d56 cf3d 7adf c0bb ee5f 31be
000003e0: 2189 0c3e 937c 4a39 6a8f 9d3d d58f 6cbd
000003f0: 2370 f5bc 8c45 06bc c9af edbd eeba 173e
-0.030948322 0.0959097 -0.16634452 -0.20384078 0.110687345 -0.20769888 0.07444198 0.21956326
0.1071265 0.051465146 -0.049092785 0.030305503 -0.12956369 0.052320052 -0.0670823 -0.11477571
0.07010981 -0.078487426 0.024013937 0.0060006175 -0.0035218014 0.043834075 -0.068440765 -0.04539297
0.0638501 -0.18930857 -0.15786053 0.06622571 -0.049248956 -0.23305017 0.088325225 -0.010553551
-0.032458823 0.14970475 -0.027584158 -0.028315794 0.16374749 0.07970116 0.079400726 0.02565125
0.102107376 0.018115742 0.12972963 0.059407607 -0.017774418 0.11753782 0.19117895 0.13622572
-0.14985643 0.024948332 0.040047906 0.05157415 -0.16178057 0.2042632 -0.14609927 0.019678498
-0.17260708 0.031630643 0.025807688 0.15542357 -0.14853336 -0.08835362 -0.043123025 0.14098744
0.049436312 -0.017062427 0.045023285 -0.01140499 -0.04815455 0.03411124 -0.05887426 0.01547786
-0.07194822 0.17874518 0.016088737 0.06355992 0.16364858 -0.1947556 0.16942646 0.07798659
0.070392095 0.1177096 -0.083891965 0.064104415 -0.016410146 -0.20778964 0.1628837 0.07166809
-0.10324225 0.09549421 -0.21514155 -0.17154385 -0.2732252 0.047804583 0.13254005 0.14105448
-0.06989094 0.19039361 0.049756486 -0.013348582 -0.15335406 0.01931099 0.13662797 0.18176894
0.14087921 -0.07218812 0.04689467 0.07843714 -0.07711167 -0.080276385 0.18287787 0.05440209
0.20093668 -0.09008579 0.15455316 -0.06933415 -0.0803024 0.11491823 -0.11822463 -0.21213855
0.06926704 -0.12400151 0.07099994 0.16771494 -0.24115837 0.14887969 -0.007703786 0.09211261
0.012425032 -0.02838083 0.03783645 0.02461829 -0.053385504 -0.12064044 0.01781739 0.037592378
-0.057871297 -0.056944154 0.024025364 -0.15407494 -0.10483159 -0.12935187 0.11299473 0.011809929
-0.0015148753 -0.06937826 -0.045729 -0.13070175 0.0013411583 -0.08897123 -0.20791285 0.004560981
0.109907836 -0.024798283 0.14242713 -0.109920084 0.01741483 0.04248716 0.053443402 0.10762459
-0.118583895 -0.1085859 0.07042291 0.11457613 0.120968014 -0.05676611 0.116394944 0.20636024
0.022794345 0.020661049 -0.30295646 -0.118355595 0.088118166 -0.1740048 -0.15564814 0.16970424
0.11697447 0.19055654 0.12381793 0.16496709 -0.074017555 -0.21965687 0.07788737 -0.003782666
-0.05242381 -0.04453396 0.10163435 -0.1116656 0.1148565 0.028594883 0.1558617 -0.018056162
0.06774857 -0.06816953 0.03766249 0.05761165 0.19074078 -0.13166614 0.07045229 -0.18353656
-0.015414858 -0.060350157 -0.042325784 -0.0032479349 0.07698159 0.15975393 0.023802519 0.11672713
0.007632124 -0.06792399 -0.08770605 0.011893735 0.0061321105 0.15960981 0.16899472 0.1198764
-0.19209313 0.16324806 0.070760906 0.0042977077 -0.18889509 -0.083610736 0.12305925 -0.1414192
0.0907414 -0.07127921 -0.14100178 0.11889825 -0.00402012 -0.12254513 0.0485951 0.15724781
-0.052140996 -0.18366316 -0.1533288 -0.09164248 -0.17621319 -0.32729426 -0.0627231 0.16645455
-0.03046867 -0.06709258 0.15754266 0.012271057 0.017227985 0.10123918 -0.0058860155 -0.1732175
0.13724186 0.00019310629 0.0769337 -0.057754356 -0.029960698 -0.008195292 -0.11605794 0.14817402

model._model.a2c_network.actor_mlp.2.bias f4 [256]
00000000: e879 e3bc e177 31bd 0440 87bd d203 1bbd
00000010: 908a 8cbd 1bb3 83bd 107b 6c3b e595 b43c
00000020: 7750 92bc 073a 95bd 1a9a d33c 9f6e 693c
00000030: d8c8 733d 7edd 2fbb fc87 e3bd 30f4 fdbc
00000040: b959 2d3c a57a 1fbd d504 03bd a575 bbbd
00000050: 08b6 01be 2272 b8bc 6697 f2bd 7b34 50bb
00000060: 1944 b1bd 9e2a 9ebd 703b ebbd 47f3 97bc
00000070: 7168 59bc 4b98 3abd 028d 7abd 64af f2bd
00000080: eabd c5bd cdad e33c d1eb b1bc 3f3f 0cbd
00000090: 6821 1c3d 6ee1 4ab9 ba1a 35bd ea6d 7fbc
000000a0: e1b3 69bc 6dae 253b 3d7c 8f3c 7737 ddbd
000000b0: 0b93 7bbd 4c05 dcbb d877 0e3d eaa5 9aba
000000c0: f7c7 153d 4ad6 01bd a208 d0bc 21fd 083c
000000d0: 8bb8 debd eac7 68bd 4975 ccbc 839c 81bd
000000e0: 5946 afbb 022d c7bb 61c5 a1bd d71c b4bd
000000f0: 1bd8 f33b 23fe 5abc 9376 113d a0a0 1bbd
00000100: fd7b 21bc 88c8 d3bd c8aa 88bd d846 cebc
00000110: 7bb0 e5bc 6e10 06bc a593 513c b717 d6bc
00000120: b652 803d 3142 363c 9c2d 83bd 6de2 283d
00000130: 54c5 f3bd 4e13 88bd 390e 49bd 5df5 cf3b
00000140: 4ef5 d8ba 7e39 a3bd 1ff2 fc38 3a86 b8bc
00000150: 93bd b3bc ab6c d5bd bc23 5fbd 5bb7 cfbd
00000160: 238d 1bbd b5e9 4d3b 208f 113d 642c 28bd
00000170: 2751 a1bc 506b 0bbd a63d d1bd 255a 02bc
00000180: d372 49bd 9743 5bbc e741 e2bc 6d36 dabc
00000190: 2f26 053d 7455 2ebd f1f8 14bd 861f a5bd
000001a0: da61 26be 312b 9fbd d3ea 37bd 592a bb3c
000001b0: 67da a2bc b4aa 90bd 61dd 28bd c7c3 fd3c
000001c0: e39f 1fbd 96f6 1e3c eb91 c4bc d981 0f3d
000001d0: 2fa8 f63c d099 fa3c 773a 043d 7d3a 8ebd
000001e0: 7912 feba 2c41 28bd 3994 823c d057 36bd
000001f0: 69b9 b4bd 25db c6bd 2e43 abbb a348 a43b
00000200: b5e0 edbc 5944 8f3d 01ce 3e3c 0340 6a3c
00000210: 1b0b 14bd 80c2 0abc b23b b0bb 3b96 aabc
00000220: 7076 58bd fde5 11bd c4ca acbd be73 b1bd
00000230: 3838 123d 4aa9 4ebd 4b07 fcbd bde9 66bd
00000240: ebbb a3bc 1ba0 e7bd 660b 313c a497 713c
00000250: 2be3 713c 6ef0 7a3d b462 1bbd 4558 81bc
00000260: 642c 34bd da63 e6bc d80c bbbc 26e9 0bbb
00000270: b05f e43a b30a ea3b b092 bcbd 0702 e93d
00000280: 3efd cabc 41a5 e13c 4774 99bd 860e 823c
00000290: e725 8abc b61b 59bd 70fe 2abd 9ef1 83bd
000002a0: bb0b 5f3d 702a 3abd 4316 63bc c8f0 1fbd
000002b0: a012 bdbb fc64 a1bd 1610 7ebb 1f26 b3bc
000002c0: 4494 a6bc 8c3c 643d a1d6 ffbc 7e77 14bd
000002d0: 4eb2 213a c172 203c a880 d0bd a0ef 85bd
000002e0: ce3e c6bd 5038 9cbd 1b9b 533d 2f16 173b
000002f0: 068e d5bd 5c38 e2bd d79b c1bd ed93 983d
00000300: 4729 23bc c587 60bc 80cb 2abd 259e 07bc
00000310: 50c7 76bd 0cce beb9 9ae9 6cbd 7515 04bd
00000320: 30db d33b 8a67 c03c b3d9 44bc 761c 9fbd
00000330: 55db 343c aabd 3f3c a1db 32bd 72a9 4bbd
00000340: 73a6 47bd ac74 a33c 4b12 00bb 335a ac3c
00000350: f4d6 8bbd 5e2c 85bc b190 88bd 8baf a0bd
00000360: b35a b0bd 0677 ecbc c842 78bd 6db6 0cbe
00000370: 56bf 9abb c0fb 793b 7f73 b13b 7360 49bd
00000380: a985 c7bd 615d c5bc 34cd 4ebd b850 753c
00000390: 6bea 883c c5fd a1bc 58f0 abbd 0f29 07bd
000003a0: c40b b63b f749 edbb 5aef a23c af0f 32bd
000003b0: d804 98bd ed26 58bd af47 94bd 7b36 7e3c
000003c0: 6585 94bd ad52 22bc 4435 00bd a91f f13c
000003d0: d4ea 1fbd 52ea 233d b2f9 a93c 5dea 11bd
000003e0: 2467 a6bd 89e2 9ebb 0766 47bc 74f7 163b
000003f0: 176c 86bd c078 b6bd 45ea 30bd 0079 a6bd
-0.02776809 -0.043327216 -0.06604007 -0.03784544 -0.06862366 -0.06430646 0.0036084093 0.022044132
-0.017860634 -0.072864585 0.025830317 0.0142475655 0.05951771 -0.00268349 -0.11109921 -0.031000227
0.010580474 -0.038935322 -0.03198703 -0.09153298 -0.12667096 -0.02251536 -0.11845283 -0.0031769562
-0.08655567 -0.07722972 -0.11485946 -0.01854862 -0.01326953 -0.045555394 -0.06116963 -0.11849859
-0.09655364 0.027792836 -0.021718891 -0.034240004 0.038117796 -0.000193482 -0.04421494 -0.01559017
-0.014264078 0.0025280968 0.017515296 -0.10801595 -0.061419528 -0.0067144986 0.03478226 -0.0011798714
0.036567654 -0.031698503 -0.025394741 0.008361132 -0.108750425 -0.056831278 -0.02495827 -0.0632868
-0.0053489623 -0.0060783634 -0.07898975 -0.08794563 0.0074415333 -0.013366255 0.03551347 -0.03799498
-0.009856221 -0.10340983 -0.06673199 -0.025180265 -0.028038254 -0.008182628 0.012791549 -0.026134355
0.06265776 0.01112418 -0.06405184 0.04123156 -0.11902872 -0.06644307 -0.04908583 0.0063463883
-0.0016552599 -0.0796995 0.00012061395 -0.022524942 -0.021940982 -0.104211174 -0.05447744 -0.10142394
-0.037976395 0.0031419818 0.035536885 -0.04105796 -0.019692017 -0.034037888 -0.10216837 -0.007956062
-0.04918177 -0.013382814 -0.027619315 -0.02663728 0.032507118 -0.042561963 -0.03637022 -0.08062653
-0.16248265 -0.0777191 -0.04490168 0.022847341 -0.019879533 -0.07063809 -0.04122675 0.030977143
-0.03897084 0.009702345 -0.02399536 0.03503594 0.030109493 0.030590922 0.03228232 -0.069447495
-0.0019384167 -0.041077778 0.015939819 -0.04451734 -0.08824427 -0.09709767 -0.0052265143 0.005013542
-0.029037813 0.06995458 0.011645795 0.014297488 -0.036143404 -0.008469224 -0.00537821 -0.020823589
-0.052847326 -0.035619725 -0.08437112 -0.08664654 0.035698146 -0.050454415 -0.123060785 -0.056375254
-0.019987067 -0.113098346 0.01080594 0.014745627 0.014763634 0.061264448 -0.037935928 -0.01578916
-0.043987647 -0.028123785 -0.022833273 -0.0021348684 0.0017423537 0.0071423887 -0.09207666 0.1137734
-0.024778958 0.02754462 -0.07492881 0.015876066 -0.016863776 -0.053004943 -0.041746557 -0.06442569
0.054454546 -0.045450628 -0.013860288 -0.039047986 -0.0057700425 -0.07880589 -0.0038766912 -0.021868763
-0.02033437 0.055721804 -0.031230273 -0.03624677 0.0006168232 0.009792984 -0.10180789 -0.065398455
-0.09679948 -0.07627928 0.051661592 0.0023053994 -0.104274794 -0.11045906 -0.09453552 0.074500896
-0.009958572 -0.013704245 -0.04169798 -0.008277451 -0.060248673 -0.0003639314 -0.057839967 -0.032247026
0.006465338 0.023486871 -0.012014794 -0.077691 0.011038621 0.011702934 -0.043666486 -0.049722143
-0.048742723 0.019953094 -0.0019542153 0.021039104 -0.068281084 -0.016256507 -0.06668223 -0.07845982
-0.086110495 -0.028865349 -0.060610563 -0.13741465 -0.004722516 0.003814444 0.0054153795 -0.049164247
-0.097422905 -0.024092378 -0.050488666 0.014972858 0.016713342 -0.019774327 -0.08395451 -0.03299814
0.005555602 -0.0072414833 0.019889522 -0.04347199 -0.07422799 -0.052771498 -0.07240235 0.015515919
-0.072520055 -0.009907407 -0.031300798 0.029434042 -0.03904231 0.040018387 0.020748947 -0.035623897
-0.08125141 -0.0048487824 -0.012170321 0.0023035677 -0.06563585 -0.0890975 -0.043192167 -0.08128548

model._model.a2c_network.actor_mlp.2.weight f4 [256, 512]
00000000: c6fd c13c 6cf4 9d3c fd73 5abc 4a06 613c
00000010: 1279 843d 8000 e43c d030 913c 9d72 e7bc
00000020: 6044 cf3d 0612 453d 602b 0dbd 771e 443d
00000030: 91d0 733d df9c d3bc aeec 703d 2876 7dbd
00000040: 7d40 b73c 651e a13d 01eb c1ba 0769 573d
00000050: 13ac 28bc ab70 90bd d7f9 453d be01 c4bb
00000060: 44e5 0bbc df45 bf3c 7838 183c 0045 bd3a
00000070: 0ccb b43d 8165 70bd 9aa8 4a3c f7da 41bb
00000080: 767d 0f3e 1086 8739 2927 c43d f1a9 43bd
00000090: 337b 3c3c 0449 5e3b 9de9 18bd 874d 473d
000000a0: f701 afbc a6e4 11bd 79e3 1e3c d87e edbc
000000b0: 65e6 29bd 687c 873d 04ab a9bc 1f47 903c
000000c0: fe35 013d 1fc9 363d ecfd 89bd fb80 9bbc
000000d0: 27d4 6cbc 5f18 e6b9 afa7 05bc 11a8 2b3c
000000e0: 7b93 023c 0f7c 5a3c 9be1 80bc eedb 8e3c
000000f0: aacd 0a3d 40b6 303d 1d3d 9dbd 3eea 663c
00000100: 679a 713d 89f8 29bd e874 6a3d 895a 113d
00000110: 35b7 503c 47bc 7b3d f19a 5c3d b0ad 843d
00000120: b823 46bb 0fa3 593d 9ac2 8a3c 7800 cb3c
00000130: 8c57 653d e7dc 6a3d fe04 02bd fe55 88bd
00000140: 74aa a03c 21b5 e1bc 5979 10bd cff7 253d
00000150: 6ca2 8cbb 3dc5 35bd 726f f43c 08ed 5a3c
00000160: 05a9 803d 0493 023d ffbb 9b3c b222 b23a
00000170: 78a9 87bb d520 c1bc e68e 9fbb 040b b8bd
00000180: a600 99bd be75 183c ffc3 2e3a 21d2 823b
00000190: 0df6 beb9 b32a a03b bc00 203c 17bb a7bc
000001a0: 0a26 2abc a907 0c3d 7b94 12bd 2dec 19bc
000001b0: 1298 93bc dd0e 303c a617 5c3c 4586 783c
000001c0: 4b44 be3b 6b2f 9dbb 44c2 543d 64fc 04bb
000001d0: 440e 263d 1673 b9bc a0fa 0d3c 7fe1 9c3b
000001e0: 2e9f 00bd a4af 84bd 080b 7a3d 87be d739
000001f0: ef3c c2ba b901 dc3c f682 35bc a9ff 183d
00000200: 22c0 263c 9cc8 803d c052 023e cce8 56bd
00000210: 61ba ab3d 2c91 383b c2fa 27bc f394 b3bc
00000220: ce35 e43b 6e40 f63a 6914 403d 1f2b 28bd
00000230: 0f09 3f3c 731f bbbd 8b40 85bd 1fe0 b73c
00000240: edce a8bc be33 6d3d be9b 8e3d 01e1 b73b
00000250: 8fc8 0d3d 8771 403c 854e 203d 6f32 57bd
00000260: 9a2d 943d 92d4 08bc 81eb 263d da00 26bc
00000270: 98f7 043d 6bfd 7cbd 7660 9c3d 8989 99bc
00000280: c90a b3bc 83e2 fabc 74f5 c0bd 0bb3 64bd
00000290: 3a34 233d 9ccd 833a 4ff5 8d3b 9201 24bd
000002a0: c396 543d ba86 b43a c357 4bbd 9d51 153d
000002b0: 94a7 6a3d 89bf ecbb f9f8 033d 0113 8cbd
000002c0: 6039 11bd 541e 7d3d 145d 9eba d936 ab3c
000002d0: d7cb 9a3d ea97 f4bb 643f 0e3c 1312 87bd
000002e0: 995b 243d 7ed4 e63c daeb 7fbb f7b2 333b
000002f0: 5ac2 083d feda a2bc c76d 81bd 7aa7 71bc
00000300: e1e0 eebc cd67 503c eb35 d93c 2ccf 8d3d
00000310: 3a35 cdbb 38af 22bd 73f5 8a3c 8330 ac3c
00000320: 7ddd 843d 08d8 ab3d 5368 023d c473 8f3c
00000330: 3e4d 833d 07e4 793d f8d7 d53c 5595 6d3c
00000340: 9e03 d93c 524f 6cbd 9893 df3c 404b fa3b
00000350: 51b1 30bc 437c d73b 5f3a e73c c93d a03c
00000360: ab16 e1bc 467b 383d f8fb c53b 229a 193d
00000370: 9482 52bc 92be f3bc 36cb cb3c bc2e 39bd
00000380: a5a0 88bd 2b69 3bbd 0d5f 14bd 82e4 843c
00000390: 3006 a13b 7043 3c3d 3fb8 99bd 9f88 91ba
000003a0: a5b2 8f3c 58b4 9d3d 2682 99bb 4d32 da3a
000003b0: 6dbc 753d fede 02bb c27c ddbd 1c6a 02bc
000003c0: b30a 96bc 9996 1dbc 7e5a 6bbb b149 f13d
000003d0: ef40 35bd 014b 5b3d efd7 863d 06cc 9e3b
000003e0: d748 86bd 28c3 9f3c c280 03bd ada5 ab3d
000003f0: e7a7 a0bd 983b da3c 5834 bbbc 2966 a1bc
0.023680579 0.019281588 -0.013333318 0.01373441 0.06468405 0.02783227 0.01772347 -0.028252894
0.10120463 0.04811289 -0.034465194 0.047880616 0.059525076 -0.025831638 0.058819465 -0.06188026
0.022369618 0.078671254 -0.0014794768 0.052590396 -0.010294932 -0.0705274 0.04833397 -0.005981653
-0.008538548 0.023348747 0.009290807 0.0014440119 0.088277906 -0.05869055 0.012369299 -0.0029579976
0.14012703 0.0002584909 0.09577782 -0.04776949 0.011503982 0.0033918032 -0.037332166 0.04865792
-0.021363242 -0.035618447 0.009697788 -0.028991148 -0.041479487 0.066155255 -0.02071143 0.017612038
0.03154563 0.044625398 -0.06737885 -0.018982401 -0.014454878 -0.00043887176 -0.008157655 0.010477082
0.007969732 0.013335242 -0.015732577 0.017438855 0.033887543 0.043142557 -0.07677672 0.014093934
0.05898514 -0.041496787 0.057240397 0.03548673 0.012738992 0.061458852 0.0538587 0.06478441
-0.0030233692 0.05313402 0.016938496 0.024780497 0.055991694 0.057339575 -0.031743042 -0.06657027
0.019612528 -0.02755219 -0.035271976 0.04051953 -0.004291823 -0.044377554 0.029838298 0.013362177
0.06282238 0.031878486 0.019010542 0.0013590662 -0.0041400753 -0.023575226 -0.0048693297 -0.08986476
-0.07470827 0.009305416 0.0006666779 0.0039923345 -0.00036422946 0.0048879026 0.0097658 -0.020474954
-0.010385046 0.034186993 -0.035786133 -0.009394688 -0.018016849 0.010745731 0.013433373 0.015168731
0.005806481 -0.0047969124 0.05194308 -0.0020292038 0.04054095 -0.022637885 0.008665711 0.0047876234
-0.031401806 -0.06478813 0.061045676 0.0004114995 -0.0014819185 0.02685629 -0.011078587 0.03735319
0.010177644 0.06288263 0.12726879 -0.052468106 0.08385158 0.00281627 -0.010252656 -0.02192161
0.006964422 0.0018787512 0.046894465 -0.04105675 0.011659875 -0.09136858 -0.06506451 0.022445736
-0.020606482 0.057910673 0.06963299 0.0056115394 0.034615096 0.011745817 0.039137382 -0.05253833
0.0723526 -0.008351462 0.040751938 -0.010132039 0.032462686 -0.061765116 0.07635586 -0.01874234
-0.021855729 -0.030625587 -0.094218165 -0.05583481 0.03984473 0.0010055783 0.0043322216 -0.04004056
0.05190159 0.0013773062 -0.049644243 0.036454786 0.05728872 -0.007224981 0.03221986 -0.06839562
-0.035455108 0.0617965 -0.0012082183 0.020900177 0.075584106 -0.0074643986 0.008682106 -0.06595244
0.040126417 0.028177496 -0.003905049 0.0027419904 0.033388473 -0.019879814 -0.063197665 -0.014749402
-0.029159965 0.012720061 0.026514968 0.069242805 -0.0062624486 -0.039717883 0.016962742 0.021019226
0.06487558 0.08390814 0.031837773 0.017511256 0.06411217 0.06100848 0.026103958 0.014500936
0.026490983 -0.057692833 0.027292058 0.007638365 -0.010784463 0.0065760924 0.028226076 0.019560711
-0.02747663 0.045039438 0.006042 0.037500508 -0.012848515 -0.029753957 0.024877172 -0.045210585
-0.066712655 -0.045754593 -0.03622346 0.016222242 0.0049140677 0.04596275 -0.07505845 -0.0011103338
0.017541239 0.077004135 -0.0046847044 0.0016647071 0.05999415 -0.001996934 -0.10814811 -0.007959869
-0.018315649 -0.009618425 -0.0035912092 0.11781634 -0.04425138 0.053538326 0.06584155 0.004846099
-0.06556862 0.019502237 -0.032105215 0.083812095 -0.07844525 0.026639745 -0.022852108 -0.019702034

model._model.a2c_network.actor_mlp.4.bias f4 [128]
00000000: 1a61 49bc 207e 35bd fcac bb3c 640a 68bc
00000010: d1e9 52bd 48c5 c03c 8ed4 f43a 40b5 90bd
00000020: 9e49 04bc 0dfb 65bc 37dc 28bc ac1b dd3c
00000030: ab64 fabc 8958 31bc 2391 01bd 8fb6 9ebc
00000040: c150 aabc c51e 36bd 0493 19bd 1ba8 eebc
00000050: 3e64 043c de06 3b3d afa4 473b 9f15 0f3c
00000060: 1551 363c cbbb f2bc fc67 a73b ee72 abbc
00000070: e5a1 4abd ae3b 3a3c 97d4 51bd 9e01 99bc
00000080: 5cc4 adbc 8827 433d 5b6e 49ba 6527 12bd
00000090: 25ae aa3c 4b8e 8b3c 501f 74bd 1d8f cbbc
000000a0: 8703 92bd 0b3a 10bd 61f6 3d3c 4381 74bb
000000b0: 189c 4cbd 745a 333a 9b9a 0bbc e54c afbc
000000c0: 5f9e 753c 57db 58bd 9083 3cbd 1c10 cdbb
000000d0: d456 503c 6948 623c 6915 60bd 7aa2 d1bb
000000e0: 16ac f4bb d909 27bd 6c98 d93c c4a1 17bc
000000f0: 6568 44bd e37b 273c 80ec 933c 6161 84bd
00000100: 69a4 e7bc f25d b83c c59d 74bd 9967 50bc
00000110: c21e 4a3c 4d79 32bd 707a 743c f93c 893c
00000120: c11a 103d d585 393c 566d 813c 1775 59bd
00000130: b8a8 313c 1dfb dbbc 2fb2 26bd 282c 42bc
00000140: e894 053d 2550 08bc 187f c9bc 5900 63bc
00000150: 2773 fc3a fb73 31bd 21fc 40bd c9fc af3b
00000160: 60ed 26bd 5385 d4bc f3a3 38bb c59b 07bd
00000170: 81ab 263c 6dee 97bd e676 c5bc 1793 39bd
00000180: f88f 3dbc 9e3e 4bbc 913b 723c 6a0b a1bb
00000190: a41e 28bd 2afc f8ba 47d8 a73c 3ece 613c
000001a0: 2b19 f43c 3b6f 013d 69a9 10bd b849 3bbd
000001b0: 6278 d03c 9a8f 73bd 2195 abbc 4140 30bd
000001c0: d4f0 8abd fb49 30bd 3171 1f3d 03ed cbbc
000001d0: 9072 bfbc 18a5 233c fff8 05bd d9bc ac3a
000001e0: 780c 3cbc 9ebd 5ebc d441 a73b d725 c83c
000001f0: 067e 93bd dd35 60bc 0844 5d3b dfba 0dbd
-0.012291217 -0.044309735 0.022909634 -0.014162634 -0.051492516 0.023531571 0.0018679069 -0.07065821
-0.008074192 -0.014036906 -0.01030641 0.026990734 -0.03056558 -0.010824331 -0.031632554 -0.01937416
-0.02079046 -0.044462938 -0.03749372 -0.029132893 0.00808054 0.045660846 0.003046315 0.008733182
0.01112773 -0.029630562 0.0051088315 -0.020928826 -0.0494708 0.011366768 -0.051228132 -0.018677529
-0.021211796 0.04764512 -0.0007683986 -0.0356821 0.020834992 0.017035624 -0.059600174 -0.024848515
-0.07129579 -0.035211604 0.011594386 -0.0037308491 -0.04995355 0.00068417867 -0.008520748 -0.02139897
0.014991372 -0.052943554 -0.046023905 -0.006258024 0.012716014 0.013811209 -0.05470792 -0.0063975425
-0.0074668033 -0.040780876 0.026561938 -0.0092548765 -0.04795112 0.010222408 0.018057108 -0.06463886
-0.028276639 0.022505734 -0.059720773 -0.012720012 0.012336435 -0.043572713 0.0149217695 0.016752707
0.035181765 0.011323412 0.015799206 -0.05309018 0.010843448 -0.026853139 -0.040697273 -0.011851348
0.03261271 -0.008319889 -0.024596736 -0.013855063 0.0019260392 -0.0433235 -0.04711545 0.0053707105
-0.040753722 -0.02594248 -0.0028173893 -0.033107538 0.010172726 -0.07418523 -0.024104547 -0.04530629
-0.011569969 -0.012405066 0.01478471 -0.0049146907 -0.041044846 -0.0018996049 0.020488871 0.013782082
0.029797157 0.03160022 -0.035317812 -0.0457246 0.025448028 -0.05946312 -0.020945134 -0.043030027
-0.067842156 -0.043039303 0.038926307 -0.02489329 -0.023370057 0.009988092 -0.032708164 0.001317884
-0.011477582 -0.013595013 0.005104283 0.024432106 -0.072017714 -0.013684717 0.0033762474 -0.034602042

model._model.a2c_network.actor_mlp.4.weight f4 [128, 256]
00000000: b8ab f3bc 4041 1dbd ff23 3b3d afae 44bd
00000010: bca7 0cbc 0bed 993a 19ab ff3a f178 8ebd
00000020: 2df8 76bd c848 bb3b d460 033d acf3 5e3d
00000030: c59c 81bb 5b01 013d 43f7 8a3d a359 9c3c
00000040: 1820 0b3b a17b 6c3d eb0d 09bc 5aa3 1abd
00000050: 5d79 0e3d 9df4 953d cb90 d13c c6e4 353d
00000060: daf6 32bd f5fb 2f3d 2726 cbbc 3bd4 203d
00000070: fd3f 61bd 03d3 00bd dc07 11bd ba26 923c
00000080: 8943 a73c 1db8 25bd 96d1 57bd da1c 433c
00000090: 2c42 f93c 1a73 50bd 5c90 88bd 4541 df3b
000000a0: a6c1 3ebb 6456 8bbd 1823 b6bd 9807 b03d
000000b0: 02ec 18bd 2af1 0e3d f72f 633d 6eee 6a3c
000000c0: 6ba2 113d ef3b 413d abb6 e13c f549 3fbd
000000d0: b168 cd3d 1d21 7b3d 6ae2 853c ad48 06bd
000000e0: 19ec c6bb 1247 0cbd 5bbf 59bd edaa 9dbd
000000f0: f8ba e83c bbe2 b0bc 239a 4dbd 045c 0d3d
00000100: a6e3 58bd e9ec 71bd 519b 1dbd e531 09bd
00000110: a480 7f3d 0ec7 97bc 0407 56bd 8d58 9bbc
00000120: e2c5 87bc 5c6f 8a3c 26de 9f3d 8125 0bbd
00000130: 244b 223d a335 b63c eadd 56bd 3eac 973c
00000140: 5a47 dbbb dd55 16bd 9e95 4fbd 7374 74bd
00000150: a128 04bd 6392 9f3d 9b31 783d 5ab7 373d
00000160: c0a9 97bc 6d64 5e3d 0948 173d a885 edbc
00000170: dd7a 6bbd 2ea0 cabc ea5b 593c 1677 01bd
00000180: 4b09 8e3d e18d c63c ae7a 25bd 1e00 0f3d
00000190: 8926 57bd fcbf b03c f139 a63c aef3 a73d
000001a0: 6918 cf3c b805 343d d3ce 56bd 0ac0 c3bc
000001b0: b7a1 cfbb adaf e3bb 8b32 9b3c 238f 3a3d
000001c0: bc6c 6b3c 6788 b4bc b4f5 bbbd 44f9 debc
000001d0: 4cd9 2abd f5cf ae3c f310 523c 45f4 6c3b
000001e0: 9189 4a3d 6a9c f83c 0a20 c8bc a40e b83d
000001f0: 9f54 0c3d 9ea7 29bd d88a 89bd 7a02 663c
00000200: 50fe 22bd 3a58 fabc e99a 6f3d 60b3 99bb
00000210: 3a93 24bd d58e e5bb ba85 0abd 82ca 7b3c
00000220: ad55 3d3d 1eeb 3cbc b930 21bd 6e95 663b
00000230: 09e1 e03c 6784 31bd 876e 43bd 694b 183b
00000240: b353 95bc 1fa4 5f3d b2bc 793c cef1 fe3c
00000250: 7cd7 7e3b 2e87 443d 6380 c8bd f699 a73b
00000260: 866d 3f3b f8ed 063d d23d a93d 1982 213d
00000270: 8822 0e3d 97a4 ff3c d386 a13b 042d d2bd
00000280: d0e1 a0bd 3290 ad3b 489f 1f3b dc5e e63c
00000290: 0b9e 84bd 3174 79bd 197f bbbc c5a0 fdbd
000002a0: 0c90 43bd 53d4 883c 0dbf 223d 8136 333d
000002b0: 5a66 9bbd 409c 36bd 45d5 acbc 05d7 bebc
000002c0: c2d6 88bc 3ba7 34bd 4317 713c ef20 133d
000002d0: 519f 323c bbbf 40bd 70ce 91bd f471 73bd
000002e0: a678 07bd bfd4 11bd 4673 043c 12b4 8bbd
000002f0: 76f1 4d3c 89a5 b7bb 0deb 5fbd 01c4 33bd
00000300: 0290 523d 00f5 e53c 35bd b2bc cda5 603c
00000310: 1ec3 a53c 1f09 9bbc dba3 2f3d df51 3bbc
00000320: 0b95 663d 875e f03c 272c 7b3b 35a5 5dbd
00000330: 6aac ac3d 317f b93c 89d5 3bbd f5ab 7fbd
00000340: d254 013d 6147 9fbc e79c bc3d 04b4 18bd
00000350: f877 a6bc 370d 7d3d dc62 333c 76b0 dc3c
00000360: 1fb5 b63c a313 573d 0628 0d3c dabf 9a3d
00000370: 989f b4bd f866 cf3b ec2d 3fbc 8eb0 a6bd
00000380: 0978 853d 9d3b 2b3d 7e9d babd aae0 84bc
00000390: 8128 38bc 89eb 53bd 9225 743d c5b6 10bc
000003a0: 1c1a 643c e753 333d d407 60bd 8bc6 a7bc
000003b0: e920 9b3c d57b 743c 4816 07bd acf7 e33c
000003c0: 5525 a8bd 035a 893d 48f8 783d 23b5 f8bc
000003d0: e5ed ebbc 7b0c c93a e7ea 243c e1ee 55bd
000003e0: 6ba5 e9bb 8c39 89bc 3f65 4c3c b5c6 bbbc
000003f0: 16e8 073d edaa 9dbd d5f7 5abc 1ebb 6c3d
-0.029744968 -0.038392305 0.045688625 -0.048018154 -0.008584913 0.0011743618 0.0019505947 -0.069566615
-0.060295273 0.0057154633 0.032074764 0.054431602 -0.003955456 0.031495433 0.06785443 0.01908571
0.0021228846 0.05773509 -0.008365135 -0.03775344 0.03478371 0.07322047 0.025581738 0.04440763
-0.043692447 0.042964894 -0.024798466 0.0392649 -0.054992665 -0.031451236 -0.035407886 0.017840732
0.020417945 -0.040458787 -0.05269011 0.011908734 0.030427061 -0.05089102 -0.06668159 0.0068132007
-0.0029107123 -0.06803587 -0.08893412 0.085951984 -0.03733445 0.03489796 0.055465665 0.014339073
0.035555284 0.047176298 0.027552923 -0.04670139 0.10029734 0.061310876 0.016343314 -0.032784153
-0.0060706255 -0.034247465 -0.053161006 -0.07698617 0.028409466 -0.021592489 -0.050195824 0.03451158
-0.052951477 -0.059063826 -0.0384782 -0.03349485 0.06237854 -0.018527534 -0.052252784 -0.018963123
-0.01657385 0.016898803 0.07806043 -0.033971313 0.03962244 0.022242373 -0.052457727 0.018514749
-0.0066918554 -0.03670298 -0.050679795 -0.059681367 -0.03226531 0.07791593 0.060594182 0.044852592
-0.01851356 0.054294992 0.036933932 -0.028994396 -0.05749022 -0.024734583 0.013266543 -0.03160771
0.06935366 0.024237575 -0.0404002 0.03491222 -0.052526984 0.02157592 0.0202913 0.08200775
0.025280194 0.043950766 -0.052443337 -0.023895282 -0.0063364166 -0.0069484324 0.018945 0.045546662
0.014369186 -0.022037698 -0.091777235 -0.027218468 -0.041711137 0.021339396 0.012821424 0.0036156338
0.0494476 0.030348022 -0.02442934 0.089871675 0.03426039 -0.041419618 -0.067159355 0.014038676
-0.039793313 -0.030559648 0.058497343 -0.0046905726 -0.04017947 -0.0070055523 -0.033818938 0.015368106
0.046224285 -0.011530666 -0.039353106 0.0035184282 0.027451055 -0.04333916 -0.04771283 0.0023238307
-0.018228387 0.054599877 0.015242742 0.03112116 0.0038885763 0.04798048 -0.09790113 0.005114789
0.0029209568 0.03294179 0.082637444 0.03943071 0.0347009 0.031206412 0.0049294024 -0.10262492
-0.0785557 0.0052967304 0.0024356414 0.028121404 -0.06475457 -0.060901824 -0.022887753 -0.1238418
-0.047744796 0.016702807 0.03973298 0.04375315 -0.075878814 -0.044582605 -0.021097789 -0.023295889
-0.016703967 -0.044104796 0.014715019 0.03592008 0.010902242 -0.04705785 -0.07119453 -0.059434846
-0.033074044 -0.03560328 0.008084124 -0.06821455 0.012569776 -0.00560445 -0.05466752 -0.043888096
0.051406868 0.028070927 -0.021818737 0.013711405 0.02023464 -0.018925248 0.042880874 -0.011433094
0.056294482 0.02934195 0.0038325877 -0.05411263 0.08431323 0.022643657 -0.04585794 -0.06241985
0.03157503 -0.019443216 0.09209614 -0.03728105 -0.020320877 0.06178018 0.010948863 0.026939612
0.022303162 0.05250896 0.008615499 0.07556124 -0.088195026 0.0063294135 -0.0116686635 -0.08139144
0.065170355 0.0418049 -0.091120705 -0.01622041 -0.011240126 -0.051738296 0.059606142 -0.008832638
0.013922241 0.043781187 -0.054694965 -0.020480415 0.018936591 0.014922102 -0.032980233 0.02782806
-0.082102455 0.067066215 0.060783654 -0.03035981 -0.02879996 0.0015338802 0.010065771 -0.052229766
-0.007130315 -0.016751073 0.012475311 -0.0229219 0.03318032 -0.07698617 -0.013364752 0.057795636

model._model.a2c_network.value.weight f4 [1, 128]
00000000: 960b 9838 ab00 a6b9 32f4 333d 93a6 d13b
00000010: c2d1 03be 473a 17bc 92f9 f138 b4d6 4d3a
00000020: 166f 613d da6d 573d 2e6f 87ba e861 543c
00000030: 9043 ecbd 9a29 163c 27f2 58bc 3fe9 873c
00000040: d9c1 be3b 3b96 d83b c2da 8cbd a5bd bd3b
00000050: 1ffd 0e3d 18c3 d33d dcca cb3d 6458 8d3d
00000060: 249d c13d 796d 96bc 43ed 3d3d cf9b 5fbc
00000070: 4cb6 40bc 2f82 42bc 9729 d13b feb2 d53c
00000080: c730 f8bc 4655 0b3c 0aab 85bd 33ed abbc
00000090: e1f2 ab3d 82ac 3b3d 7299 03bd f6d6 cd3b
000000a0: e802 03be 0d78 5dbc 23e6 5e3d c369 583c
000000b0: 3150 53bd 2d9b 363d f4c7 843c a1c7 8f3c
000000c0: c439 97bb 5e2b e73b 8215 3dbb 1490 353d
000000d0: 905e 9b3d a1d1 023c fd6b e8bb bae4 a7bc
000000e0: fad1 67bc 6c1a e7bd 731e b63d 5a57 aabb
000000f0: 96ae cdbc f77c 80bc 97cd 503d d3bf 17bb
00000100: a8ec 5fbd 9964 1a3b 8dc0 2abb 3e20 d63c
00000110: 7d1a 0d3c ce3f e73c 23c3 cc3c 2403 633d
00000120: d2b7 26bc 44ea a43c 68f3 5b3d a947 683c
00000130: 5d41 933c 6ab4 023d 1161 543c 5846 653a
00000140: 63d1 f03d 3a1e 36bd 2cdc 0e3d 6af9 1ebd
00000150: 878b 493c 4f8d 40bd 2026 1a3c 40fb 563d
00000160: fe59 8ebb d2f2 d2bc 016f 163c 96b1 3cbc
00000170: ccaa cf3d 5f66 24bd 4d64 28bc b1f0 be3b
00000180: fd37 8c3c 958c 213d 4e81 cb3c 6235 67bd
00000190: d0bd 4fbd 0472 00bd 6920 4f3d 582e d73c
000001a0: 6bc4 da3d 45ad 823c 0eea 49bc 7726 0a3c
000001b0: b7f0 bd3c 18be ad3c 25e9 42bc 106e c23c
000001c0: 2943 26bc 1e29 59bc 6709 7b3d 4de1 f1bc
000001d0: 8edd 183c a3d7 2bbc 6658 2bbd 7b60 593d
000001e0: 07b7 343c bfb5 9fba 5b21 c93c 9e77 063e
000001f0: fb5f f5bd 51db 47bb 852a c83c 3f9d f3bc
7.250083e-05 -0.00031662485 0.043934055 0.006398031 -0.12872985 -0.009230203 0.000115382616 0.00078521227
0.05503758 0.052594997 -0.0010332817 0.012962796 -0.11536324 0.009165192 -0.013241327 0.016590713
0.0058214483 0.0066097057 -0.06877662 0.0057904297 0.034909364 0.103399456 0.09950802 0.06901625
0.094538 -0.018362748 0.04636885 -0.0136479875 -0.011762213 -0.0118718585 0.0063831317 0.026086327
-0.030296696 0.0085042175 -0.06526764 -0.020987129 0.08395935 0.045818813 -0.03212876 0.006281729
-0.12794077 -0.013517392 0.054418694 0.013208809 -0.05159015 0.04458158 0.016208626 0.017551245
-0.0046150405 0.0070547303 -0.002885193 0.044326857 0.07586396 0.00798455 -0.0070929513 -0.020494808
-0.014149183 -0.112843364 0.088925265 -0.0051984014 -0.025107663 -0.015684588 0.050977316 -0.0023155108
-0.054669052 0.0023558496 -0.002605471 0.026138421 0.008612272 0.028228667 0.024995392 0.055422917
-0.010175662 0.020131238 0.053698927 0.014177241 0.017975504 0.031910338 0.012962596 0.0008746139
0.11758687 -0.04446242 0.03487794 -0.03881208 0.012301332 -0.047009762 0.009408504 0.052485704
-0.004344224 -0.025750551 0.009181739 -0.011516949 0.10139999 -0.04013669 -0.01027782 0.0058270325
0.017116541 0.03944071 0.02484193 -0.056447394 -0.05071813 -0.031358734 0.050568018 0.026267216
0.10681995 0.015951762 -0.012323869 0.008432022 0.02318607 0.021208808 -0.011896406 0.023734123
-0.010147848 -0.013254432 0.061288264 -0.029526377 0.0093301665 -0.0104884235 -0.04183235 0.053070527
0.011029965 -0.0012184902 0.024552038 0.13131568 -0.119811974 -0.0030495713 0.024434337 -0.029738067

model._model.a2c_network.mu.bias f4 [9]
00000000: c407 87bc bc1f 6ebc d435 f63b 35e3 0cbc
00000010: 00c0 35bc 17aa 843c 32a3 823c 30a5 3f3d
00000020: 11a8 b7bd
-0.016483195 -0.014533933 0.007513741 -0.008599092 -0.01109314 0.016194386 0.015946958 0.046788394
-0.08967603

model._model.a2c_network.mu.weight f4 [9, 128]
00000000: b4e7 ee3c 5e89 eb3d 6216 e23b 367b 69bd
00000010: d063 2cbd a9e5 c93d 5581 033d ba38 093d
00000020: 677c 803b 2f2f 9d3c c487 87bb d89d 093d
00000030: 5b0f b93a 6216 5bbd 7ec6 983c 0cb2 003d
00000040: b7f6 beba 8f48 a03d f4e4 ee3d e2de 24bd
00000050: 640a d23d 6988 0f3d 2ec3 1bbc 631f d0bd
00000060: 7aea 3f3d aaba 8cbc bb07 14be 2d77 393d
00000070: 8baf 9e3d 02ba 69bd 648d 6ebd f9e2 14bd
00000080: b1a7 b33d 7972 a23c e644 b43b 16ce f9bd
00000090: 8acd bbbd 22fc 92bd 00e4 1d3d 26be 55bc
000000a0: 9429 3dbe dce8 08bd ea78 afbd a4ad 8dbd
000000b0: 9404 353d 146f fc3c 946a 88bd 12b0 57bd
000000c0: f7e4 bb3d 9571 fc3d 6c9d 19be 9ad9 c7bc
000000d0: 3dc3 44bd 804a 97bd 273b e1bc 9245 2c3d
000000e0: 1155 e03c 2439 2bbd 270f de3a 4743 b0bd
000000f0: ca9d c73d cec6 4bbc 97f9 d1bc 26d9 12bd
00000100: 5af2 963d 77d8 eb3d 61f7 cdbc 20b6 a63d
00000110: 2bd0 e4bd 6a3e c9bd 7ae4 8ebd 68d7 ac3d
00000120: b1a6 7f3d 5bf1 863d be82 0dbe 06a9 f23d
00000130: c36d a8bc 719f 393c 6847 6a3d 4cf0 67bd
00000140: cd4d fabc a523 48bc c65a 8b3d d4f9 2e3d
00000150: e702 b4bd 6894 62bd 1e1b b2bd 7e00 c9bd
00000160: 9f52 6f3d 286d 393d 0cf1 06be 63f0 bb3d
00000170: 9f2c e2b9 ffd6 073e 9927 62bd e839 c5bd
00000180: 692b 05bd 0ee9 2fbd ef35 773d b347 4cbd
00000190: cee8 683d a073 3a3d 1c85 00bd e2cb 9ebd
000001a0: b94f 5ebb b83b fa3d 3902 ccbc 7c39 84bc
000001b0: eb2a 353c b47d c4bd 6d7c 083d 1dd0 933c
000001c0: 3215 2cbd 3500 abbd 639f 98bd c5db bfbd
000001d0: 1cb4 bc3b ba78 cbbc 9f4d 0c3c 5316 44bd
000001e0: 743f 303b 2fe3 a3bd 751c 1f3d 1cbc 0b3d
000001f0: 7a1e 07be 0323 a8bd c6a8 f5bc f6b1 bebd
00000200: 84d4 a43c f37b 48bd ee99 c9bc fa4f bebd
00000210: 25d7 04be 1c1f 4cbd dab3 17bc 0eb4 573b
00000220: 0438 81bc 3ee2 ccbc a68c bcbd d46c 2dbd
00000230: 2f7f 8dbb 7e73 3abd fe6a 06be ac3c 05bc
00000240: 1bf5 1bbd 291c ba3c a38c b9bb 9271 cbbd
00000250: 59c7 c33d 945c 0b3d 79b5 a9bd 0a72 3039
00000260: 0ba7 5f3c 6e45 53bd e5ac 1c3d 9684 64bd
00000270: 02a6 efbb 640c c4bd 42a1 10bd cf15 963d
00000280: dfbf 683d c62c 4e3c 5278 3e3d 824e 883d
00000290: dbc0 573d 44b3 2e3d 1377 7bbc 857d 353d
000002a0: e98c 613c f41b 37bc 7413 ea3c 0994 563d
000002b0: 9883 633b 6ea3 ecbc ac07 f3bc d3a0 87bd
000002c0: 7b29 d43c bfbc 5a3b eac0 8bbd 9076 58bd
000002d0: eaf2 143b 24fd 863d f2d5 753d 74e3 bfbc
000002e0: 4be7 873d 6603 fcbc 1046 913d 196d ca3d
000002f0: 90d6 e73b 1c8c 853c 6ae8 a9bd 3e17 ab3d
00000300: 52ce a53d 1bd8 43bc eece 7e3d 9534 da3d
00000310: 33d9 143d 41f1 6fbd e707 cb3c dc17 6b3d
00000320: 853c 33bd 2b69 163c 2d8b 7c3d a74a 53bd
00000330: 8b00 2939 f9cd 6cbd 2958 eabc e423 4e3c
00000340: bfcc f8bd 86fb d03d c5e6 213c 87d1 96bc
00000350: 4fba 7f3d 8f5a 8c3c 39eb 973d 6c5a 5abd
00000360: ae4b 84bc 683f 8d3d a055 c43d 862f 633c
00000370: 7d47 933d 1374 223d 00e6 d03c f060 febc
00000380: e346 a73d 4eb6 5dbd 1f15 00bc 4134 bc3c
00000390: 7202 3ebd 4f7b 9abd 7dae 81bd 8cb0 3d3d
000003a0: cf22 4fbc 9f6a 5fbd 7d58 c53c 4193 a83d
000003b0: f4a6 b73c 59f5 803d 4559 533d 4e48 1d3b
000003c0: 4021 4dbd 25bf 473d 03c1 d4bc a81f b83d
000003d0: b10b 8abb 202d c83d b238 9c3d 6a7e bfbd
000003e0: ecd4 7d3d c55a abbd d92b 8d3c e795 0bbb
000003f0: 183e a3bc 5141 d5bc 0f6b e9bb 1189 39bd
0.029163219 0.1150081 0.006899641 -0.05700227 -0.042087376 0.09858257 0.032105763 0.033501364
0.00392108 0.019187538 -0.0041360576 0.033597797 0.0014118956 -0.053488143 0.018649336 0.0314198
-0.0014569376 0.078263395 0.11664763 -0.04025162 0.10255888 0.0350422 -0.009506984 -0.101622365
0.046854474 -0.017178852 -0.14456074 0.04527967 0.07748326 -0.057062156 -0.05824031 -0.03634927
0.08772219 0.019829975 0.0055013774 -0.12197511 -0.09170063 -0.07176997 0.038547516 -0.013045823
-0.18472892 -0.033425197 -0.085679844 -0.06917885 0.04419382 0.030814685 -0.06660953 -0.052658148
0.09174531 0.123263516 -0.15001458 -0.024395753 -0.048037756 -0.073872566 -0.027494026 0.042058535
0.027384313 -0.04180254 0.0016941772 -0.08606582 0.09746893 -0.012437535 -0.025631709 -0.03585162
0.07370444 0.11515897 -0.025142374 0.08140206 -0.111725174 -0.09826358 -0.06977172 0.08439523
0.06241483 0.06589004 -0.13819405 0.11848645 -0.020560151 0.011329518 0.057197005 -0.05662565
-0.030554676 -0.01221553 0.06804423 0.042718723 -0.08789616 -0.055317312 -0.086965784 -0.09814547
0.058428403 0.045270115 -0.1317789 0.091767095 -0.00043139324 0.13265608 -0.055213545 -0.09630185
-0.032512102 -0.042946868 0.06035417 -0.049873065 0.056862645 0.045520425 -0.031376943 -0.07753731
-0.003392203 0.12218422 -0.024903404 -0.016140692 0.011057596 -0.095942885 0.033321787 0.018043572
-0.0420124 -0.08349649 -0.074522756 -0.093680896 0.0057587754 -0.02483784 0.008563428 -0.047872853
0.002689329 -0.08002316 0.038845498 0.034114942 -0.1319522 -0.08209803 -0.029987704 -0.09311287
0.020120867 -0.048946332 -0.024609532 -0.09292598 -0.12972696 -0.049834356 -0.009259189 0.0032913717
-0.01577378 -0.025010224 -0.09206514 -0.042340115 -0.00431814 -0.0455203 -0.13126752 -0.008132141
-0.038075548 0.022718506 -0.005662517 -0.09933771 0.09559507 0.034023836 -0.08286566 0.00016827151
0.013650666 -0.051579885 0.038250823 -0.055790506 -0.007313491 -0.09572676 -0.035310037 0.073283784
0.056823608 0.012583917 0.046501465 0.06655599 0.052674156 0.04265143 -0.015348214 0.044309158
0.013766506 -0.011176098 0.02857373 0.05238727 0.0034715887 -0.028886523 -0.029666744 -0.06622472
0.025898686 0.0033376662 -0.06823905 -0.052847445 0.0022727796 0.065912515 0.060018487 -0.023423888
0.066359125 -0.03076334 0.070934415 0.0988409 0.0070751384 0.01630216 -0.082962826 0.083540425
0.08095993 -0.011953379 0.062209062 0.106545605 0.03633995 -0.058579687 0.024784042 0.0573958
-0.043758888 0.009180347 0.061656166 -0.051584866 0.00016117298 -0.05781362 -0.028606491 0.012581799
-0.12148427 0.10204224 0.00988168 -0.018410457 0.062433537 0.017133025 0.07417912 -0.05330889
-0.016149368 0.068968594 0.09586644 0.013866311 0.0719137 0.03966148 0.025500298 -0.031052083
0.081678174 -0.054128937 -0.007817536 0.022974135 -0.04638905 -0.075430505 -0.06332109 0.046310946
-0.012642576 -0.05454504 0.024090046 0.082312115 0.022418477 0.06296796 0.051598806 0.0023999396
-0.050080538 0.048766274 -0.025970941 0.08990413 -0.0042128195 0.09774232 0.07628001 -0.093502834
0.061970636 -0.08366922 0.017232822 -0.0021299066 -0.01992707 -0.026032122 -0.007123358 -0.045296732

onnx::Sub_38 f4 [29]
00000000: 4b89 d93c 518b b13c 1833 4840 483b 2d3c
00000010: 82ca 3dbc 4e93 acbb 83e2 66be e9fc 043d
00000020: 2264 b13e 6f09 493d c4d6 af3e bf65 45bf
00000030: 7ba4 9039 b6e8 213c 351a a639 f3cf c03b
00000040: 8bb7 863a aaf2 ad3b b449 05bc 084a 3138
00000050: f46e 20b9 9167 0a3c 25b0 a33c aa0b 483f
00000060: ee95 b63b c4e9 9fba bc1a 333f ffff ff3e
00000070: ffff ff3e
0.026554724 0.021672877 3.1281185 0.010573216 -0.011583926 -0.0052665835 -0.22547345 0.032467756
0.34646708 0.049081262 0.3434354 -0.7710838 0.00027588368 0.009882143 0.00031681513 0.0058841645
0.0010278089 0.005308469 -0.008135248 4.2269035e-05 -0.00015300122 0.008447544 0.019981453 0.781428
0.005572072 -0.0012200405 0.6996267 0.49999997 0.49999997

onnx::Div_41 f4 [29]
00000000: d082 7f3f 57fa 873f 67a6 e53f aabd 8f3d
00000010: 0b34 3e3e f879 2a3e 6646 853e 3ed5 fe3d
00000020: 01ad f33d c65b 3a3e d297 303f d062 fd3e
00000030: de76 1b3d 44dc 753d e92c 363d e7b3 5c3d
00000040: b8bf 283d d2b1 4b3d 9522 593d 6297 3f3c
00000050: 9365 0e3c e59e ac3f 4fa4 af3f 5d29 643e
00000060: d407 de3f 1276 de3f 68b0 933e a800 003f
00000070: a800 003f
0.9980898 1.0623273 1.7941407 0.070185974 0.1857454 0.1664809 0.26030272 0.124430165
0.11898232 0.18199071 0.6898166 0.4948945 0.037955157 0.060024515 0.044476423 0.053882506
0.041198462 0.04973013 0.053011496 0.011693807 0.008691209 1.3485991 1.3722018 0.22281404
1.7346139 1.7379782 0.28845525 0.50001 0.50001
