ROS/models/m1best2.onnx (onnx, 780103 bytes, 12 tensors)

model._model.a2c_network.sigma f4 [9]
0	0xbfe7e8e4	-1.8117948
1	0xbffbabc1	-1.966179
2	0xbfd67beb	-1.6756567
3	0xbfc4c53d	-1.5372692
4	0xbfcb42bb	-1.587974
5	0xbfcf4c72	-1.6195204
6	0xbfc8df66	-1.5693176
7	0xbfcd850d	-1.6056229
8	0xbfbd2ca3	-1.4779247

model._model.a2c_network.actor_mlp.0.bias f4 [512]
0	0x3cd13282	0.02553678
1	0xbbea6285	-0.0071528577
2	0x3d0cc4fd	0.03436755
3	0xbd146d3d	-0.03623699
4	0x3b2cfe6d	0.0026396767
5	0xbb2f99a3	-0.0026794455
6	0xbe02fc16	-0.12791476
7	0xbd72f0e0	-0.059311748
8	0xbdb6fda4	-0.08935097
9	0x3cc45c10	0.02396968
10	0xb7f9b4c0	-2.9767281e-05
11	0xbc752eb9	-0.014964753
12	0x3c7c6e49	0.015407153
13	0x3d663d8f	0.05621105
14	0x3d981bfa	0.07427211
15	0x3d9de631	0.07709921
16	0x3dbf1075	0.09329311
17	0x3c90e081	0.017685177
18	0xbe08b5ae	-0.13350555
19	0x3d58b56e	0.0529074
20	0xbc18b847	-0.009321279
21	0xbd83374a	-0.0640703
22	0x3d1e2924	0.038613454
23	0xbb771b6a	-0.003770555
24	0x3bfd5d74	0.0077320877
25	0x3c8c3ea5	0.017119715
26	0x3d120dbc	0.03565763
27	0x3d5b4866	0.05353584
28	0x3d59e694	0.053198412
29	0xbb6f58b7	-0.0036521384
30	0x3dd3712b	0.103243195
31	0x3c604680	0.0136886835
32	0xbd9c06b3	-0.07618465
33	0x3d0b2ebc	0.033980116
34	0x3c8640e8	0.016388372
35	0xbd8c7461	-0.06858135
36	0x3aa1f419	0.0012356072
37	0x3c341e87	0.010993606
38	0x3daae738	0.08344883
39	0xbcc70428	-0.024293974
40	0xbbc5bcbb	-0.0060344613
41	0xbcfe3e09	-0.03103544
42	0xbd032537	-0.032017913
43	0x3d566cde	0.052349918
44	0x3e02e18b	0.1278135
45	0xbc113615	-0.008862992
46	0xbdc2a797	-0.095046215
47	0xbd936803	-0.07197573
48	0x3d4a4f13	0.049391817
49	0x3e0a32b1	0.134959
50	0x3ce595e1	0.02802557
51	0x3c7815e2	0.015141936
52	0xbd913874	-0.07090846
53	0x3cf602de	0.030030664
54	0xbb8ea20f	-0.004352815
55	0x3d4081c5	0.046998758
56	0x39d18426	0.00039962045
57	0x3d923ce2	0.07140519
58	0x3d94651e	0.07245849
59	0xbb5b660f	-0.003347758
60	0x3d8ed21b	0.06973668
61	0x3d8da47b	0.06916138
62	0xbbee4626	-0.007271546
63	0x3bb064e7	0.0053831222
64	0xbdfb26c5	-0.12263254
65	0x3c212697	0.009835861
66	0x3d0c6212	0.034273215
67	0x3d86d2ee	0.065832004
68	0x3dac4261	0.08411098
69	0x3bc56a88	0.0060246624
70	0xbd63de12	-0.055631705
71	0xbd8d44b4	-0.0689787
72	0x3d1ce383	0.03830291
73	0x3d23683d	0.03989433
74	0x3db6ad6d	0.08919797
75	0xbdb6e481	-0.089303024
76	0x3d338284	0.04382564
77	0x3c712787	0.014718897
78	0xbd35c40d	-0.04437642
79	0xbd192d1d	-0.03739654
80	0xbd8cf01d	-0.068817355
81	0x3cf903db	0.030397346
82	0x3d6c06f8	0.057623833
83	0x3d5b3479	0.05351684
84	0xbd2dfdd6	-0.042478405
85	0x3c3585dc	0.011079278
86	0x3d24e9f2	0.04026217
87	0x3d934711	0.07191289
88	0xbc052caf	-0.008128329
89	0x3bf58dc3	0.007493706
90	0x3d6f877e	0.058478825
91	0x3d24b9fb	0.040216427
92	0x3d878a46	0.066181704
93	0x3d2ee9f0	0.04270357
94	0x3cca7a99	0.024716662
95	0x3da8bb3f	0.08238839
96	0x3d20061e	0.039068334
97	0xbcc204e8	-0.02368398
98	0xbbc38c25	-0.0059676343
99	0x3c513f06	0.012771374
100	0xbda9cf34	-0.08291474
101	0x3ddfefe9	0.10934431
102	0xbc837f2d	-0.016051853
103	0x3d8e8920	0.06959748
104	0x3d337141	0.04380918
105	0xbdce6c97	-0.100793056
106	0x3cd7411b	0.026276162
107	0x3da5739e	0.08078693
108	0xbc3953a7	-0.011311448
109	0x3ddb3069	0.10702593
110	0xbcd0a3c6	-0.025468718
111	0xbda18b4e	-0.078878984
112	0xbe1026ef	-0.14077352
113	0x3e0bdf9f	0.13659523
114	0x3d1dc445	0.038517255
115	0xbd42e598	-0.04758224
116	0x3db5f04f	0.08883726
117	0xbdbf0c95	-0.09328572
118	0x3cfdca30	0.0309802
119	0x3e299fe6	0.16564903
120	0xbd3c4a7f	-0.045969483
121	0x3c35bce8	0.011092402
122	0x3d24c7d1	0.040229622
123	0x3d8e5574	0.06949893
124	0xbcd01dfe	-0.025404926
125	0x3cb8ea86	0.022572767
126	0xbd054869	-0.03253976
127	0x3d81b644	0.063335925
128	0xbd3114bd	-0.04323267
129	0xbd724545	-0.05914809
130	0x3d86450d	0.06556139
131	0x3d28eebd	0.041243304
132	0xbb0df9fa	-0.002166389
133	0xbd3acf24	-0.0456077
134	0x3dc00065	0.09375075
135	0x3bd1e260	0.00640516
136	0xbd6c6cf6	-0.0577211
137	0x3d84441b	0.064583026
138	0xbda3ccb2	-0.07998027
139	0xbd17c1a3	-0.0370499
140	0xbd8b262f	-0.06794392
141	0xbd850d12	-0.064966336
142	0xbd254c37	-0.040355887
143	0xbc310f5e	-0.0108068865
144	0x3c9b25e9	0.018938975
145	0x3db4e1cb	0.08832129
146	0x3dabf47b	0.0839624
147	0xbda36f8b	-0.079802595
148	0x3d63916a	0.0555586
149	0x3d7291d6	0.05922111
150	0x3dbb9048	0.09158379
151	0x3cf2de25	0.029646942
152	0xbd72f072	-0.059311338
153	0x3d443813	0.04790504
154	0xbd06df11	-0.032927576
155	0xbd19d2f3	-0.037554692
156	0x3dbb34ee	0.09140955
157	0xbbc8bd01	-0.0061260466
158	0x3daf5873	0.08561792
159	0xbd959882	-0.07304479
160	0xbdaacbdc	-0.08339664
161	0x3dad06b2	0.08448543
162	0xbd67eb26	-0.05662074
163	0xbd08da0a	-0.033411063
164	0x3db199a2	0.08671881
165	0xbdccea61	-0.10005642
166	0x3babddc1	0.005244941
167	0x3db030de	0.08603071
168	0xba55ab4b	-0.000815083
169	0x3d3997cf	0.04531079
170	0x3da1722f	0.07883107
171	0x3cc957b8	0.02457796
172	0xbd12bc16	-0.035823904
173	0x3d4ddeba	0.050261237
174	0x3e0c9981	0.13730432
175	0xbc662cb6	-0.014048746
176	0xbd83e8a7	-0.06440859
177	0x3d9152b8	0.070958555
178	0x3d9e2cc7	0.07723384
179	0x3d4f9b3e	0.05068516
180	0xbbebdb5c	-0.0071977805
181	0x3d7c833b	0.06164859
182	0x3c26cfa9	0.010181346
183	0xbd81571f	-0.06315445
184	0xbd98261b	-0.07429143
185	0xbc6f9faa	-0.014625469
186	0x3bcade32	0.0061910385
187	0x3dcf9b85	0.10137085
188	0x3c01da38	0.007925563
189	0xbd0058d3	-0.03133471
190	0xbdab7dd1	-0.08373607
191	0x3ce0f167	0.02745886
192	0x3de1885b	0.11012336
193	0x3d4f8865	0.050667185
194	0x3ccadc72	0.02476332
195	0x3d3dc04d	0.04632597
196	0x3d586bbf	0.05283713
197	0x3d53cae2	0.051707156
198	0xbd811855	-0.06303469
199	0x3cb446b2	0.022006366
200	0x3db80da0	0.08986974
201	0xbce913b7	-0.028451784
202	0xbd9daaf8	-0.07698625
203	0xbd8f35d2	-0.06992687
204	0x3d941d4f	0.07232153
205	0x3d3a3aa5	0.045466084
206	0x3c968b33	0.018376922
207	0x3da4e76d	0.080519535
208	0x3d627d98	0.055295557
209	0x3de28827	0.11061125
210	0xbded7a0a	-0.11595543
211	0x3d5f31ba	0.054490782
212	0x3d72643d	0.059177626
213	0xbcef229f	-0.029191313
214	0x3d956c82	0.07296087
215	0x3bb9e086	0.005672517
216	0x3d93b2a6	0.07211809
217	0x3db0971a	0.0862257
218	0xbd11d53d	-0.03560375
219	0x3ce70a68	0.028203204
220	0x3d580ee2	0.05274857
221	0x3d22a73f	0.03971028
222	0x3dcbad0c	0.099451154
223	0x3da72324	0.081609994
224	0x3c8c75a9	0.017145948
225	0xbd72f530	-0.05931586
226	0xbc9835d0	-0.018580347
227	0xbd9a5c2c	-0.07537112
228	0x3d2a1304	0.04152204
229	0xbdd8771e	-0.10569595
230	0xbc936a67	-0.017995073
231	0x3dfdd653	0.12394395
232	0xbd19919d	-0.037492383
233	0xbdbbf153	-0.09176888
234	0xbb6c806e	-0.0036087292
235	0x3d2d6acd	0.04233818
236	0x3c87887b	0.016544571
237	0x3d0f51b7	0.03499004
238	0xbbd3bb59	-0.0064615426
239	0x3bc9a9d9	0.0061542806
240	0xbd68048d	-0.056644965
241	0x3d9689af	0.0735048
242	0x3dc2a41a	0.09503956
243	0x3c2179a7	0.009855664
244	0xbd52b796	-0.051444612
245	0x3dc354e3	0.09537675
246	0x3cea2ff5	0.02858732
247	0xbe04274b	-0.12905614
248	0xbd153d35	-0.036435325
249	0x3e149ec2	0.14513686
250	0xbc866548	-0.016405717
251	0xbcab9658	-0.020945713
252	0x3df7df2d	0.12103114
253	0x3d6aeead	0.057356525
254	0x3da137c4	0.078719646
255	0xbd383aa8	-0.044977814

model._model.a2c_network.actor_mlp.0.weight f4 [512, 29]
0	0x3d255023	0.040359627
1	0xbd262e63	-0.04057158
2	0x3c80bfe5	0.015716502
3	0x3e629d2f	0.22130273
4	0x3db7a1ca	0.08966406
5	0x3d5f0599	0.054448698
6	0xbd8a2520	-0.06745362
7	0xbe92b642	-0.28654677
8	0xbbd3dc4d	-0.006465471
9	0x3e35b8fd	0.17746349
10	0x3d5f127f	0.054461
11	0xbbdccce6	-0.006738293
12	0x3d6ce4e6	0.057835482
13	0x3df42bc6	0.119224116
14	0xbcf73e23	-0.030180996
15	0xbdf95903	-0.12175181
16	0x3d890de4	0.066921026
17	0x3c48e343	0.012261215
18	0xbe12c634	-0.14333421
19	0xbde39c14	-0.11113754
20	0xbe293305	-0.16523369
21	0x3db999bb	0.09062525
22	0x3e0b4626	0.13600978
23	0xbe1a829f	-0.1508889
24	0x3d0677cf	0.032829102
25	0xbba6efb6	-0.0050944937
26	0x3e38e4cb	0.18056028
27	0x3d024441	0.031803373
28	0x3e27403f	0.16333102
29	0x3e233957	0.15939842
30	0x3d73f9f0	0.05956453
31	0xbe0aadc8	-0.13542855
32	0xbdc5b483	-0.096535705
33	0xbdf96a02	-0.121784225
34	0x3d95f520	0.073221445
35	0xbe86f9ae	-0.26362365
36	0xbe5480d5	-0.2075227
37	0x3ce9f852	0.028560791
38	0x3db59bbc	0.088675946
39	0x3d28cabc	0.041208968
40	0xbc255297	-0.010090492
41	0x3cfe6bc2	0.031057242
42	0xbcedb225	-0.02901561
43	0xbd81fee4	-0.06347445
44	0x3b74cf1a	0.0037354887
45	0xbe2dad40	-0.16960621
46	0xbd57677d	-0.05258893
47	0x3cfb3b22	0.030667845
48	0x3e2427c4	0.16030794
49	0xbe1ac643	-0.15114693
50	0xbe402b13	-0.18766432
51	0xbcc41f63	-0.023940748
52	0xbbaadc11	-0.0052142222
53	0x3e2745b6	0.16335186
54	0xbe13f269	-0.14447941
55	0xbbf9992c	-0.0076171365
56	0x3d15444d	0.03644209
57	0xbc89158c	-0.016733907
58	0x3d05e45a	0.032688476
59	0xbe356ead	-0.17718
60	0xbe0356c6	-0.1282607
61	0x3e37aa2d	0.1793601
62	0xbe09dcc6	-0.13463125
63	0xbd74e391	-0.059787337
64	0xbbe77385	-0.0070633315
65	0xbd8994a8	-0.06717807
66	0x3e30da72	0.1727083
67	0xbad72df8	-0.0016416898
68	0x3dc545e5	0.09632472
69	0x3cf5e6ff	0.030017374
70	0x3e077db7	0.1323155
71	0x3d760328	0.060061604
72	0x3dc6adc9	0.09701116
73	0xbdd776b0	-0.10520685
74	0x3d26e13a	0.040742137
75	0xbdf836b3	-0.12119808
76	0xbe1669ae	-0.14688751
77	0xbd4971c2	-0.049180754
78	0xbd2ecace	-0.04267388
79	0xbd9be889	-0.07612712
80	0xbdbbaa2f	-0.09163319
81	0xbdc54e92	-0.09634127
82	0x3e45c758	0.19314325
83	0xbd5db1f9	-0.054124806
84	0x3e4f5034	0.20245439
85	0x3dab3174	0.08359042
86	0x3dd4d827	0.1039279
87	0xbe660080	-0.22461128
88	0x3dade1d9	0.08490343
89	0x3dc4d740	0.09611368
90	0x3c5fadd6	0.013652286
91	0x3e497ede	0.19677302
92	0x3de2969e	0.11063884
93	0xbd69b8a1	-0.05706084
94	0xbe34e4ac	-0.17665356
95	0xbd802246	-0.06256537
96	0xbcb0a76d	-0.02156421
97	0x3df5546b	0.11978992
98	0x3d8d84c5	0.069100894
99	0x3d7e16ea	0.06203357
100	0x3d9e6465	0.077339925
101	0x3d1cb40c	0.038257644
102	0x3d6fad1f	0.05851471
103	0x3da21c92	0.079156056
104	0xbd182cad	-0.03715198
105	0xbca7fa23	-0.020505017
106	0xbc45a185	-0.012062435
107	0xbd81596b	-0.06315883
108	0xbb0cc5f8	-0.0021480303
109	0x3e55a262	0.20862725
110	0x3df3823b	0.11890074
111	0x3eb1d172	0.34730107
112	0xbeb7c4c0	-0.35892296
113	0xbda167ac	-0.07881102
114	0x3da9fc44	0.08300069
115	0x3e18cd5c	0.14922088
116	0xbccd09d0	-0.025029093
117	0xbdbab1c4	-0.09115937
118	0x3dfc897c	0.123309106
119	0xbe39d14e	-0.1814625
120	0xbe0d841d	-0.13819928
121	0x3e17dcfc	0.14830393
122	0xbddfd799	-0.10929794
123	0x3e6a0076	0.22851738
124	0x3d169dc8	0.036771566
125	0xbd5c2e92	-0.05375535
126	0xbd3ca5e5	-0.046056647
127	0x3e07dbd6	0.13267455
128	0x3dd72efb	0.10507008
129	0x3d2799de	0.040918224
130	0x3e27eee2	0.1639972
131	0xbe2087f4	-0.15676862
132	0x3da0050c	0.078134626
133	0xbca57275	-0.020196179
134	0xbd008b27	-0.031382706
135	0xbe14b205	-0.14521034
136	0xbe07e2d7	-0.13270126
137	0xbb616d62	-0.0034397473
138	0xbd1f4e73	-0.038893174
139	0x3e35d0df	0.17755459
140	0x3d2db78b	0.04241137
141	0xbcf82680	-0.030291796
142	0xbe53b6df	-0.20675229
143	0x3d7010f7	0.05860993
144	0xbe145a81	-0.1448765
145	0xbe35a23d	-0.1773767
146	0x3c3147eb	0.010820369
147	0x3bfdc119	0.0077439663
148	0xbe3170e2	-0.17328218
149	0xbdf484a8	-0.11939365
150	0x3df47657	0.11936634
151	0xbd569791	-0.05239064
152	0xbe2f26be	-0.17104623
153	0xbdca9afc	-0.09892842
154	0xbe34d5b2	-0.17659643
155	0xbbcba026	-0.0062141595
156	0xbe0c3fda	-0.13696232
157	0x3d22dda6	0.03976216
158	0xbc66b184	-0.014080409
159	0x3df15d2b	0.117853485
160	0x3d9f6374	0.07782641
161	0xbdddbfa7	-0.108275704
162	0xbd0c88b1	-0.034310047
163	0xbdf0798c	-0.11741933
164	0xbe27fe29	-0.16405548
165	0x3c46d9ed	0.0121369185
166	0xbe5e7625	-0.21724756
167	0x3e11b7d4	0.14230281
168	0xbd42cb87	-0.04755738
169	0x3ec10d87	0.37705633
170	0xbd067b3f	-0.03283238
171	0x3e36ef7c	0.17864794
172	0xbdc96fae	-0.09835754
173	0xbe2bee88	-0.16790211
174	0x3d3f40b5	0.04669257
175	0x3dd47295	0.10373417
176	0xbd3a1597	-0.045430746
177	0xbd955da9	-0.07293255
178	0x3dcf9c10	0.101371884
179	0xbe95be56	-0.29246777
180	0x3e1dc662	0.15407708
181	0xbe7730b4	-0.24139673
182	0x3db20d7c	0.08693978
183	0x3e31b17e	0.17352864
184	0x3d1170e3	0.035508048
185	0x3dac02bf	0.08398961
186	0xbd040af5	-0.032237012
187	0x3c718ac7	0.01474256
188	0xbe0e611b	-0.1390423
189	0x3dc8a403	0.09796908
190	0xbe25ac90	-0.16179109
191	0x3d941c56	0.07231967
192	0x3be15b53	0.006877342
193	0x3dc7369d	0.097272135
194	0xbc84a913	-0.016193902
195	0xbde66d15	-0.112512745
196	0xbdd9f98c	-0.106433004
197	0x3d0b4c5e	0.034008376
198	0xbb59d322	-0.0033237417
199	0x3d75eb3d	0.060038794
200	0xbe1d0f8c	-0.15337962
201	0xbde959a1	-0.113940485
202	0xbc5bad0f	-0.01340796
203	0x3e166dc0	0.14690304
204	0x3d8f4fdb	0.06997653
205	0x3c2dce44	0.01060826
206	0xbe32ffd5	-0.17480405
207	0x3dc55062	0.096344724
208	0xbdc2f613	-0.09519591
209	0x3e4e043d	0.20118804
210	0x3cdaa375	0.02668927
211	0x3e27c6ea	0.16384473
212	0x3e1a5aa1	0.15073635
213	0xbcd5021f	-0.026001988
214	0xbe01ca62	-0.12674859
215	0xbdf8e333	-0.1215271
216	0x3cf1cf9b	0.02951794
217	0xbda8b731	-0.08238066
218	0x3dca651d	0.09882567
219	0xbd827338	-0.063696325
220	0x3d602263	0.054720294
221	0x3d9ae1e8	0.075626194
222	0xbd8afa01	-0.06785966
223	0x3c19ff78	0.009399287
224	0x3cd3f3d6	0.025873106
225	0x3e332a78	0.1749667
226	0xbc14407a	-0.009048576
227	0x3cffda3b	0.03123199
228	0xbdc8fbd3	-0.09813657
229	0x3db1fa33	0.086903
230	0xbd5f84b0	-0.0545699
231	0x3e18dcd9	0.14927997
232	0xbc8b0571	-0.016970368
233	0xbd90b995	-0.07066647
234	0xbe0dad02	-0.13835528
235	0x3d0de77c	0.03464459
236	0x3df2e543	0.118601345
237	0x3e862497	0.2619979
238	0xbd56a353	-0.052401852
239	0x3e8b821b	0.272477
240	0xbd56209c	-0.052277192
241	0xbe3a701f	-0.18206833
242	0x3bd7df00	0.006587863
243	0x3da74b59	0.08168668
244	0xbdee61ca	-0.116397455
245	0x3d918e17	0.071071796
246	0x3da75e54	0.081722885
247	0x3c7073d5	0.014676054
248	0x3d48eb04	0.049052253
249	0x3c71a05c	0.014747705
250	0x3d994686	0.074841544
251	0x3e02e526	0.12782726
252	0x3d672d21	0.056439523
253	0x3db9647a	0.090523675
254	0x3dff7ee4	0.12475374
255	0x3dc4825a	0.09595175

model._model.a2c_network.actor_mlp.2.bias f4 [256]
0	0xbda92652	-0.08259262
1	0xbd134e14	-0.035963133
2	0xbbe2fab0	-0.006926857
3	0x3a05e022	0.0005106946
4	0xbd83b4ad	-0.064309455
5	0x3ba666c7	0.00507817
6	0xbd2bb144	-0.0419171
7	0x3dadaea1	0.084805734
8	0x3c20a660	0.009805292
9	0x3b024096	0.0019874922
10	0x3c64b26e	0.013958557
11	0xbbc59303	-0.006029488
12	0xbde3847d	-0.111092545
13	0xbd992ef4	-0.07479659
14	0x3bac8c06	0.0052657155
15	0x3c524361	0.012833447
16	0x3d165fb9	0.036712382
17	0xbcac7dc1	-0.021056058
18	0xbc746fbe	-0.01491922
19	0xbda1470e	-0.07874881
20	0x3d2fab97	0.04288825
21	0x3c5a1c40	0.013312399
22	0x3d82025c	0.06348106
23	0xbdd88c3f	-0.10573625
24	0xbb6f3d8b	-0.0036505188
25	0xbbaa8dce	-0.0052048927
26	0xbcd89071	-0.026436063
27	0xbd46e8d6	-0.048561893
28	0x3c501dda	0.01270243
29	0x3cf96045	0.030441413
30	0x3d55016c	0.05200331
31	0xbc5704d3	-0.013123709
32	0xbda49573	-0.08036318
33	0x3d04de08	0.032438308
34	0xbd05fe23	-0.032713067
35	0x3d026397	0.031833258
36	0xbcf9bdb4	-0.030485965
37	0x3d001343	0.03126837
38	0xbd65a17c	-0.056062207
39	0xbc98e4dc	-0.018663816
40	0x3d3d575f	0.0462259
41	0xbce04d79	-0.027380692
42	0xbd809fe3	-0.06280496
43	0xbd0dfdd7	-0.03466591
44	0xb9dac926	-0.00041730067
45	0xbce1d51d	-0.02756744
46	0xbe0b8d31	-0.13628079
47	0x3b8f3471	0.004370265
48	0x3d307b93	0.0430866
49	0xbd34c485	-0.044132728
50	0x3c8d1fa2	0.017226998
51	0xbd848618	-0.06470889
52	0xbd48cd4a	-0.049023904
53	0x3c4bd584	0.012441043
54	0xbc804006	-0.015655529
55	0xbbbd3498	-0.005774092
56	0xbc1593f8	-0.009129517
57	0xbdc6ba0a	-0.09703453
58	0xbd0178c7	-0.031609323
59	0x3d25ce62	0.040480025
60	0xbdc9df2c	-0.0985702
61	0xbdc5865a	-0.09644766
62	0xbd0bc38c	-0.034122035
63	0xbda026d6	-0.07819907
64	0xbd873eae	-0.06603752
65	0xbccfe44a	-0.025377411
66	0xbcc237df	-0.023708282
67	0xbd7009d0	-0.058603108
68	0x3bf9603a	0.007610348
69	0xbdf8af9d	-0.121428706
70	0x3d01eb8f	0.031718787
71	0xba042736	-0.0005041243
72	0xbdcbddd2	-0.09954418
73	0xbd515908	-0.051110297
74	0x3c95f9b1	0.018307539
75	0xbda3e492	-0.08002581
76	0xbddeeec5	-0.108853854
77	0xbcdfa8b4	-0.027302124
78	0xbd8c8874	-0.06861964
79	0xbd20085b	-0.03907047
80	0xbe151d90	-0.14562058
81	0x3d2a719b	0.04161225
82	0x3972ac94	0.00023143209
83	0xbdc0af45	-0.0940843
84	0xbdedc129	-0.11609108
85	0xbe0e32ab	-0.13886516
86	0xbc0e5b0c	-0.008688699
87	0xbd8ac7cc	-0.067763895
88	0xbda48e82	-0.08034994
89	0xbe1668c2	-0.146884
90	0x3ce6c858	0.028171703
91	0x3c81646f	0.01579496
92	0x3b499f45	0.0030765098
93	0xbda88482	-0.08228399
94	0xbe11efaf	-0.14251588
95	0xbd326edf	-0.043562766
96	0xbcbf2df3	-0.02333734
97	0xbcd1d6cc	-0.025615118
98	0x3a6084ff	0.000856474
99	0x38cefdd3	9.870124e-05
100	0xbd5b7606	-0.053579353
101	0xbdb33c8a	-0.08751781
102	0x3cb53b15	0.0221229
103	0xbda45d10	-0.08025563
104	0xbd67f8b6	-0.056633674
105	0x3d388029	0.045044098
106	0x3c3a4c56	0.011370739
107	0x3d128e8f	0.035780486
108	0xbce31b36	-0.027722936
109	0xbdaf1ba4	-0.08550194
110	0x3d4e43fc	0.050357804
111	0x3c694f83	0.0142401485
112	0xbc76b557	-0.015057883
113	0xbd0a85fa	-0.033819176
114	0xbc7693e1	-0.0150499055
115	0xbd72cf08	-0.05927947
116	0x3d76c6cf	0.060248192
117	0x3c840e8d	0.01612022
118	0x3bc11481	0.005892337
119	0xbcb176f3	-0.021663165
120	0x3cc6e8d9	0.024280952
121	0x3bf000d0	0.0073243156
122	0xbd7bdac5	-0.06148793
123	0xbd36b5af	-0.04460686
124	0xbdd0afdb	-0.10189792
125	0xbc87b092	-0.016563687
126	0xbc2bc9ee	-0.0104851555
127	0xbc8dc93f	-0.017307876
128	0x3bfd8d3d	0.007737784
129	0xbc7278f7	-0.014799348
130	0xbdeb25dc	-0.114818305
131	0xbd810c95	-0.06301228
132	0x3cf81708	0.03028442
133	0x3d89b6a5	0.0672429
134	0xbca20f8c	-0.019782804
135	0xbc7105e3	-0.014710876
136	0x3c99554d	0.018717432
137	0x3d5ed533	0.05440254
138	0x3b16e520	0.0023024753
139	0xbc98f51c	-0.018671565
140	0x3c42d96c	0.011892658
141	0xb9e112fd	-0.00042929492
142	0xbde966be	-0.1139655
143	0xbcb56396	-0.022142213
144	0x3bece02d	0.0072288723
145	0xbc138ea1	-0.009006173
146	0xbc57fdf0	-0.013183102
147	0xbd5c25cc	-0.053746983
148	0xbc8488be	-0.016178485
149	0x3c2d92e3	0.010594103
150	0xbd55462f	-0.052068885
151	0xbe21df3f	-0.15807818
152	0xbcb82d25	-0.022482464
153	0x3d02599a	0.031823732
154	0x3ccd857a	0.02508806
155	0xbdfb5489	-0.12271983
156	0x3cfca882	0.03084207
157	0x3cad2cce	0.021139529
158	0xbd9818a9	-0.074265786
159	0xbd89dc7f	-0.067315094
160	0x3c5c1131	0.013431833
161	0x3cb0b9b3	0.021572923
162	0x3cce63b0	0.02519402
163	0x3dac8c5c	0.08425209
164	0xbc09da1c	-0.008413818
165	0xbca2afd1	-0.019859226
166	0xbd5834ba	-0.05278466
167	0xbdbfe05e	-0.093689665
168	0xbd16fe93	-0.036863875
169	0xbdaaff5f	-0.083494894
170	0x3b849c85	0.004046979
171	0xbd66f00f	-0.05638128
172	0xbbc1e442	-0.005917103
173	0x3d610515	0.054936487
174	0xbd91da98	-0.071217716
175	0x3c70c8a1	0.014696271
176	0xbb42b0a4	-0.0029707337
177	0xbd987bf0	-0.07445514
178	0x3daa0ea9	0.083035775
179	0xbdb5ce62	-0.08877255
180	0xbd03164f	-0.032003697
181	0xb961fbad	-0.00021551429
182	0xbdccbe25	-0.09997205
183	0x3d493086	0.04911854
184	0xbddfb3c4	-0.109229594
185	0xbdf117cd	-0.11772118
186	0xbcee22d5	-0.029069344
187	0xbd4bebe0	-0.049785495
188	0xbc56d366	-0.013111925
189	0x3c9f1488	0.01941897
190	0x3d305ccf	0.04305726
191	0x3da80796	0.08204572
192	0xbcf024cc	-0.029314421
193	0x39004218	0.00012231653
194	0xbda863c8	-0.08222157
195	0xbd0f8ce6	-0.03504648
196	0xbcf049c0	-0.029332042
197	0xbdace8f8	-0.08442873
198	0xbb609f80	-0.0034274757
199	0xbc8a7b08	-0.016904369
200	0xbd529133	-0.051408004
201	0xbe150620	-0.14553118
202	0x3c97c56b	0.018526753
203	0x3c0eeec6	0.00872392
204	0xbd9a0ac7	-0.07521587
205	0x3bd845a6	0.0066000996
206	0x3d32a2f1	0.043612424
207	0xbcdc3988	-0.026882902
208	0x3ceb6e6d	0.028739179
209	0xbdf47fc3	-0.11938431
210	0xbcb444dc	-0.022005491
211	0x3cecd6ed	0.028911078
212	0x3cc3a32e	0.023881521
213	0xbdcd3480	-0.10019779
214	0xbcc5242c	-0.0240651
215	0xbda7b765	-0.081892766
216	0xbd997d60	-0.074946165
217	0x3ce27d28	0.02764757
218	0xbc03333e	-0.008007823
219	0xbc916fc2	-0.017753486
220	0xbc4a462c	-0.012345832
221	0xbc59cbe7	-0.013293243
222	0xbe24b353	-0.16084032
223	0x3ceb104c	0.028694294
224	0xb9af6fa4	-0.0003346178
225	0xbd669812	-0.05629737
226	0xbd86df13	-0.06585517
227	0x3d68c2d2	0.05682642
228	0xbd6fa631	-0.0585081
229	0xbd230e5d	-0.03980862
230	0xbd998576	-0.07496159
231	0xbd67a68d	-0.05655532
232	0xbd15dffa	-0.036590554
233	0xbd8651dd	-0.06558583
234	0xbccb0af7	-0.024785502
235	0xbd064716	-0.032782637
236	0x3c74e7ca	0.014947841
237	0xbc1087f9	-0.008821481
238	0x3beb1d61	0.007175133
239	0xbdaac959	-0.08339185
240	0xbd252bfa	-0.040325142
241	0x3d18a65c	0.037268028
242	0xbb149983	-0.0022674508
243	0xbdd53210	-0.10409939
244	0xbd2817d7	-0.04103836
245	0xbc1b9864	-0.009496782
246	0x3aabf121	0.0013118127
247	0xbd1164ac	-0.0354964
248	0xbc88c555	-0.016695658
249	0x3c54b761	0.012983174
250	0x3be4052a	0.0069586234
251	0xbd87593e	-0.066088185
252	0xbc80450a	-0.01565792
253	0xbc1a30b6	-0.009411028
254	0x3c1c8f12	0.009555595
255	0xbb1b04e2	-0.0023654033

model._model.a2c_network.actor_mlp.2.weight f4 [256, 512]
0	0xbcbf9c02	-0.02338982
1	0xbd58fde3	-0.0529765
2	0xbd115072	-0.03547711
3	0xbd82c095	-0.06384388
4	0x3cd13da9	0.025542097
5	0xbcfa4239	-0.030549156
6	0xbcc5e089	-0.024154918
7	0xbc18ae3f	-0.009318887
8	0x3d62bd9e	0.055356614
9	0x3c503d99	0.0127099985
10	0xbb1e5eb9	-0.0024165346
11	0x3ceb62f1	0.028733702
12	0x3ac70342	0.0015183466
13	0x3d2b1ed7	0.041777458
14	0x3d62b065	0.055344004
15	0xbd51275f	-0.051062938
16	0xbd050808	-0.032478362
17	0x3c6de957	0.014520965
18	0x3bdf4b65	0.0068144077
19	0xbdbaacae	-0.09114967
20	0xbc9c8d83	-0.019110447
21	0xbd3549b8	-0.044259757
22	0x3b64b649	0.003489869
23	0x3c8a8859	0.016910719
24	0xba87bcf4	-0.0010355995
25	0x3db6dcb0	0.089288116
26	0x3be8b603	0.0071017756
27	0xbd4defd4	-0.050277546
28	0xbd6c5898	-0.057701677
29	0x3d99326b	0.074803196
30	0xbdb7ca65	-0.089741506
31	0xbcf92c74	-0.030416705
32	0xbd11bc36	-0.035579883
33	0x3c601b57	0.013678393
34	0xbc039fb3	-0.008033681
35	0xbc9b3286	-0.01894499
36	0x3d97a7f3	0.07405081
37	0x3d270ba7	0.040782597
38	0x3cf40943	0.029789573
39	0xbd56d9c5	-0.052453775
40	0xbd84f094	-0.06491199
41	0x3ca8ab57	0.020589514
42	0xbd44d4e9	-0.04805461
43	0x3d78455b	0.060613018
44	0xbd1b2af2	-0.037882753
45	0x3d61ea00	0.0551548
46	0xbcf7b284	-0.03023649
47	0xbbbc7a81	-0.0057519083
48	0xbe080703	-0.13283925
49	0x3ab73147	0.0013976478
50	0xbd3a98ab	-0.04555575
51	0x3cbb0198	0.022827908
52	0x3d7a7590	0.061147273
53	0x3c002056	0.0078202095
54	0xbc1adb42	-0.009451689
55	0xbde38aee	-0.11110483
56	0x3c7e6739	0.01552754
57	0x3b897f31	0.0041960706
58	0xbcfe67eb	-0.031055411
59	0xbc7b8d96	-0.015353581
60	0x3d322669	0.043493662
61	0x3ca666a4	0.020312615
62	0x3a1471b8	0.00056626974
63	0x3b877b87	0.0041345987
64	0x3d91c2d4	0.07117239
65	0xbad0791e	-0.0015905236
66	0x3d19c01d	0.03753673
67	0xbd1b2f69	-0.03788701
68	0x3b9ddddd	0.004817708
69	0x3da315fd	0.07963178
70	0x3d947f83	0.072508834
71	0xbdcbd86e	-0.0995339
72	0x3c9960f1	0.018722983
73	0x3d57fac6	0.05272939
74	0xbb541509	-0.003236117
75	0xbd0f466e	-0.034979276
76	0xbc48c886	-0.01225484
77	0x3db0e7b2	0.086379424
78	0xbca1b49b	-0.01973944
79	0x3c63260a	0.01386405
80	0xbdc537e2	-0.096297994
81	0x3b16c7a1	0.0023007172
82	0xbd3be4aa	-0.045872368
83	0x3d048f14	0.032363012
84	0xbd4651bc	-0.04841779
85	0xbda532ca	-0.08066328
86	0xbd990188	-0.07470995
87	0xbd972bd4	-0.073814064
88	0xbb8d5aed	-0.0043138177
89	0xbcd697c4	-0.026195414
90	0x3c1f3428	0.009717025
91	0xbcc79f36	-0.02436791
92	0xbca91f35	-0.020644763
93	0xbde6f1b1	-0.11276568
94	0xbcfd7ba7	-0.030942751
95	0xbba81bce	-0.0051302677
96	0x3cc055ca	0.023478407
97	0x3d5919f1	0.053003255
98	0x3c801f70	0.01563999
99	0xbd23c17d	-0.039979447
100	0x3cbde8b1	0.023182245
101	0xbd27862d	-0.040899444
102	0xbd8979c6	-0.067126796
103	0xbd4a22af	-0.049349483
104	0xbc97cce4	-0.018530317
105	0xbdb2287f	-0.0869913
106	0x3d0ce487	0.03439763
107	0x3cd061ce	0.025437262
108	0x3bfd1ffa	0.007724759
109	0xbdaef48f	-0.085427396
110	0x3d0fe272	0.035128064
111	0x3d3bee3d	0.0458815
112	0x3d3c3373	0.045947503
113	0xbcdd5970	-0.027020186
114	0xbb7f888a	-0.0038991296
115	0x3d505b17	0.05086812
116	0xbd07e799	-0.033179853
117	0x3cf389f8	0.029728875
118	0xbd118440	-0.035526514
119	0xbd8f58fe	-0.06999396
120	0xbce8a646	-0.028399598
121	0x3d0af189	0.033921752
122	0xbc9a7ac6	-0.018857371
123	0xbcbf66a8	-0.02336438
124	0xbd26d15f	-0.040727016
125	0x3d1c99f7	0.03823277
126	0x3c23b0ea	0.00999091
127	0xbd7e3037	-0.0620577
128	0xbcdb0f35	-0.02674065
129	0xbca76382	-0.020433191
130	0xbd252f47	-0.04032829
131	0x3c815a60	0.015790164
132	0x3d5f71f2	0.054552026
133	0xbd67da57	-0.05660471
134	0xbd798e0f	-0.060926493
135	0x3b6ffc23	0.003661879
136	0xbd0c1ca2	-0.034206994
137	0xbda99436	-0.08280222
138	0x3a158bae	0.0005704713
139	0xbd3aba6d	-0.045587946
140	0x3bad2ceb	0.0052848957
141	0xbd58cf12	-0.052931853
142	0xbd126076	-0.035736524
143	0xbd1334d9	-0.03593907
144	0xbc735d9b	-0.01485386
145	0x3cbad265	0.022805402
146	0x3ceeef9a	0.029166985
147	0xbcdcc292	-0.026948247
148	0xbd0fe49b	-0.035130125
149	0xbdf59d17	-0.11992853
150	0xb7b30cfc	-2.134451e-05
151	0x3d9a1456	0.0752341
152	0x3d6985c4	0.057012334
153	0xbd1e7822	-0.038688786
154	0xbd621b9e	-0.05520212
155	0xbc501615	-0.012700577
156	0xbd30a24b	-0.043123525
157	0x3cbbb360	0.022912681
158	0x3c9a1c83	0.018812424
159	0xbd783bcc	-0.0606039
160	0x3d546a90	0.05185944
161	0xbc9225f3	-0.017840361
162	0xbb9b2b12	-0.004735359
163	0xbc99b413	-0.018762624
164	0x3d67785a	0.05651126
165	0x3d362acb	0.044474404
166	0x3cdc925c	0.026925258
167	0x3d1a366a	0.03764955
168	0xbb1f5fa3	-0.0024318479
169	0x3d02745c	0.03184925
170	0xbc317992	-0.010832207
171	0xbbd6b2d5	-0.00655208
172	0xbc4d9fce	-0.012550307
173	0x3ca0bb7a	0.019620646
174	0xbd9b6310	-0.07587254
175	0xbcd4228e	-0.025895383
176	0xbd0fee9a	-0.035139658
177	0x3c955279	0.018227803
178	0xbe06f9a0	-0.13181162
179	0xbd2c2629	-0.04202858
180	0xbc66c6ba	-0.014085466
181	0x3d121787	0.03566697
182	0x3cffb39f	0.03121358
183	0x3ce0930b	0.027413866
184	0x3bd25481	0.006418765
185	0x3d25886c	0.040413305
186	0xbc994a72	-0.018712256
187	0xbc9a8749	-0.018863337
188	0x3d4811e8	0.0488452
189	0xbd545409	-0.051837955
190	0x3d797a94	0.060907915
191	0x3b59faa2	0.003326096
192	0x3d249d11	0.040188853
193	0xb6f52be9	-7.306681e-06
194	0x3cdfeb30	0.027333826
195	0x3db9269c	0.09040567
196	0xbb1451f0	-0.0022631846
197	0xbd1b907a	-0.03797958
198	0x3d8bd75f	0.06828188
199	0x3c50ddf9	0.012748235
200	0x3b76fccb	0.0037687297
201	0xbcd62589	-0.026140945
202	0xbcc16252	-0.023606453
203	0x3d042875	0.032265145
204	0xbcaf6b80	-0.021413565
205	0xbc299db5	-0.010352542
206	0xbab65947	-0.0013912105
207	0x3c66a1b0	0.014076635
208	0x3d97e3cd	0.074164964
209	0xbc4d66b7	-0.012536696
210	0x3b67a842	0.0035348092
211	0x3c738e4c	0.014865469
212	0xbd3399bf	-0.043847796
213	0xbd66276a	-0.056189932
214	0x3cf66449	0.030077117
215	0xbd81920d	-0.06326685
216	0x3d14e450	0.03635055
217	0xbd79c8e1	-0.06098259
218	0xbce2f981	-0.027706863
219	0x3c96f952	0.018429432
220	0xbda8b4c2	-0.08237602
221	0xbcdb2696	-0.026751798
222	0x3d3e21b9	0.04641888
223	0xbd17ecb1	-0.03709096
224	0x3d40b365	0.047046084
225	0x3da2b304	0.07944301
226	0x3c981425	0.018564293
227	0xbd35428c	-0.044252917
228	0x3ba76c0d	0.005109316
229	0xbccd31fd	-0.02504825
230	0xbdd50de2	-0.104030386
231	0xbc059938	-0.008154206
232	0x3cc39e5e	0.023879226
233	0x3d53c40a	0.05170063
234	0xb8a3c9bd	-7.810022e-05
235	0xbd324923	-0.04352678
236	0x3d3796b9	0.044821475
237	0xbc39f360	-0.011349529
238	0xbd5d5a8d	-0.054041434
239	0xbdb4cf98	-0.08828658
240	0xbd314d45	-0.04328658
241	0xbbf1fd27	-0.0073849144
242	0xbd0513cd	-0.032489587
243	0xbcef5385	-0.02921463
244	0xbd8ee828	-0.06977874
245	0xbd809d30	-0.06279981
246	0x3bba303c	0.0056820195
247	0xbd21cd88	-0.03950265
248	0xbdb0265f	-0.08601069
249	0xbbb1d828	-0.005427379
250	0x3d264458	0.04059252
251	0xbd856fd1	-0.06515468
252	0xbaa63791	-0.0012681355
253	0x3c0a141b	0.008427645
254	0xbd803ca7	-0.062615685
255	0x3d53debd	0.05172609

model._model.a2c_network.actor_mlp.4.bias f4 [128]
0	0xba9ce863	-0.0011971112
1	0xbc86ccd7	-0.016455097
2	0x3b3da474	0.0028937133
3	0xbc92526e	-0.017861571
4	0xbd1d0782	-0.038337238
5	0xbcb8c64d	-0.022555495
6	0xbcfb285a	-0.03065889
7	0xbc9f8a1a	-0.019475032
8	0xbd57a80a	-0.05265049
9	0xbd3b8824	-0.04578413
10	0x3c464184	0.012100581
11	0xbd5ead0d	-0.054364253
12	0xbd8b28de	-0.06794904
13	0xbc477793	-0.012174505
14	0xbccc5d12	-0.024946723
15	0xbd29de40	-0.04147172
16	0x3ae69f2f	0.0017595048
17	0xbbe2b900	-0.0069190264
18	0x3c23ae7d	0.009990332
19	0xbb59df45	-0.0033244651
20	0xbcb12f1f	-0.021628914
21	0xbcfb3e39	-0.030669319
22	0xbca9b33d	-0.02071535
23	0x3a903ab1	0.001100382
24	0xbd023fed	-0.031799246
25	0x3c067412	0.008206384
26	0xbd210977	-0.039315667
27	0xbcc053e3	-0.0234775
28	0xbcd0482a	-0.025425036
29	0xbd71faa5	-0.059076924
30	0xbd6e81ba	-0.058229186
31	0x3b4d4a52	0.0031324816
32	0x3cafd174	0.02146218
33	0xbd458ff9	-0.048233006
34	0xbcf9e047	-0.030502452
35	0xbd9793fc	-0.07401273
36	0xb91ffaff	-0.00015256925
37	0xba516992	-0.00079884485
38	0x3a81b59f	0.0009896046
39	0xbc3d8e8e	-0.011569632
40	0x3c34986b	0.011022667
41	0xbcdddc23	-0.027082508
42	0x3c0b035f	0.00848469
43	0x3c46722a	0.01211218
44	0xbc6ba0ed	-0.014381629
45	0xbc9ba190	-0.018997937
46	0xbd379984	-0.04482414
47	0xbcb4adb0	-0.022055477
48	0x3ccd7745	0.025081286
49	0xbc84e79e	-0.016223725
50	0xbcb48fda	-0.02204125
51	0xbc833f8f	-0.016021518
52	0x3c91eca7	0.01781304
53	0x3b68b613	0.0035508915
54	0xbd075e1a	-0.033048727
55	0x3c06489c	0.008196022
56	0xbc788f38	-0.015170865
57	0xbcf4125e	-0.029793914
58	0x3baf4f7c	0.0053500514
59	0xbccead6e	-0.025229182
60	0x3cdd7482	0.027033094
61	0x3bf00346	0.007324609
62	0xbc6d87c1	-0.014497698
63	0x3bb446cf	0.005501605
64	0xbba4f266	-0.005033779
65	0xbc92c6b6	-0.017917018
66	0xbc96500b	-0.018348714
67	0xbc05c68c	-0.008165013
68	0xbd07644d	-0.03305464
69	0xbcf2423a	-0.029572595
70	0xbc73ea3c	-0.014887389
71	0xbd085153	-0.03328068
72	0xbd2fa661	-0.04288328
73	0xbcbde17a	-0.023178805
74	0xbcfd43c9	-0.030916112
75	0xbd306b86	-0.043071292
76	0xbc23b12c	-0.009990972
77	0xbc7d5eb6	-0.015464475
78	0x3ad16a2f	0.001597708
79	0xbcf340b7	-0.029693944
80	0xbc8bf743	-0.017085677
81	0xbc167c81	-0.0091849575
82	0xbca72dd0	-0.020407587
83	0xbc68bf1c	-0.01420572
84	0x3c053ba8	0.008131899
85	0x3cf11d22	0.029432837
86	0xbc915ba6	-0.017743897
87	0xbc1a8831	-0.009431885
88	0xbcbb0556	-0.022829693
89	0xbcd40078	-0.02587913
90	0xbd3f4f2c	-0.046706364
91	0xbc38aed3	-0.01127215
92	0xbc31b375	-0.010846009
93	0xbcc23ef0	-0.023711652
94	0xbd8edbaf	-0.06975495
95	0xbd088c4c	-0.033336923
96	0xbd1463f8	-0.03622815
97	0xbc65062c	-0.013978522
98	0xbcdc5bc2	-0.026899222
99	0xbd6f40d9	-0.058411453
100	0xbd423333	-0.04741211
101	0xbc09310d	-0.008373511
102	0xbd14e2a5	-0.036348958
103	0x389f809a	7.605665e-05
104	0xbd0b60dd	-0.034027923
105	0xbd090eaf	-0.03346127
106	0xbc0f74b5	-0.0087558525
107	0xba97aa3f	-0.0011571123
108	0xbb97261c	-0.0046126973
109	0xbd92cf3e	-0.071684346
110	0xbc54253f	-0.012948333
111	0xbd033887	-0.03203633
112	0xbc5c4b8f	-0.013445749
113	0xbcc082a5	-0.023499796
114	0xbda176e2	-0.07884003
115	0xbb43270c	-0.0029777912
116	0xbd14f1dd	-0.03636347
117	0xbc81cf0c	-0.015845798
118	0xbb5c30c1	-0.0033598396
119	0xbcc14f48	-0.023597375
120	0xbab3c4ce	-0.0013715269
121	0xbba4e366	-0.005031991
122	0xbaed1763	-0.0018088635
123	0xbd5dff75	-0.0541987
124	0xb9c90a0b	-0.0003834519
125	0xbcf110b6	-0.029426914
126	0xbd41455a	-0.04718528
127	0x3cea470f	0.028598337

model._model.a2c_network.actor_mlp.4.weight f4 [128, 256]
0	0xbd849425	-0.06473569
1	0xbce0496d	-0.027378762
2	0x3d88886b	0.06666645
3	0xbc6dbf64	-0.014510963
4	0xbd13f356	-0.036120735
5	0x3d962163	0.07330587
6	0xbcecabdc	-0.028890543
7	0x3d4ab7b4	0.0494916
8	0xbca078de	-0.019588884
9	0xbd897501	-0.0671177
10	0xbd0be30e	-0.034152083
11	0xbd000d58	-0.031262726
12	0xbca63279	-0.02028774
13	0xbda07ea3	-0.07836654
14	0xbd24d18e	-0.04023891
15	0xbcec968d	-0.028880382
16	0xbb9d59da	-0.004801971
17	0x3ce06c41	0.02739537
18	0x3cb43286	0.021996748
19	0x3c3cbac5	0.011519139
20	0xbd1fe104	-0.03903295
21	0xbd1f4bf3	-0.03889079
22	0x3d46a8fe	0.048501007
23	0xbdc3bbd9	-0.095573135
24	0x3d4d406f	0.050110277
25	0x3cb062b5	0.021531442
26	0x3cdd019e	0.02697831
27	0x3d1e211f	0.038605805
28	0xbd2a2431	-0.04153842
29	0x3c2f4f0f	0.010700001
30	0xbca611ea	-0.020272214
31	0x3d04f996	0.032464586
32	0xbd511c37	-0.0510523
33	0xbc4d440f	-0.012528433
34	0x3c482f03	0.01221824
35	0xbd5bef2d	-0.053694893
36	0xbc7d6d73	-0.015467989
37	0xbd391747	-0.045188215
38	0x3d86d321	0.065832384
39	0xbbccc246	-0.006248745
40	0xbd1fbb94	-0.038997248
41	0x3cb6c7fa	0.022312153
42	0x3ced2656	0.028948944
43	0x3d4f8aca	0.05066947
44	0xbd170efc	-0.036879525
45	0xbd04aebb	-0.0323932
46	0xbd851abb	-0.06499239
47	0x3d820e23	0.063503526
48	0xbbacd338	-0.0052742027
49	0xbd307467	-0.04307976
50	0x3d88b670	0.06675422
51	0xbcbe1132	-0.023201559
52	0xbd91b717	-0.07115
53	0xbd0f6a7e	-0.03501367
54	0x3d4294be	0.047505133
55	0x3d58cfeb	0.05293266
56	0x3d125190	0.035722315
57	0xbb14008b	-0.0022583331
58	0xbd8aa6ce	-0.06770097
59	0xbcbd1283	-0.023080116
60	0xbd500cdd	-0.050793517
61	0x3d04f995	0.032464582
62	0xbd2af4d1	-0.04173738
63	0x3d4adb87	0.049525764
64	0xbd426471	-0.04745907
65	0xbcfa7102	-0.030571464
66	0xbd88d8c2	-0.06681968
67	0xbd8af04e	-0.06784116
68	0x3d3ed67f	0.04659128
69	0xbd225091	-0.039627615
70	0x3c889d9e	0.01667672
71	0xbda51010	-0.08059704
72	0x3d2b8c2a	0.041881718
73	0x3d8d3ba6	0.06896143
74	0x3d18abec	0.037273332
75	0x3b4ad976	0.003095237
76	0x3d053138	0.03251764
77	0xbcc154a1	-0.023599925
78	0xbd52d839	-0.051475737
79	0xbd7379ce	-0.059442334
80	0x3d35a22c	0.044344112
81	0xbc90981f	-0.017650662
82	0x3d67ec28	0.0566217
83	0xbb1d670e	-0.0024017724
84	0x3c6201b0	0.013794348
85	0x3c231a96	0.009955069
86	0x3d2dc008	0.042419463
87	0xbd6e6f2b	-0.058211487
88	0x3c322cf6	0.010874977
89	0x3ce73d24	0.028227396
90	0xbd0fcafa	-0.035105683
91	0xbd1718f3	-0.036889028
92	0xbd1dd6c8	-0.03853491
93	0x3d5a22c4	0.05325581
94	0xbd0633ba	-0.032764174
95	0x3d28adc4	0.04118134
96	0xb888a336	-6.515386e-05
97	0xbd89057c	-0.06690499
98	0xbd28c0cf	-0.0411995
99	0xbd63ae72	-0.055586286
100	0xbd1eb2fc	-0.03874491
101	0x3c6e3f71	0.014541493
102	0xbd9237de	-0.07139562
103	0xbd4f880d	-0.050666858
104	0xbca972d7	-0.020684643
105	0x3d6ac188	0.057313472
106	0xbcef2fba	-0.029197562
107	0xbcf40b45	-0.02979053
108	0x3c8fef7d	0.017570252
109	0xbd450aa0	-0.048105836
110	0xbb44cbc9	-0.0030028692
111	0xbdadfcf8	-0.084955156
112	0xbd114fbf	-0.035476442
113	0xbd295cde	-0.04134833
114	0xbc32af3f	-0.01090604
115	0xbcff3578	-0.031153426
116	0xbc316aef	-0.010828718
117	0x3c5ff2e2	0.013668748
118	0xbcfa040b	-0.030519506
119	0x3ced4cbb	0.028967252
120	0xbd3641e8	-0.044496447
121	0x3ccf702a	0.025322039
122	0xbc877c80	-0.016538858
123	0x3c5124b8	0.012765102
124	0xbcc76c38	-0.024343595
125	0x3d75368a	0.059866466
126	0xbcecff3b	-0.028930297
127	0x3d29aa06	0.041421913
128	0xbcd50d26	-0.026007246
129	0xbd07897e	-0.033090107
130	0x3c7cfc08	0.015440948
131	0xbc8ba327	-0.01704557
132	0xbd02ba18	-0.031915754
133	0x3a962f6a	0.0011458222
134	0x3bdf30f4	0.0068112556
135	0x3c9b381a	0.01894765
136	0x3d80f75f	0.06297182
137	0x3d756caf	0.059918102
138	0x3c20a2df	0.0098044565
139	0x3c865419	0.016397523
140	0xbbbfac9d	-0.0058494345
141	0x3d259a5f	0.040430423
142	0x3d274b5f	0.040843364
143	0xbd63f948	-0.055657655
144	0x3d4483b7	0.047977176
145	0xbcc8e617	-0.024523778
146	0x3cf205f8	0.029543862
147	0xbcf45add	-0.029828483
148	0x3d0ed06e	0.034866743
149	0x3d796af0	0.060893
150	0xbd6787ab	-0.056525867
151	0x3c62bfa1	0.013839633
152	0xb9c49ce7	-0.00037500935
153	0xbaef4d80	-0.001825735
154	0x3d108b29	0.035288963
155	0xbd5d15f5	-0.053976018
156	0x3d9215a1	0.07133032
157	0xbcecebb5	-0.028920988
158	0xbdf47a55	-0.119373955
159	0x3d1f2b38	0.038859576
160	0x3da336c0	0.07969427
161	0x3cd6fa77	0.026242478
162	0x3d08e77b	0.033423882
163	0xbd41f9a8	-0.04735723
164	0xbd1538c3	-0.036431085
165	0x3d961b9c	0.07329485
166	0xbc40ab48	-0.011759587
167	0x3ccc0a10	0.024907142
168	0x3d2159d1	0.039392296
169	0xbd0c5874	-0.034264043
170	0xbc655f7e	-0.013999818
171	0xbd22970a	-0.039694823
172	0xbcd3dbf7	-0.025861723
173	0xbd2f1564	-0.04274501
174	0x3cf5b6f8	0.029994473
175	0xbd427f18	-0.047484487
176	0x3d93608b	0.071961485
177	0x3cd9bbef	0.026578872
178	0xbcb31a8c	-0.021863244
179	0x3ccf4bbc	0.025304668
180	0x3d8f99a9	0.0701173
181	0xbc9ad8a7	-0.018902136
182	0xbd16a8cb	-0.036782067
183	0xbc30fee8	-0.010802962
184	0x3d87ae6e	0.06625067
185	0xbd5abc53	-0.053402256
186	0x3dad1557	0.08451336
187	0x3d2194f0	0.03944868
188	0xbaf61d7b	-0.0018777096
189	0xbd3c9759	-0.046042774
190	0xbc65c8b6	-0.014024904
191	0x3bc1ff1a	0.005920303
192	0xbcd512fe	-0.026010033
193	0xbd60239c	-0.05472146
194	0xbc8d922d	-0.017281616
195	0xbd9349c3	-0.07191803
196	0xbc1bf6a5	-0.009519254
197	0xbcc09bb6	-0.023511749
198	0xbd223d17	-0.03960904
199	0xbd693af4	-0.056940988
200	0x3c8a5051	0.016884001
201	0x3d347f35	0.044066627
202	0xbc9a9acb	-0.01887264
203	0x3d91d023	0.07119777
204	0xbd7542ed	-0.05987828
205	0x3c8f530f	0.01749566
206	0x3c7a7dd4	0.015288789
207	0xbd9c9e33	-0.076473616
208	0xbd4be510	-0.049778998
209	0x3ca1e7e2	0.01976389
210	0x3c185ffa	0.009300226
211	0xbcf7af8b	-0.030235073
212	0xbd1e22d7	-0.038607445
213	0xbd814489	-0.063119
214	0xbb704bea	-0.0036666342
215	0x3d5dc852	0.05414612
216	0xbd563e5c	-0.052305564
217	0x3d8f13bc	0.06986186
218	0xbc43c6a1	-0.011949212
219	0x3d4c2e15	0.049848635
220	0x3cc0b47a	0.023523558
221	0x3dc74b02	0.097311035
222	0x3d9ebece	0.07751237
223	0xbd18c53d	-0.037297476
224	0xbc7af77d	-0.015317795
225	0xbcc87f84	-0.024474867
226	0xbca041a4	-0.01956255
227	0xbd419cce	-0.04726868
228	0x3d5dd2af	0.054156
229	0x3c0c6ee0	0.008571357
230	0xbd8d45f1	-0.06898106
231	0x3d259eb6	0.04043456
232	0xbd3abdab	-0.045591038
233	0x3d7febb6	0.06248065
234	0x3c99779f	0.018733798
235	0x3c95a8fb	0.018269053
236	0x3b1b8d28	0.0023735259
237	0x3cb1cc63	0.021703904
238	0xbd50bcbc	-0.05096124
239	0x3c63cd46	0.0139039215
240	0xbd61a779	-0.055091355
241	0xbc7c8aff	-0.015413999
242	0x3c13b23b	0.009014661
243	0xbc3d8760	-0.01156792
244	0x3d3fb335	0.046801765
245	0x3b3327fd	0.0027337067
246	0x3d086f8f	0.033309516
247	0xbc94179d	-0.018077666
248	0xbceb370e	-0.028712776
249	0x3cfbeb3d	0.030751819
250	0xbcfb96ff	-0.030711649
251	0xbaa4943e	-0.0012556387
252	0xbcb3d858	-0.021953747
253	0xbd8aa4fb	-0.06769749
254	0x3bc9c1e6	0.0061571477
255	0x3b92f552	0.004484811

model._model.a2c_network.value.weight f4 [1, 128]
0	0x3da51414	0.0806047
1	0x3ccaa8ba	0.024738658
2	0x3cc7a720	0.024371684
3	0x3c3530bd	0.011058983
4	0xbd8ce386	-0.06879334
5	0xbbe89d40	-0.007098824
6	0x3ca8f12d	0.020622814
7	0xbc94a151	-0.018143328
8	0xbd7b46a9	-0.061346684
9	0xbca2a997	-0.019856257
10	0x3c50e0ae	0.01274888
11	0xbd929bcc	-0.07158622
12	0xbbba24c8	-0.005680654
13	0x3d365a2d	0.044519592
14	0x3c87ddb5	0.01658521
15	0xbd4ed12b	-0.050492447
16	0xba20e40c	-0.0006137497
17	0x3dac753b	0.084207974
18	0x3d4ae39c	0.04953347
19	0x3dd13002	0.10214235
20	0x3c0e4cf4	0.008685339
21	0x3d37b214	0.044847563
22	0xbcb6ad1f	-0.022299347
23	0x3d983d17	0.07433527
24	0xbd321e74	-0.043486074
25	0x3c5a5413	0.013325709
26	0x3cbf15ae	0.023325767
27	0xbc91d5be	-0.017802116
28	0x3cc99c38	0.024610624
29	0xbd438262	-0.047731765
30	0x3c2f3478	0.010693662
31	0x3dc99478	0.09842771
32	0x3e0b07f5	0.13577254
33	0xbd0eae1b	-0.03483401
34	0xbd369cef	-0.044583257
35	0x3c8b45f7	0.017001135
36	0x3c811a02	0.015759472
37	0xb7f4c433	-2.9178429e-05
38	0x3c1e298c	0.00965346
39	0x3cdf00c0	0.027222037
40	0x3dbf13b6	0.093299314
41	0xbc6f2f9a	-0.014598751
42	0x3de192be	0.11014317
43	0x3e207d27	0.15672742
44	0x3c23e178	0.010002486
45	0xbcd835a6	-0.026392769
46	0xbba84257	-0.0051348615
47	0xbcfa6553	-0.030565893
48	0x3e17e40d	0.14833088
49	0xbb906015	-0.004405985
50	0xbaac5794	-0.0013148659
51	0xbba17a48	-0.004927907
52	0x3c1b6893	0.009485382
53	0x3d8e5f40	0.06951761
54	0x3c2b3910	0.0104506165
55	0x3c878c25	0.016546318
56	0xbb1c90dc	-0.0023890054
57	0xbc746a82	-0.014917972
58	0xbc7c5675	-0.015401472
59	0x3af21427	0.0018469141
60	0x3dd851bb	0.10562464
61	0xbb89d6ea	-0.004206528
62	0x3c511626	0.012761628
63	0x3d908514	0.07056633
64	0x3cb79e66	0.022414397
65	0xbd18351a	-0.037160017
66	0x39959f3d	0.00028538136
67	0x3ccd4ce9	0.025061088
68	0x3ced5b37	0.028974159
69	0xbcb718a0	-0.02235061
70	0xbd3b8979	-0.0457854
71	0xba21ebbc	-0.000617679
72	0x3b9a025a	0.0046999874
73	0xbbc07f2f	-0.0058745365
74	0xbd947647	-0.07249122
75	0x3b5aec2c	0.003340493
76	0xbc51a171	-0.012794838
77	0xbc586cb8	-0.013209514
78	0xbbcfc0c5	-0.0063401186
79	0xbc11e580	-0.008904815
80	0x3cb7040f	0.022340802
81	0xbc102507	-0.0087978905
82	0xbce0541d	-0.027383858
83	0xbd201195	-0.039079268
84	0x3d2ab39a	0.041675188
85	0x3ddaca5c	0.10683128
86	0xbd0cdb8f	-0.034389075
87	0x3ca4eb44	0.020131715
88	0x3ca0afa0	0.019614995
89	0x3bc82a19	0.006108534
90	0x3ccb5afe	0.024823662
91	0x3cb4ab27	0.022054268
92	0xb96fb2a4	-0.00022859365
93	0xbc82d39b	-0.015970042
94	0xbc73d603	-0.014882567
95	0x3bdce523	0.0067411824
96	0x3ba9e5e6	0.0051848767
97	0x3c82b2d8	0.01595442
98	0xbcc9ba32	-0.024624918
99	0xbc3e19d8	-0.011602841
100	0xbcb13fe8	-0.021636918
101	0x3cf5bbda	0.029996801
102	0xbd845d46	-0.06463103
103	0x3bd9f189	0.0066511077
104	0x3bb031f7	0.00537705
105	0x3b06014a	0.0020447546
106	0xbd54fb9e	-0.051997773
107	0x3b8728c8	0.0041247346
108	0x3c9a9934	0.018871881
109	0xbcd6d246	-0.026223313
110	0x398a7967	0.00026411863
111	0xbb68dc9e	-0.0035531889
112	0x3be9e005	0.007137301
113	0xbc86ddf4	-0.016463257
114	0xbd0f7c14	-0.03503044
115	0xbd04920d	-0.032365847
116	0x3c92f179	0.017937409
117	0x3b74415d	0.0037270405
118	0x3ca37f05	0.019958029
119	0x3c892854	0.016742863
120	0x3d460e1b	0.048353296
121	0x3b061908	0.0020461697
122	0x3b9bbd5c	0.004752798
123	0xbbcf88ac	-0.006333431
124	0x3c0d9c8b	0.00864328
125	0x3c03fde9	0.008056142
126	0xbcbf7198	-0.023369595
127	0x3c2c4a5e	0.010515777

model._model.a2c_network.mu.bias f4 [9]
0	0xbce3e3ac	-0.027818523
1	0x3be85be0	0.0070910305
2	0xbc240806	-0.010011679
3	0xbd05e35b	-0.032687526
4	0xbbf53f1b	-0.0074843294
5	0x3cdcec6c	0.026968203
6	0xbb2fd411	-0.0026829282
7	0x3c0f2e43	0.008739057
8	0x3d185265	0.037187953

model._model.a2c_network.mu.weight f4 [9, 128]
0	0xbd6993cc	-0.057025716
1	0x3da6367f	0.08115863
2	0xbbdcc086	-0.006736818
3	0xbd6b0a17	-0.05738267
4	0x3b62a469	0.003458286
5	0xbd020cca	-0.031750478
6	0x3cc31969	0.023815827
7	0xbd6959b8	-0.056970328
8	0x3cb0b020	0.021568358
9	0x3d9fa205	0.07794575
10	0xbce8c5b2	-0.028414581
11	0xbdbf4216	-0.09338777
12	0x3ce2cbec	0.027685128
13	0xbd0e7b22	-0.034785397
14	0xbe127bc7	-0.1430503
15	0xbd1f6c06	-0.03892138
16	0x3b88c2b3	0.0041736006
17	0x3addc670	0.0016920101
18	0x3dd81b70	0.10552108
19	0xbd9e55a0	-0.077311754
20	0xbcf0ba24	-0.029385634
21	0xbabb15a0	-0.0014273413
22	0x3d2a6691	0.04160172
23	0xbe020433	-0.12696914
24	0xbd150f06	-0.03639128
25	0x3d130244	0.035890833
26	0xbcbd6115	-0.023117581
27	0xbd3fbf30	-0.04681319
28	0x3dd91ba5	0.10600976
29	0xbdb50d0f	-0.08840381
30	0x3cccc101	0.024994375
31	0xbda50af7	-0.08058732
32	0xbcb62b44	-0.022237428
33	0xbe051264	-0.12995297
34	0x3bf376a6	0.0074299155
35	0xbd9a84c6	-0.07544856
36	0x3c7d3e81	0.015456797
37	0xbba8697d	-0.0051395283
38	0x3db0e4a7	0.08637362
39	0x3d9bb115	0.07602135
40	0x3c97ed87	0.018545879
41	0xbdb6df67	-0.08929329
42	0xbd92ed07	-0.07174116
43	0x3d7075da	0.058706142
44	0xbcdbf32a	-0.026849348
45	0xbc63547c	-0.013875123
46	0xbdf16852	-0.11787476
47	0xbbbd0d98	-0.0057694428
48	0xbdacb0f5	-0.084321894
49	0xbda3fb4a	-0.08006914
50	0xbb2b671d	-0.002615399
51	0xbd829bf2	-0.063774005
52	0xbd1f3114	-0.038865164
53	0x3c6bda55	0.014395316
54	0xbdb4cfdc	-0.088287085
55	0xbd851715	-0.06498543
56	0xbe006c9b	-0.1254143
57	0xbe06dc3b	-0.13169949
58	0xbcc03315	-0.023461858
59	0xbd935d5e	-0.07195543
60	0xbcbb3f50	-0.022857338
61	0xbe068077	-0.13134943
62	0x3b8d2b6b	0.0043081543
63	0x3e0d11f7	0.13776384
64	0xbda2756d	-0.079325534
65	0xbd624795	-0.055244047
66	0x3d426063	0.047455203
67	0x3d5a37c7	0.05327585
68	0xbc9c1f22	-0.019057814
69	0xbd281631	-0.04103679
70	0xbd44bcf5	-0.048031766
71	0xbda905d6	-0.08253066
72	0xbd4da32d	-0.050204445
73	0xbd22b360	-0.039721847
74	0xbddca72b	-0.10774072
75	0xbdda6d11	-0.10665334
76	0x3dc7b628	0.097515404
77	0x3d9e0d31	0.0771736
78	0x3d51afc4	0.051193014
79	0x3ddfad1e	0.10921691
80	0x3b52449e	0.0032084356
81	0xbd80cd7e	-0.062891945
82	0x3ce69d0d	0.02815106
83	0x3da83a20	0.082142115
84	0xbdb5c6b2	-0.08875789
85	0xbcdc09ad	-0.026860083
86	0xbc39cac5	-0.011339848
87	0xbd64f49f	-0.05589735
88	0xbdf2133d	-0.11820076
89	0x3cad155e	0.021128353
90	0xbd9f5018	-0.077789485
91	0xbdc059a6	-0.09392099
92	0x3c98e949	0.018665927
93	0x3bcb1bbb	0.006198374
94	0x3d48cb9a	0.049022295
95	0x3bb695ac	0.0055720415
96	0x3d232eb4	0.03983946
97	0xbdcd90dd	-0.10037396
98	0xbdaf32fb	-0.08554646
99	0xbbf02016	-0.0073280437
100	0xbe0eb998	-0.13937986
101	0xbd36a1ec	-0.044588014
102	0xbd28b6ac	-0.041189834
103	0x3d222ec1	0.03959537
104	0xbcd7344a	-0.02627005
105	0xbde4e2a8	-0.11176044
106	0x3d5f0a15	0.054452974
107	0xbdb84985	-0.08998398
108	0x3e1bd8e2	0.15219453
109	0xbd836538	-0.0641579
110	0x3cb13518	0.021631762
111	0x3decdbbc	0.115653485
112	0x3cb7d852	0.022442017
113	0xbdec78fa	-0.11546512
114	0x3c0ac86f	0.008470639
115	0x3e260037	0.1621102
116	0xbca78466	-0.020448875
117	0x3ce6fd0c	0.028196834
118	0x3ca74f2a	0.02042349
119	0xbd6bc60e	-0.057561927
120	0xbd5d87f3	-0.05408473
121	0x3d034470	0.03204769
122	0xbdc8bf19	-0.09802074
123	0xbd1b97d4	-0.03798659
124	0xbd8021ca	-0.06256445
125	0xbdce630c	-0.100774854
126	0xbe140a95	-0.14457162
127	0x3d2ccf24	0.042189732
128	0xbd6dcca2	-0.05805648
129	0xbdf36473	-0.118843935
130	0xbdb85e89	-0.09002406
131	0xbc677bc9	-0.014128634
132	0x3d5b9a30	0.05361384
133	0xbc628928	-0.013826646
134	0xba3e02ac	-0.0007248323
135	0xbbdc7d22	-0.006728784
136	0x3dbfc0d8	0.09362954
137	0x3dfb5753	0.12272515
138	0x3d4824fc	0.048863396
139	0x3d7c1b07	0.061549213
140	0x3ca81087	0.020515693
141	0x3cea30b2	0.028587673
142	0xbd682228	-0.0566732
143	0xbc8351e6	-0.016030263
144	0xbc2747a5	-0.0102099525
145	0x3d41111c	0.047135457
146	0xbd47360e	-0.048635535
147	0x3cf2a1c6	0.029618155
148	0x3c61c71e	0.013780383
149	0x3ddef453	0.10886445
150	0x3d4fe105	0.050751705
151	0x3d88c747	0.06678634
152	0x3d551e49	0.052030835
153	0xbdc1be11	-0.094600804
154	0x3bf7b005	0.007558825
155	0x3d10bf41	0.035338644
156	0x3dd48bcd	0.103782274
157	0x3d0063e1	0.031345252
158	0x3d74e4c9	0.0597885
159	0xbd6a44a4	-0.057194367
160	0x3d556f5c	0.052108154
161	0x3d3019ac	0.042993233
162	0xbcae9a3f	-0.021313785
163	0x3d776925	0.060403008
164	0x3dc99a3b	0.0984387
165	0x3de6ef3c	0.11276099
166	0x3d657148	0.056016237
167	0xbc97aa36	-0.01851378
168	0xbd3bc070	-0.04583782
169	0x3b5d52ad	0.0033771202
170	0xbccbac41	-0.02486241
171	0xbc57957f	-0.013158201
172	0xbcc7edeb	-0.02440544
173	0xbd06a490	-0.032871783
174	0xbb09d66b	-0.0021032344
175	0x3d94a798	0.072585285
176	0x3ca96fe4	0.020683236
177	0x3db5f58a	0.088847235
178	0x3d398607	0.045293834
179	0x3d19b1c0	0.03752303
180	0xbc8b6739	-0.017016994
181	0x3d860576	0.0654401
182	0xbd923b84	-0.07140258
183	0xbd0702ec	-0.03296177
184	0x3c8216d3	0.015880024
185	0x3da30424	0.07959774
186	0x3db4da40	0.088306904
187	0xbd815733	-0.0631546
188	0xbb710018	-0.0036773738
189	0x3ddc03f7	0.10742944
190	0x3c32906f	0.010898693
191	0x3c55106e	0.013004405
192	0xbd3578d2	-0.044304676
193	0xbd8b35d6	-0.06797378
194	0xbd65b96b	-0.05608503
195	0xbdbe7c3e	-0.09301041
196	0x3d16bac8	0.036799222
197	0x3d996851	0.074906
198	0x3bbecfc7	0.005823109
199	0xbcd94dca	-0.02652635
200	0xbbd8e51b	-0.0066191084
201	0x3b813c26	0.003943938
202	0xbd9a6aaa	-0.07539876
203	0xbd5c7f50	-0.053832352
204	0x3c04e23e	0.008110581
205	0x3c920ad5	0.01782743
206	0x3da9d443	0.08292439
207	0xbcfe503d	-0.03104412
208	0x3d8a6496	0.067574665
209	0x3d051b1d	0.03249656
210	0x3b5709d9	0.0032812266
211	0xbd2eb010	-0.042648375
212	0x3d8ab449	0.06772668
213	0xbb462846	-0.0030236407
214	0xbd9aab9e	-0.07552265
215	0x3bcb6052	0.0062065506
216	0x3d11a869	0.035561
217	0x3dba3165	0.090914525
218	0x3ce08b4c	0.027410172
219	0x3d3d9342	0.046283014
220	0x3b178d20	0.0023124889
221	0x3b45ced7	0.00301831
222	0x3da24001	0.07922364
223	0xbd89e359	-0.06732816
224	0x3de5327d	0.111912705
225	0x3c6ebe8f	0.0145718
226	0xbd8e5b3f	-0.069509976
227	0x3b182e7d	0.0023221069
228	0x3c4c96da	0.012487138
229	0x3cf13faf	0.029449312
230	0xbde0cc64	-0.109764844
231	0xbd603224	-0.054735318
232	0xbd88c028	-0.06677276
233	0x3cd0622d	0.025437439
234	0xbd267913	-0.04064281
235	0x3d9440e3	0.07238939
236	0x3dbcd299	0.09219856
237	0xbd2840c3	-0.041077387
238	0x3d0ed9fe	0.034875862
239	0x3d6d0fd7	0.057876434
240	0xba57bd7e	-0.00082298357
241	0xbc342a79	-0.010996454
242	0xbd9a8109	-0.07544143
243	0xbbba77c9	-0.005690549
244	0x3d3088da	0.04309926
245	0xbd1a958b	-0.03774027
246	0xbde0b396	-0.10971753
247	0xbc2e1ab9	-0.010626488
248	0x3d8e4dd2	0.06948437
249	0x3c3e2bda	0.011607135
250	0x3d4b2540	0.04959607
251	0x3cba06e0	0.022708356
252	0x3b8ad040	0.004236251
253	0xbc191cfd	-0.00934529
254	0xbdb2c111	-0.08728231
255	0xbd89339e	-0.06699298

onnx::Sub_38 f4 [29]
0	0x3cf4dfa6	0.0298918
1	0xbc31aaba	-0.010843927
2	0x40450baf	3.078838
3	0xbd03c5a7	-0.032170918
4	0x3d898759	0.06715269
5	0x3b1395af	0.0022519638
6	0xbe2098ff	-0.15683363
7	0x3c12e8c8	0.008966632
8	0x3eb5e9f2	0.3553005
9	0xbb687c0a	-0.0035474324
10	0x3f15749b	0.5838105
11	0xbd89d836	-0.06730692
12	0xba0693c9	-0.0005133716
13	0x3c37fba7	0.011229432
14	0x3958cefa	0.0002067647
15	0x3bf950dd	0.0076085166
16	0x3a7ab23b	0.00095633016
17	0x3baec5c3	0.0053336336
18	0xbc22004d	-0.009887767
19	0x38f85f1e	0.000118432785
20	0xb7cc05e2	-2.4321434e-05
21	0x3d2f49ad	0.042794872
22	0x3c2a8d6b	0.010409693
23	0x3f4165f8	0.75546217
24	0xbbbc9454	-0.005754987
25	0xbc864fed	-0.016395533
26	0x3f32dd05	0.698685
27	0x3effffff	0.49999997
28	0x3effffff	0.49999997

onnx::Div_41 f4 [29]
0	0x3f8eda75	1.1160418
1	0x3f90b9cd	1.1306702
2	0x3fec098a	1.8440411
3	0x3e171d70	0.14757323
4	0x3e8a9042	0.27063185
5	0x3ddf9c98	0.1091854
6	0x3e81f8c8	0.25385118
7	0x3e008895	0.12552102
8	0x3def0c0f	0.11672222
9	0x3e1bc4e1	0.15211822
10	0x3f409863	0.75232524
11	0x3f490925	0.7852958
12	0x3d4ba93d	0.049721945
13	0x3d6dd02d	0.05805986
14	0x3d20e111	0.03927714
15	0x3d6e8a58	0.058237404
16	0x3d32514d	0.043534566
17	0x3d4bb748	0.049735337
18	0x3d70a143	0.05874754
19	0x3c33619c	0.010948565
20	0x3c5093d0	0.012730554
21	0x3faffe73	1.3749527
22	0x3fae410d	1.3613602
23	0x3e8a28d3	0.2698427
24	0x3fddcb3b	1.7327646
25	0x3fde140c	1.7349868
26	0x3e94057b	0.2891043
27	0x3f0000a9	0.5000101
28	0x3f0000a9	0.5000101
