ROS/models/m2best.onnx (onnx, 773933 bytes, 12 tensors)

model._model.a2c_network.sigma f4 [9]
00000000: 57e2 f1bf 26b8 02c0 ffcf e1bf 1e3b d4bf
00000010: e80d d0bf 503d dfbf 37e2 cebf 8fd6 c8bf
00000020: af6f cebf
-1.8897198 -2.0424895 -1.76416 -1.6580541 -1.6254244 -1.7440586 -1.6162785 -1.5690478
-1.6127833

model._model.a2c_network.actor_mlp.0.bias f4 [512]
00000000: e73d a33c 7688 113c 9fd3 00bd fd01 6a3d
00000010: 49cf dfbc 561e 9f3d f33a 713b 666e 183d
00000020: 66ca bd3c ad84 2ebc 57c9 2a3d b0eb 2b3d
00000030: 4eea 04bd c6f3 0f3d bf46 3abd 4b89 43bd
00000040: e51f 823c a166 593d b25c aa3b 2aa0 763d
00000050: 525d cf3d 12fb eebc 380a 743b a1fa 673c
00000060: 8114 d2bc 1520 20bd a2a1 db3c 1150 943d
00000070: f6f7 643d ed76 d73b 2f9c 13bd 1a51 803c
00000080: f796 69bc dc62 5ebc af1d e13c aca2 163d
00000090: 75e7 5f3d 3ee9 8d3c 3b0f bfbd 9162 49bc
000000a0: 3fed 003d 6373 67bc 3835 f63b f417 f6bc
000000b0: 6d5a 25bd 457a 7bbb aa4a 913c 480f 6abd
000000c0: 7de9 7d3c 3031 fabb 1d95 84bc ec44 1bbd
000000d0: a691 a93b 0bf7 5f3d 5cf5 fe3c e761 aebd
000000e0: 8e60 533c a05a 633d b5d7 5c3b 526f 87bd
000000f0: 4fd0 d93d 6b3d b8bc f6f7 7f3c 473e 903c
00000100: ac78 983b 16a3 823d 4d73 8d3c 86cd 283c
00000110: a7b4 eb3c 0abb b7bc e26f 9bbc ab70 dd3c
00000120: 9bc9 54bc 073e fcbb e1bf 52bd c70c b73d
00000130: dcc8 dcbb a53b 623d 466c aa3c 917d 1c3d
00000140: 676f 103d 7269 debd ff5e c6bc 9c3b e63c
00000150: f36a cbbc c1c5 6b3d d174 7fbd c61b 043a
00000160: bf7a 0e3d 4271 cd3a 49d0 1f3d 8ccd 0a3d
00000170: 9ef0 113d 5c7c 02bd afd1 3c3d 38f4 523d
00000180: 4288 2f3d 300e 1dbd 2aa8 843b 0ac4 8d3d
00000190: 0d5a b9bd 6b2d dfbc 3c51 a93d 425b df3c
000001a0: c23a 783d 9d00 95bc 8405 5d3d ae4f a9bc
000001b0: 227d 1b3b b405 753d f62b b9bc a56a 823c
000001c0: 6e65 b5bc 085a a2bb eaee 0ebc 8eab b43c
000001d0: 2460 21bd a669 26bc 79c5 56bc c38b 613d
000001e0: a03e 07bc f609 663d 2739 e43c 188a 043d
000001f0: 086e 0a3d 3be4 7dbd 32e8 333c 925b 263c
00000200: 3d75 2f3a bc1f f3bc 4c57 363d b9bf 373d
00000210: 0c8e 6bbd 7168 473d e02c 353d aca9 a13d
00000220: 7478 ba3c 5fbd 2bbd 30ed cebc ad31 cabd
00000230: 2d80 293d 645f 37bc 51b2 af3c daed 113a
00000240: 20f7 1c3b adca 65bd f9ed 74bc 5e7a 61bc
00000250: e303 05bd 2420 ac3b 0acf 72bc 21e6 5e3d
00000260: c3f4 bfbc ce2e 8c3d 0ae2 ccbc 4f1e c9bd
00000270: ec07 223d cb88 ee3c 0154 4e3d e5d3 94bd
00000280: b7ee 473d 7c81 4e3d 0f4a be3c b703 b23c
00000290: f720 913d 9ed5 6b3d cd7d a9bc 14e2 a83b
000002a0: a198 d13b cd9b 56bd 933d f4bc 55b9 5dbd
000002b0: 63fb 01bd c3d6 ba3c 5e70 1bbd e839 a2bc
000002c0: cef5 7abc f34e 013e afb9 03bc c648 033d
000002d0: 36e4 763d 783f eabc d2e4 5e3c 22c4 103d
000002e0: 95b3 6b3d ceec ddbc 88e7 923c a4ed b3bc
000002f0: 797f 7c3b 68fc cbbb 3ffa b93d 1137 803d
00000300: 4b1e 603c c326 a83c 4b77 16bc b5b6 ee38
00000310: e039 e63b 0af7 ecbc e9c4 cebd 8649 ff3c
00000320: a427 91bd 9104 543d b907 79bc 499f 14bd
00000330: 8f2d 8d3c 42aa 353d ad31 763d 7a6f d63c
00000340: 5f93 db3b 3f70 c6bb 7ee5 513c 88a9 863c
00000350: ae52 46bd 03f4 19bc f556 493d d959 553c
00000360: 884c 9c3d b455 1a3d b30d 993c 033f 92bd
00000370: ed25 27bc 4db4 7ebd 1ff6 c03b fd80 93bb
00000380: 4fae 543d e729 11bc 7e72 8ebc 56d7 56bc
00000390: 8e27 c73c 3576 b23c 0e2e 65bd 2ece 143c
000003a0: 4957 d73c 15a5 17bd 3964 97bb a7b6 083c
000003b0: 7efb efbc 4375 2b3d 1434 203d ec97 7dbc
000003c0: 64fa a2bd 674d 583d 1d46 b4bc b5ed 003d
000003d0: 1bb9 c33c dbf1 49bc acd5 853d 4cf4 473c
000003e0: 57d9 923d 1655 89bd ee3c 40bc 6311 c6bd
000003f0: 7841 45bd 8732 77b9 412d 0bbd 92b5 693d
0.019926978 0.0088826325 -0.031451818 0.057130802 -0.027320521 0.07769458 0.0036808818 0.03721466
0.0231678 -0.01065175 0.04169592 0.041972816 -0.032450013 0.03514459 -0.045477625 -0.047738355
0.01588435 0.05307639 0.0051990384 0.060211338 0.10125221 -0.029172454 0.0037237536 0.014158876
-0.025644543 -0.039093096 0.026810471 0.07241834 0.055900536 0.0065754564 -0.03603762 0.015663672
-0.014257184 -0.013573375 0.027479975 0.03677623 0.054664094 0.017323133 -0.09329077 -0.0122915665
0.031476256 -0.014126631 0.0075136684 -0.030040719 -0.04036944 -0.003837244 0.017735798 -0.05714348
0.0154975625 -0.007635258 -0.016184384 -0.037907526 0.0051748333 0.054678958 0.031122856 -0.08514767
0.012901438 0.05550635 0.0033697907 -0.066130295 0.10635435 -0.022490224 0.015623083 0.017607821
0.004653057 0.063787624 0.017266894 0.010302907 0.028772665 -0.022428054 -0.018974248 0.027031263
-0.01298752 -0.007697824 -0.05145252 0.08937984 -0.0067378115 0.055232663 0.020803582 0.038205687
0.03526249 -0.10859956 -0.02421522 0.028104596 -0.02483127 0.05756164 -0.062367264 0.0005039539
0.03478503 0.0015674012 0.039016996 0.03388743 0.03562986 -0.03185688 0.046098407 0.051502436
0.042854555 -0.03834361 0.004048367 0.06922157 -0.09050379 -0.027243337 0.08267447 0.027265195
0.06060291 -0.018188769 0.05396034 -0.020667877 0.0023725708 0.059819892 -0.02260397 0.015919993
-0.022143092 -0.00495458 -0.008723954 0.02205446 -0.039398327 -0.0101570245 -0.013108605 0.055064928
-0.008254677 0.056161843 0.027859284 0.03235826 0.03379634 -0.061985236 0.010980653 0.010153668
0.000669319 -0.029678218 0.044516847 0.044860575 -0.057508513 0.048683587 0.04423225 0.078936905
0.022762515 -0.041928645 -0.025259584 -0.09872756 0.041382004 -0.0111921765 0.021447333 0.00055667537
0.002395101 -0.05610149 -0.014949315 -0.013762085 -0.03247441 0.005252855 -0.01481987 0.054418687
-0.023432141 0.06844865 -0.025010128 -0.09820234 0.039558336 0.029117962 0.05037308 -0.07266978
0.04881164 0.050416455 0.023228673 0.021730287 0.07086366 0.057576768 -0.02068987 0.0051539037
0.0063963686 -0.052394677 -0.029814517 -0.054131825 -0.03173388 0.022807484 -0.03794896 -0.019803002
-0.0153173935 0.12627773 -0.008039876 0.032051824 0.060276233 -0.028594717 0.01360436 0.035343297
0.05754431 -0.027090456 0.017932668 -0.021963902 0.0038528128 -0.0062251575 0.09080934 0.06260503
0.013679097 0.020526296 -0.009183715 0.00011382756 0.007025942 -0.028926391 -0.100961514 0.031162988
-0.07087639 0.051762167 -0.015199595 -0.03628472 0.017233638 0.044351824 0.06010597 0.026176203
0.0067009176 -0.0060558612 0.012811063 0.01643826 -0.048418693 -0.009396556 0.049155194 0.01302191
0.07631785 0.03767939 0.01868329 -0.07140925 -0.010201913 -0.062183667 0.005888715 -0.0045014606
0.051924046 -0.008860088 -0.017388579 -0.0131128635 0.024310853 0.021784881 -0.055952124 0.00908236
0.026286738 -0.03702267 -0.004620102 0.008344329 -0.029294726 0.041859876 0.039112166 -0.0154781155
-0.079579145 0.05280819 -0.022006089 0.031476695 0.023891976 -0.012325729 0.06534895 0.012204241
0.071703605 -0.06705682 -0.011733277 -0.09671285 -0.04815814 -0.00023574579 -0.033978704 0.057057925

model._model.a2c_network.actor_mlp.0.weight f4 [512, 26]
00000000: 488e 323e f622 20be 9c56 76bc f398 43bd
00000010: b32b 4f3e 0c16 3fbe 59a0 f3bd 2181 03be
00000020: 014b 4e3d fed4 18be e600 bcbc 7bcb aabd
00000030: 206d 1c3e ee32 df3d 2e4d ad3d b0fc 083e
00000040: 6d5d a83d e67a 413e ce69 d5bc 1f9c 35be
00000050: 7858 cd3d 962a 5abc 77b8 29be 48e9 afbc
00000060: 5cbf 193e 6017 b0bd a428 5ebe d9d2 c1bc
00000070: 0807 76be 955f 9ebd 43d4 c53e 48d0 2d3e
00000080: 544a 91bd 1820 203e 2ba3 05bd 9566 2ebe
00000090: 8863 bb3d 218c 24be 325b 723d d5e1 9abd
000000a0: 3bca 2f3d deff cebd ac28 2b3e 4787 d6bd
000000b0: 0745 1b3d c8dd 953c 570e 0ebe 71e2 1bbe
000000c0: df41 ed3d 0622 b43d 0df5 45be dc3c 473d
000000d0: 55be 143e 1603 603e 5459 763c 60cb f43d
000000e0: a048 1dbe 4330 9cbe 3ced 82be b81a 78be
000000f0: 7712 99bd b71d ecbc c0c8 243e b273 2c3e
00000100: 8b17 5ebe 9b45 21be 0110 42be ea7e b43d
00000110: 16a7 e73d 5d19 313e 648e acbd 65f3 b83d
00000120: 6f80 eabd e251 77bd c307 773d be32 843d
00000130: 2613 0ebc 3de3 a13d 633c 403e 210b 0e3d
00000140: 48f9 1e3e fbcb edbd a9f1 b63d 5bb9 2e3e
00000150: 2920 753e ff98 f83d c0ad 11be 204d 9fbd
00000160: 1030 e93d 2f80 c7bd 72f1 a0bd b9cd acbd
00000170: f835 bf3d d846 04be 0ed9 5dbd 64f0 273e
00000180: 4937 30bc fd85 f7bb f412 52be cbec 8cbd
00000190: 5333 bd3d 3723 1f3e 7553 53be c80e 2c3e
000001a0: a106 54be 2e17 613d 417b fcbd afb5 bc3d
000001b0: 42b2 433d 8298 49be d1b9 40be 8061 c9bc
000001c0: a469 e6bd 8dc1 1cbe ec38 93bd 560e c63d
000001d0: c77b abbd d8d8 2d3d 5eb8 aabd 5430 26be
000001e0: 0525 fbbd debc 6c3d 0bfb 383d ebca e3bc
000001f0: 0670 d63b 3dfd 48be 110d fe3a 2564 16bd
00000200: 3077 f9bd 7ed2 19be fd2b da3d 5a20 8abd
00000210: dacf 75bd c179 15bd da9c 263e abe7 23be
00000220: 3e55 a93c bdd6 7e3b e758 183e c6dd 2bbe
00000230: 9a42 2cbe a1f6 083e 5726 3b3e f4e5 edbc
00000240: 5b16 82bd 56d6 e7bd 1455 f3bd 7238 14bd
00000250: 036b f33b 2d84 343d d0ae 3b3d d079 6d3b
00000260: d32e 013d fe99 17bd 40c3 f63d 6a32 11be
00000270: 3985 dd3d 008f 31be d25d 29be c41f 28be
00000280: 27f9 5e3e fe71 73bd 4fc3 183e db3b 253e
00000290: 5fb2 6b3e b675 86bd 6ab9 7bbb 1759 f93d
000002a0: 2ff2 06be 4172 9a3c 965c 9a3c 0378 32be
000002b0: 05ec d6bd 6cb4 8f3d f53e e6bc 81fe ae3d
000002c0: a7a8 aa3d 264a 90bd 1351 c2bc ba7e 57be
000002d0: f432 73bd 19b0 553d 6739 043e 53e1 3c3e
000002e0: 35cf 9bbd fc18 8a3c 8676 68be e613 8f3c
000002f0: ec5e 123e f8b7 eabd 36f9 cebd 09f3 1d3e
00000300: b73c 33be 583b 863d 5cad 99bd c201 103e
00000310: 4d60 073e 6322 cabd ecf1 2f3d e646 a63d
00000320: cdc3 e2bd a2d9 123e cda8 2abe 1e2b 93bd
00000330: 56f5 8d3c 38a1 bb3d 60e5 eebd 3bec af3d
00000340: 8c6c 21be 5d5f e8bd bdcf f5bc 2b04 503e
00000350: 1c37 8cbc c3e1 6abd 231e 373d 5617 1ebe
00000360: cf74 923d 37a5 853d fd43 5bbd 1fb4 083d
00000370: e178 c73c 7ad8 363e 69cf 33be f81e 55bd
00000380: 4cc5 193e 2eb6 833d 0742 0b3e 7270 33bd
00000390: deb7 00be ae3f a1bd 3c18 b83c 352e aebd
000003a0: 79fe bf3d 6022 38be 3f8c 753c b48e 2bbe
000003b0: 3d7e 863d f074 5cbe eb29 d6bb d245 e0bd
000003c0: c1f4 a8bb d44c 543e 0c91 583e 2ec6 dbbb
000003d0: a96a 25bd 3a2a e3bd b03b ecbd acb9 9e3d
000003e0: 88aa 053e 7d0a e8bc d394 663d 96ef 343d
000003f0: c6c7 303d 1e0b 1a3d 1842 fbbd 98a3 163e
0.17437088 -0.15638337 -0.015035298 -0.047753286 0.20231514 -0.18660754 -0.11895818 -0.12842228
0.050364498 -0.14925 -0.022949647 -0.08339592 0.15276003 0.10898386 0.084619865 0.13377643
0.082209446 0.18894538 -0.026051428 -0.17735337 0.1002664 -0.013315817 -0.16574274 -0.021473542
0.15014404 -0.085982084 -0.2169519 -0.02366011 -0.2402612 -0.077330746 0.38638505 0.16973984
-0.07094255 0.15637243 -0.032626312 -0.1703132 0.091498435 -0.1606908 0.059169002 -0.07562605
0.04291747 -0.101073965 0.16714734 -0.10475021 0.037907626 0.01829423 -0.13872658 -0.152231
0.115848295 0.08795552 -0.1933176 0.048642024 0.14525731 0.21876177 0.015035946 0.11952853
-0.15359735 -0.3050557 -0.2557162 -0.24228942 -0.07474225 -0.028822763 0.16092205 0.1684101
-0.21688668 -0.15749209 -0.18951418 0.088132694 0.11311166 0.17294832 -0.08425596 0.09030799
-0.11450278 -0.060380824 0.060310137 0.06454991 -0.0086715575 0.079046704 0.18773036 0.034678582
0.15524781 -0.11611172 0.08932812 0.17062895 0.2393805 0.12138557 -0.14226437 -0.07778382
0.1138612 -0.09741246 -0.07858552 -0.08437676 0.093364656 -0.1291765 -0.054162078 0.16400295
-0.0107553685 -0.0075538144 -0.20515043 -0.06881102 0.09238305 0.15540777 -0.20637305 0.16802514
-0.20705654 0.054953746 -0.12328196 0.09214341 0.04777742 -0.19687083 -0.18820883 -0.024582624
-0.11250618 -0.15308209 -0.07188591 0.09670703 -0.08373218 0.042443126 -0.083359465 -0.16229373
-0.1226292 0.057797305 0.04516129 -0.02780672 0.006544116 -0.19627853 0.0019382556 -0.0367166
-0.12180936 -0.15021703 0.10652921 -0.06744452 -0.060012676 -0.036493067 0.16270772 -0.16006343
0.02067053 0.0038885318 0.14877664 -0.16783819 -0.16822281 0.13375331 0.18276344 -0.029040314
-0.0635192 -0.11320178 -0.11881462 -0.036186643 0.0074285283 0.044071365 0.04582101 0.0036235936
0.031538796 -0.037012093 0.1204896 -0.14179388 0.10816426 -0.17339706 -0.16539696 -0.16418368
0.21774732 -0.059434883 0.14918254 0.16136114 0.23017262 -0.0656542 -0.0038410076 0.12175196
-0.13178323 0.018853309 0.018842977 -0.17428593 -0.10494236 0.070168346 -0.028106192 0.085446365
0.08332949 -0.07045393 -0.0237203 -0.21044436 -0.059374765 0.052169893 0.12912522 0.1844533
-0.07607881 0.016857617 -0.22701463 0.017465543 0.14294022 -0.114608705 -0.10106127 0.15424742
-0.1750363 0.06554288 -0.07503769 0.1406317 0.1322033 -0.0986984 0.042955324 0.081189916
-0.11072502 0.14340833 -0.16665955 -0.07185958 0.0173289 0.091616094 -0.116648436 0.08589979
-0.15764064 -0.11346314 -0.030006284 0.2031409 -0.017116122 -0.05734421 0.044706475 -0.1543859
0.07151186 0.06525653 -0.053531636 0.0333749 0.024349632 0.17856017 -0.1755959 -0.052031487
0.15016669 0.064312324 0.13599406 -0.043808408 -0.1257014 -0.07873474 0.022472493 -0.08504907
0.09374709 -0.17981863 0.014987051 -0.16753656 0.06567047 -0.21528983 -0.0065357587 -0.10950817
-0.00515613 0.20732433 0.21149081 -0.0067069745 -0.040384922 -0.110920385 -0.11534822 0.07750258
0.13053334 -0.028325314 0.056294274 0.0441738 0.04315927 0.03760826 -0.12268466 0.14710844

model._model.a2c_network.actor_mlp.2.bias f4 [256]
00000000: 77e6 7d3b 7f28 0dbc a9f0 c8bb abc9 01bd
00000010: 6f95 17bd 622b abbc d97b 883b 3166 f1bc
00000020: 45fc 5abc 6ef2 4bbd db26 25bd d45d 86bd
00000030: d4af 303c d455 70bb 25ef 01bd 8e54 a4bd
00000040: 3faa bf3b 374e 6c3d bbcc cfba 9429 01bd
00000050: 3716 1cbd 30e2 a8bd 4ce7 dfbc 0643 73bd
00000060: 06a3 70bd f12a 2ebd 6e9f 4a3b cccb 6dbb
00000070: a955 043c 8b28 06bd 3094 b4bc 94e3 7cbd
00000080: a080 fbbc 1ecd 01bd d07f c83b cc22 d3bc
00000090: becf f2bb e24c 85bd 8ede 00bd 36fe d1bb
000000a0: d21b 2bbc 5c02 06bc 341f 093b b673 693c
000000b0: 8fcb 0e3d 4777 62bd ec4f 2f3c 1fe3 0abc
000000c0: 000c 9d3c b35e 7bbd b054 4fbd dce7 75bd
000000d0: 1580 b6bc 2254 3bbd e822 08bd 94f1 83bb
000000e0: 769f 3bbd 8f4e f5bb ffc5 813c 0f35 ddbc
000000f0: 984f 0bbd f727 5ebd 2d66 5b3c 72f8 b63b
00000100: 5f2a 3dbd 9015 8abc 7cc2 71bd a02b 4bbd
00000110: bf7b 81bd 412f 12bb 06bd 93bd 56b5 05bc
00000120: 6333 a3bc acbc 04bd 2cf0 263c c60d fdbc
00000130: 346d 8ebd ab8d 3dbd acfa 27bd 5b4a 913b
00000140: 63f7 5abc f5d4 7cbd 69d5 423c 8a2b 64bd
00000150: f884 8cbb 62ac febc 14ca 81bd 3943 abbd
00000160: 5a00 00bd 4bf0 dfbc 3035 6bbd 513d 4cbd
00000170: f824 41bd 64ec 583c 1a99 6bbc d6bb 12bd
00000180: f1e3 223c ec6a 283d 3512 4dbc 7c1a 0ebc
00000190: be5f d3bd 9290 03bc a1e7 933c d563 8dbd
000001a0: 8bef fe3a a033 d33b 19ca 61bb 61b3 7dba
000001b0: 86c8 f5bc 5c9e d0bc 2fbb b33c 1b3f 9bbd
000001c0: 7343 4dbd 1a1e 92bd d589 b9bc bcb6 41bd
000001d0: 2bfc 8a3b 101e 62bb 443d bebc 67ad 51bd
000001e0: 908f f6bb 4f99 c93c 3a09 97bb 9901 6a3c
000001f0: 4a0d 8cbd a5b5 e6bc 8c29 c8bc 4aa6 03bd
00000200: 4ff7 4abd 5ff6 50bd 51fe 8bbd b625 bebd
00000210: 1297 603c 7acb 3ebc 1d60 33bd 990b 45bd
00000220: 565f 27bd 824e 1cbc 6b93 e8bb a8f8 8abd
00000230: d4fd f33b 7d0f adbd b26f a13c 4347 11bd
00000240: e1bc 19bd 1905 17bd 0942 2ebd 9e67 7fbc
00000250: 5c5b e9bc 7aca 9b3c 5dcf 17bd e0cc 1dbc
00000260: f7b9 7bbc 56ed 973d 0725 a13b 1b97 42bd
00000270: 0900 15bd 2966 073c 7a6d 17bd 1893 f33b
00000280: 907b 34bd b411 0d3d fdb0 b93d 9794 9bbd
00000290: 044e 2cbd 53c7 d43b 3bbf d5bc 056f 803b
000002a0: 53a4 3cbd d5d9 10bd d9e5 3abd 20c3 28bd
000002b0: 5384 87bd 6618 16bd 422f 213d b7e4 84bd
000002c0: e2c5 98bd d472 f0bc 671e 65bd 2d45 6639
000002d0: ec15 16bd a395 79bd ee76 9a3c 4004 cc3c
000002e0: 134c 6fbc 69d3 20bd a62b 93bd 66bd 9abb
000002f0: 3950 67bd 3209 9ebc 2aeb c03c cba5 adbc
00000300: ed95 55bd c6fd 21bd e405 e0bd 072c 073d
00000310: 5491 7abd 435a c13a 3fdf 1abc 38bc 9fbd
00000320: c444 24bd 4af2 b53c ac15 b4bd 927c 63bd
00000330: 16b4 16bd a3b4 433c 73c4 b2bc 6844 bbbc
00000340: 4404 133c 8bf3 94bc ca2a 4fbc e13e 3f3d
00000350: ad9d afbc 1aea f1bc d5a1 91bd 930e 9f3d
00000360: 6841 67bd bced 90bd fb37 1bbb a68d 0fbd
00000370: 0352 1b3c 768e 7cbd deaf 87bd 881d 033c
00000380: caf9 f0bc 4a6d 45bd 57a5 bc3c 221c aa3c
00000390: 76bb acbd 4999 40bd d276 03bd bb5a acbc
000003a0: ae98 e0bc f743 7fbc 79ae 083c d4db 433c
000003b0: eb03 e7bc 4c00 a8bd cf54 79bd 2910 91bc
000003c0: b4a0 11bd c7e7 94bd 04ab 45bd 1048 bfbc
000003d0: 20b7 2dbd 5654 e13a a070 87bd 3713 30ba
000003e0: 9610 8cbb 586b 153d f0ba 35bd e8a5 9937
000003f0: 2ebf b5bd 8aa5 bcbc 3dd0 6e3d 1ed1 12bd
0.0038742104 -0.008615612 -0.0061322046 -0.031686466 -0.037007745 -0.02089471 0.0041651544 -0.029467674
-0.01336581 -0.049791746 -0.04032026 -0.06560865 0.010784108 -0.0036672251 -0.031722207 -0.0802394
0.0058491523 0.05769178 -0.0015853861 -0.031533793 -0.038107123 -0.08246267 -0.02733197 -0.05939009
-0.05874922 -0.04252142 0.0030917781 -0.0036284802 0.008077064 -0.03275351 -0.022043318 -0.061740473
-0.030700982 -0.031689756 0.006118752 -0.025773428 -0.0074100187 -0.06508805 -0.031462245 -0.006408478
-0.010443645 -0.008179273 0.002092314 0.014248779 0.034862097 -0.055289533 0.010700207 -0.008477001
0.019170761 -0.06136961 -0.050617874 -0.06003557 -0.022277871 -0.045734532 -0.033236414 -0.004026601
-0.04580637 -0.0074861716 0.015841482 -0.02700284 -0.034011453 -0.054237332 0.01339106 0.005583816
-0.046182986 -0.016855985 -0.059023365 -0.04960215 -0.06322431 -0.0022305998 -0.07213788 -0.00816091
-0.019921964 -0.032406494 0.010189097 -0.030890357 -0.069544226 -0.046277683 -0.041010544 0.0044339127
-0.013364646 -0.06172653 0.011891701 -0.055705585 -0.004288312 -0.031088058 -0.063373715 -0.08362431
-0.031250335 -0.02733626 -0.05742377 -0.049863163 -0.047154397 0.013239954 -0.014379764 -0.035823666
0.009942041 0.041117594 -0.012516548 -0.008673307 -0.10320996 -0.008030074 0.018054785 -0.06903807
0.0019450051 0.006445363 -0.0034452735 -0.00096779136 -0.030002844 -0.025466137 0.021939842 -0.07580396
-0.050113153 -0.07134648 -0.022648731 -0.04729341 0.0042414865 -0.0034502782 -0.023222573 -0.05119076
-0.007524438 0.024609236 -0.004609254 0.0142826075 -0.06838472 -0.028162787 -0.024433874 -0.032141007
-0.049552258 -0.051016208 -0.068356164 -0.092845365 0.013707893 -0.011645192 -0.043792833 -0.048106764
-0.040862404 -0.009540202 -0.0070976517 -0.06785709 0.00744603 -0.0845022 0.01970658 -0.03546835
-0.037533645 -0.036870096 -0.042543445 -0.015588669 -0.028485946 0.019017447 -0.03706299 -0.009631366
-0.015364162 0.07418315 0.004917744 -0.047507387 -0.036376987 0.008264103 -0.03696964 0.0074333064
-0.04406315 0.03444071 0.09066961 -0.07596701 -0.04206659 0.006493488 -0.026092162 0.0039194846
-0.04605515 -0.03536399 -0.045629356 -0.04120171 -0.06617036 -0.036644362 0.03935171 -0.064889364
-0.07459618 -0.02935163 -0.055937197 0.00021960279 -0.036642 -0.06093372 0.018855538 0.02490437
-0.01460554 -0.039264116 -0.0718606 -0.004722285 -0.05647299 -0.019291494 0.023549635 -0.02119722
-0.052144933 -0.039548658 -0.109386235 0.033000972 -0.061173752 0.0014751632 -0.00945264 -0.07799572
-0.040104643 0.022210259 -0.08793196 -0.05553872 -0.036792837 0.011944923 -0.02182219 -0.022859767
0.008973185 -0.018182537 -0.012644479 0.046690825 -0.02143749 -0.029530574 -0.07110945 0.07766452
-0.05645886 -0.07076594 -0.002368449 -0.035047196 0.009480002 -0.0616593 -0.06625341 0.008002646
-0.029415984 -0.04819993 0.023028059 0.020765368 -0.08434193 -0.047021184 -0.032095738 -0.021039357
-0.027416553 -0.015580169 0.008342379 0.011954267 -0.02820011 -0.082031816 -0.060871895 -0.017707901
-0.03555365 -0.072707705 -0.048258796 -0.023349792 -0.04241097 0.0017191272 -0.066132784 -0.00067167304
-0.004274438 0.036479324 -0.04436773 1.8316277e-05 -0.08874355 -0.023028154 0.05830406 -0.03584396

model._model.a2c_network.actor_mlp.2.weight f4 [256, 512]
00000000: 4f35 183d 43ab 7b3c fa89 713a 2084 0f3d
00000010: 87a1 7bbd 8078 033c 1f6e 26bc 93bc 15bd
00000020: 77fd 963c 76e6 4cbc 4ac1 a33b 9411 3bbd
00000030: c44e 9a3c 09ba 123d b6b2 0f3d c716 c4bc
00000040: a824 56bc 2142 01be 76ca 8bbd b7b9 523c
00000050: 9125 fb3c d9ea 1d3d 571b 16bd b551 07bd
00000060: 1b1a a33c 883c 503d 05db a4bc e118 5a3d
00000070: f035 e7bc baa0 c03d 7b0f f23a 686d 3a3d
00000080: e55f babc 7b51 813d f54a 513c 065a 3b3d
00000090: c3ed 63bc 64eb 5bbc 7f9e 993c fb02 cb3b
000000a0: 559f bfbd 6f4b cdbc 4b83 33bd 1ed8 cdbb
000000b0: e453 90bc 64db 1cbd 9b33 6e3d 6524 26bd
000000c0: e4b4 95bd c955 093d 9f1d a6bd 5661 023d
000000d0: 80e9 723c 0c61 95bd e932 46bd eb6f dc3c
000000e0: 9216 43bd bffc cdbc 4c39 663d a661 9abc
000000f0: f200 55bd 96c4 89bd 3f8c 35bb 0c0b f13b
00000100: 7589 0e3d f710 1f3c 0cf0 22bc 3de7 bdbc
00000110: 874d 20bd cc9c dfbb fec9 dabc ddc8 3b3d
00000120: b203 933c 2cb0 c3ba bbe3 0dbd 4a09 a2bc
00000130: efbe 69bd cde3 5e3d 72d6 b13d 93b5 89bd
00000140: 811e 6d39 f36f e83c f81a a53b c701 87bc
00000150: 94a8 103c 9757 b5bc c242 90bd ac4e bcbd
00000160: f6c9 6e3d 96b8 873b 8898 c73c 3f5e 443d
00000170: 93e9 463c 561c 1c3d 56c9 183d cbae 49bd
00000180: 1a97 edb9 58a9 2bbd 7239 08bb 2365 083d
00000190: 7dcb 0cbc 6fbc 243c 4f8e f53b 4de9 413d
000001a0: 2328 c1bd 1895 2fbc 984a 5ebc 23cd d43c
000001b0: ecf7 1d3d 2683 d8bc 3777 9abc 77d8 53bd
000001c0: 4412 9abc 3cc3 8bbc 757e 88bc 9090 c4bc
000001d0: 0730 aebc c8a4 26bd b13f a13c 3557 423c
000001e0: 5caf 1b3c 343c 5dbc d6a5 353c 9de4 47bd
000001f0: 3f15 90bc 8dbf f13c 9000 70bd cee4 333c
00000200: 164e 833d e64d 66bd c17a acbc e7ad 12bd
00000210: ec44 093d 3268 80bd 661e c23c dc4a 74bc
00000220: 3db3 603c 100d 853d a614 1a3d badd 1cba
00000230: e65b c63b 00e9 09bd bc99 4bbd a696 7dbd
00000240: 5c5b 49bc 6fa9 49bd 02da 5c3a b8fc 0ebb
00000250: cb0b 59bc 39f2 013d 3031 74bd ac49 673b
00000260: c8ee 053d cba6 56bd aea3 3a3d 96e4 693c
00000270: 1c8b 7ebc 930f 1abd f9f7 2fbb 85ae 05bd
00000280: 58fa a43c 7694 833c 801d d3bc 6c80 38bd
00000290: b7a7 6c3d bda1 94bd 300a 4abc 2e4f 00bc
000002a0: aeb3 febc ae01 22bd 9249 be3b 3c9a 843b
000002b0: b935 14bc febb 96bc 9b8f f33c 6d59 be3c
000002c0: 90e9 003d cf5a 193d 771f 983c c092 64bd
000002d0: fc92 30bd d902 bfbc f61c d5bc eed5 fdbc
000002e0: 8724 59bb bc01 1dbb f46a 89bc f2d4 9ebd
000002f0: b7e3 6a3d 18ad aa3c 01e3 773c 1fbd 563c
00000300: da81 dfbc 5f5b cbbb c88f 1dbc baef 53bd
00000310: ac04 d2bc 3914 63bd e52a 443c 3174 3c3d
00000320: 9d30 f8bc b9e5 17bd e1f1 e33d 3589 b8bd
00000330: 0a20 313b 1f3d 1c3d aba6 3c3d 433b 693d
00000340: 5ac6 113c dfcd a43d 50fe f83c 5b3d 2f3d
00000350: 01c9 50bd eedf 6bbd e9ba be3c 1fca a1bc
00000360: e641 c2bc d19d 1a3d deb2 00bc 89af a43d
00000370: 669a 3fbb 9eac a23c 3374 dcbc fcc9 ec3c
00000380: 2411 683d 7dbb fe3c b0f5 5d3c 4595 ef3c
00000390: 3b1c 763d 873d 5a3c bb42 80bd dc92 873c
000003a0: 1108 85bd e27b f43c b789 c7bc 0a77 283a
000003b0: dba1 67bc 8553 aa3c be82 f6bc 8a42 793d
000003c0: 7da4 b63c 36aa 9f3d 030c 403c 6a28 0cbb
000003d0: db32 00bd c890 4d3b 1109 8e3c d13d 723b
000003e0: ff11 46bb 172b b7bc fb23 bbbb 87b8 1cbd
000003f0: 78e5 edbc 1528 8f3d 0a11 a0bc 0902 ab3b
0.037160214 0.015360656 0.00092139805 0.035038114 -0.06143334 0.008024335 -0.010158091 -0.03655679
0.018431408 -0.012506118 0.004997407 -0.04567106 0.018836387 0.03582195 0.03508254 -0.023936642
-0.013070263 -0.12622882 -0.06825726 0.012861661 0.030657561 0.038554046 -0.036647167 -0.033036906
0.019909909 0.050838977 -0.020123968 0.053246383 -0.028223962 0.09405656 0.0018467748 0.045514494
-0.022750804 0.06314369 0.012774219 0.04574015 -0.013911667 -0.013422821 0.018752335 0.0061954237
-0.09356562 -0.025060384 -0.043826383 -0.0062818667 -0.017618127 -0.038295165 0.058154684 -0.040562052
-0.07309893 0.033529077 -0.081111185 0.031831108 0.014826179 -0.07293901 -0.048388395 0.026908835
-0.047628947 -0.025144933 0.056206986 -0.01884539 -0.052002855 -0.06726949 -0.0027702001 0.007356053
0.034799058 0.009708635 -0.009944927 -0.023181552 -0.039136436 -0.0068241116 -0.026707646 0.045845855
0.017946098 -0.0014929823 -0.03464101 -0.01977982 -0.057066854 0.054416467 0.0868348 -0.06724086
0.00022613445 0.028373694 0.0050386153 -0.01648034 0.008829255 -0.022136493 -0.07043983 -0.09194693
0.058298074 0.0041418774 0.024364725 0.047941443 0.012140649 0.03811296 0.037301384 -0.04923896
-0.00045316742 -0.041909546 -0.0020786193 0.033299576 -0.008593437 0.010054692 0.007493771 0.047341634
-0.094314836 -0.010716699 -0.013567589 0.025976723 0.038566515 -0.026429724 -0.018855674 -0.05172011
-0.018807538 -0.017060868 -0.016661862 -0.023994714 -0.021263136 -0.04068449 0.01968369 0.011861612
0.009502258 -0.013503123 0.011086902 -0.048802007 -0.017588256 0.029510284 -0.058594286 0.010979844
0.06411378 -0.056226633 -0.021054627 -0.035810377 0.033512995 -0.06269874 0.023696136 -0.014910426
0.013714609 0.06496632 0.037617348 -0.00059839676 0.0060534356 -0.03366947 -0.04970716 -0.061911248
-0.012289848 -0.04923385 0.00084248197 -0.0021818113 -0.013247441 0.031725142 -0.05961722 0.0035291715
0.032698423 -0.05240516 0.045566253 0.014275691 -0.015536096 -0.03761251 -0.0026850684 -0.032637138
0.020138904 0.016062003 -0.025770903 -0.045044348 0.057777133 -0.07257412 -0.01233153 -0.007831378
-0.031091537 -0.039552383 0.00580711 0.0040467065 -0.009046012 -0.018400189 0.029731562 0.023236
0.031472743 0.037440117 0.018569691 -0.055804014 -0.043108925 -0.023316788 -0.026014786 -0.030985799
-0.0033133344 -0.0023957333 -0.016774632 -0.0775546 0.057346072 0.02083449 0.015129806 0.013106613
-0.027283598 -0.0062059606 -0.0096168 -0.051742293 -0.025636993 -0.055439208 0.0119731175 0.046009246
-0.030296618 -0.037084315 0.11130119 -0.09010545 0.0027027153 0.038144227 0.046057384 0.056941282
0.008897388 0.08047079 0.030394703 0.042783123 -0.050972942 -0.057586603 0.023282485 -0.0197497
-0.023713063 0.03774816 -0.007855145 0.08041293 -0.0029236316 0.0198577 -0.026910877 0.028904907
0.05665697 0.03109526 0.013547346 0.029245982 0.060085516 0.013320333 -0.06262728 0.01654952
-0.06495679 0.029844228 -0.02435766 0.00064264296 -0.01413771 0.020791778 -0.03009164 0.060854472
0.022295231 0.07796137 0.011721614 -0.0021386393 -0.0312985 0.0031366814 0.017338308 0.0036963115
-0.003022313 -0.022359414 -0.0057110763 -0.038261916 -0.029040083 0.06990067 -0.019539375 0.0052187485

model._model.a2c_network.actor_mlp.4.bias f4 [128]
00000000: 77a7 fabb cc28 5fbd 39cf 3abd a9d6 0cbd
00000010: f06e 1ebb d713 45bc e9bc b7bc 419c 59bc
00000020: 6354 753c 1b1f cbbc 6ab8 7abb f07d 83bd
00000030: e04c 73bc dc87 b63c 84e9 0ebd 42e0 63bd
00000040: 90be ab3a c98f 2bbd 1e92 82bc 36c0 47bd
00000050: 8918 05bc b0d1 cebc 01ff 053a ee89 caba
00000060: 661a 133c 496d 04bd 3a5a 2ebc 3b4f 90bb
00000070: b545 0abd 2a12 0ebd eddd 0cbd 2db4 54bb
00000080: 03ad da3b 6146 b03b 7246 82bd e029 e0bb
00000090: 17ed 04bd 1d04 62bd 5911 b0bb 6604 01bd
000000a0: 469b 84bc a561 28bd 3ff9 28bc af30 183c
000000b0: 04ce 6cbd e52c dabc fb8d c3bc 4ac5 b5bb
000000c0: 402e 60bb f9d8 36bc 0a7a 3bbd b42a a4bc
000000d0: 9838 e5bc 19f0 1dbd bc04 43bd c4c9 c2bc
000000e0: 5f9d f63b 6c83 973b 5b4c e4bc f18f 31bc
000000f0: a521 7cbc 6075 1bbc 41d3 69bd dc2b 5bbd
00000100: c6e0 93bd 8e3f ecbc e99c 39bd 0043 94bd
00000110: 2097 12bc b837 39bd e976 10bc f56d adbc
00000120: 9d06 16bd 3f39 d2bc f777 c3bc 62b8 2e3a
00000130: ea71 b1bc 37a0 97bc e1b3 1cbd 074a 41bd
00000140: cee5 6dbd 4efb 73bc 6abf d1bc e93e 99bc
00000150: fc6f c4bc 951c b4bc 8b92 15bd d751 05bd
00000160: afde 20bb b442 85bc 1a68 ff3b 5000 93bc
00000170: 5ce6 2fbd f08a d7bc 395e 57bd 026b dbbc
00000180: 7fe6 43bd 974a 14bc 2c1e d5bc 7254 163b
00000190: 5788 02bd 0613 45bd cf0b 3c3c beab f33b
000001a0: 7799 f63a dbf4 f9bc 36c9 00bd 5216 10bd
000001b0: edc7 77bb cf28 1bbd 800f f1bc 9e8f e6bb
000001c0: 312a 10bd 9f56 f6bc 4ee8 9abc 64e0 5b3c
000001d0: 1233 e0bb 09fc bcbc 71ed 73bc d58a 80bc
000001e0: d039 48bd b02d 82bc c923 33bd 5b77 1fbd
000001f0: c68b f3bb 66ad 813b 1d35 37bc 3915 98bb
-0.007649358 -0.054482266 -0.04560778 -0.034384403 -0.002417501 -0.012028656 -0.022428947 -0.013281883
0.014973733 -0.024795106 -0.0038256892 -0.06420505 -0.014849871 0.02228158 -0.034890667 -0.05563379
0.0013103057 -0.04188517 -0.015938815 -0.04876729 -0.008123525 -0.025246471 0.0005111546 -0.0015452483
0.008978462 -0.032330785 -0.010641629 -0.0044039763 -0.033757884 -0.03468529 -0.034391332 -0.0032456026
0.0066734566 0.0053794836 -0.063610926 -0.0068409294 -0.03245267 -0.055179704 -0.0053731618 -0.031498335
-0.016187321 -0.041108746 -0.010313331 0.009288951 -0.05781366 -0.026632736 -0.023871413 -0.0055472003
-0.0034207255 -0.011160129 -0.045770682 -0.020039894 -0.027981088 -0.038559053 -0.047611937 -0.02377785
0.0075260843 0.004623821 -0.02786844 -0.010837541 -0.015388881 -0.009488434 -0.057086233 -0.053508624
-0.072206065 -0.028838899 -0.045315657 -0.07239342 -0.008947164 -0.045219153 -0.008817413 -0.021170596
-0.0366274 -0.025662063 -0.023860915 0.00066650484 -0.021660764 -0.018509014 -0.038257483 -0.04718974
-0.058080487 -0.014891459 -0.025603969 -0.018706756 -0.02397918 -0.021986285 -0.036516707 -0.03254875
-0.0024546792 -0.016267158 0.0077943923 -0.017944485 -0.042944297 -0.026311368 -0.052580092 -0.026784424
-0.04782724 -0.009050987 -0.026015364 0.0022938517 -0.031868305 -0.048113845 0.011477425 0.0074362447
0.0018814047 -0.030512264 -0.03144189 -0.035177536 -0.0037808374 -0.037880715 -0.029426336 -0.0070361635
-0.035196487 -0.030070601 -0.0189096 0.013420198 -0.0068420256 -0.023069398 -0.014888153 -0.0156912
-0.04888326 -0.015890926 -0.0437353 -0.038932186 -0.007432434 0.0039574383 -0.011182097 -0.004641202

model._model.a2c_network.actor_mlp.4.weight f4 [128, 256]
00000000: e526 723d efa1 83bb 5b0c 86bc 4a58 8bbd
00000010: 9979 0f3c c04d 953d ec5a cb3c 3e8a 9c3c
00000020: f149 34bc ac2e 3b3d cc98 b4bd a279 813c
00000030: 900e 69bd df53 943c e3fb 613d 405c c03d
00000040: 12ff 8b3c d963 823c c1a7 523d 650d 82bc
00000050: affc 19bd 1cd8 c43b 8eeb fbbc 8995 f03c
00000060: 79af 743d 56ed c2bd 2ea0 b9b8 e1f4 debc
00000070: 4f25 153d a9f2 2d3d 0d24 473d 9f1f 86bd
00000080: 66da 5bbc 5186 a23d b1b4 743a 9bbf 3b3d
00000090: 2890 5d3d 9b24 2e3d c415 403d df1c 803c
000000a0: da00 0d3d 4942 40bd f42a 9b3b 34a1 c5bc
000000b0: 1f3d a93d db82 2f3d c5f9 403d 218b a3bc
000000c0: bf74 4fbd 102f 39bd e348 7dbc 53f5 b6bc
000000d0: caea bf3b db86 71bd 7027 fbbc eede 8bbd
000000e0: f2b9 75bd dbea 2ebc 7975 583d b7fc 4d3d
000000f0: 7e31 16bb dd74 f9bb 93d8 b93d 7b27 8a3d
00000100: c2ea 9cbd b07f d0bb fe99 7d3d 0083 4abd
00000110: 5275 843c 9010 4c3d bece 373d 8df2 9e3c
00000120: 1c2b 0fbc f90c 4c3d ae29 a7bd 039b bc3c
00000130: 60fd bd3d 6584 4bbc 2cd7 29bd bb00 153d
00000140: 2c5f 673d 43ea a5ba 3c79 87bd 7561 f0bc
00000150: ab84 823d 979c c9bc 565d 9c3d 58d7 893d
00000160: 2e77 47bc cf0b 013d bb16 0cbd 60a0 0fbd
00000170: 74e1 8fbc 9512 ccbc f347 b6bd 9e29 37bd
00000180: c589 56bd 08d1 32bc aa96 45bc 3f33 05bc
00000190: 2173 a13d 8297 113d d537 ebbc 860b 29bd
000001a0: 8a07 18bd d86a 673d 36a4 8fbc 2ef7 9fbd
000001b0: 733a 33bd 2706 74bd 41cd b4bd be59 d9bc
000001c0: f234 673d 8969 aa3c 650b 0f3d 25c1 01bd
000001d0: a99d ecbc a98b 0b3d 3c78 d5bd 6af8 7a3d
000001e0: 2759 81bd 5e3f 47bd f435 2abd c44a 183d
000001f0: e9d7 e23b ae69 6f3d c335 93bd cf67 853d
00000200: 13c4 68bd 473a e53c 1f5c 703b 8423 d3bc
00000210: c127 973d 1433 86bd 359d 2fbc a9f0 cfbd
00000220: 45da 353d bbe3 5e3d aad9 6dbd eaa9 ac3b
00000230: 7ccb 1c3d 5a9d ec3a 8c8e 2bbc 1368 4abd
00000240: 09f9 37bd 8b4e 45bd ea5e 1dbc d9bd 093d
00000250: a92b a03b 6090 5abd 4ccf 35bc bc5f 853c
00000260: 807d 52bd 1de6 3ebd 4f77 753d d22d 843d
00000270: 2717 6bbd 36da ba3d ba0c c5bc 5ced 2a3d
00000280: 6cfb 9fbc 7d99 da3b fcfb 273b aa88 833d
00000290: 45b6 42bd 6da7 733c 8c7b 873c dd6d 3abc
000002a0: 67c5 52bd 0f49 8cbc fbad 0ebd 52b9 0ebd
000002b0: 6e8c cbbc d9ea d6bc c892 c03b 1354 edbc
000002c0: 33d3 2abd 2cd3 2fb9 0080 38bd 77f9 de3c
000002d0: 6cf8 babb 1469 2fbb c1e1 bd3c 7322 92bd
000002e0: a13e 5f38 be42 11bd af0a a33c 696b d8bc
000002f0: 104d e13c b76c 043d 32ce bebd ff17 36bd
00000300: dffc 023d 0cb4 a8bd af9c 41bd 164b 8fbd
00000310: 835b 40bc 13b5 d5bc 0b6e ac3b e2f3 98bd
00000320: 1971 473c 0d10 ba3b f0f3 7d3d 70d3 97bc
00000330: aad0 91bc e5cf 91bd 3844 293d e733 5cbb
00000340: cddd e93c e5bd 4ebd 7932 3dbd 588e 2dbd
00000350: ab9c 15bc b3ad 9c3c 0c32 90bd 05e5 cbbd
00000360: d4db 1dbd 82bf d0ba e314 883d 7892 9f3c
00000370: 3bad 843d c5d7 403d 742c dfbc ddc0 033d
00000380: 129b 823d 0323 0ebc 884c 833a fdc3 be3c
00000390: 362d 993d b3e5 95bc 959b 563d 6ecc 2abd
000003a0: bea5 d4bb a5ba d93b b3e5 8abd 9a5d b4bc
000003b0: eeef 023c 103c 5dbc 0b69 8f3d 44e6 cd3d
000003c0: 9b53 cd3c 8e02 b63d 60d8 8c3d e63e bc3d
000003d0: 929e 603d f46e 75bc 257d fcbc 14ce 16bd
000003e0: f425 0e3d a5f8 c23c 9978 c33b 49bd 86bd
000003f0: 4e6d 9e3d ca16 29bd b66e 563d ef7b 3b3d
0.059119124 -0.0040171067 -0.016363313 -0.06803949 0.0087570185 0.0729022 0.024823628 0.019108888
-0.011003957 0.045698807 -0.08818206 0.01580507 -0.056898654 0.0181064 0.05517186 0.09392595
0.0170894 0.015916752 0.051429514 -0.015875528 -0.037594493 0.0060072076 -0.03075197 0.029368179
0.059737656 -0.095179245 -8.851323e-05 -0.027216377 0.036412533 0.042467747 0.048618365 -0.06549
-0.013418769 0.07935775 0.00093347864 0.045837026 0.054092556 0.04251538 0.046895757 0.015638767
0.03442464 -0.046938214 0.004735345 -0.02412472 0.08263611 0.042849403 0.0471132 -0.019963803
-0.050648447 -0.045210898 -0.015459272 -0.022333777 0.0058568465 -0.0589665 -0.030658454 -0.0682963
-0.059991784 -0.010676111 0.052846406 0.050289836 -0.0022917683 -0.007612808 0.090745114 0.067458116
-0.07661964 -0.006362878 0.061914437 -0.049441338 0.016169224 0.049820483 0.0448749 0.019402767
-0.008738305 0.04981706 -0.08162247 0.023023134 0.09276843 -0.012421702 -0.04146497 0.03637765
0.056487247 -0.0012658316 -0.066149205 -0.029343346 0.06372961 -0.0246108 0.0763499 0.06730527
-0.012174411 0.031505402 -0.034201365 -0.035065055 -0.01756356 -0.024911204 -0.08900442 -0.044717424
-0.05237748 -0.010914095 -0.012059847 -0.008129894 0.07883287 0.03554488 -0.028713146 -0.041270755
-0.037116565 0.05649838 -0.017534357 -0.07810818 -0.043756913 -0.05957618 -0.088282116 -0.02653205
0.056446977 0.020802276 0.034922976 -0.031678338 -0.028883772 0.034068737 -0.104233235 0.061272062
-0.063158326 -0.048644416 -0.04155536 0.037180677 0.006922711 0.058450393 -0.071879886 0.065139405
-0.056827616 0.02798189 0.0036676002 -0.025773771 0.07380629 -0.06552711 -0.010718633 -0.10153324
0.04439761 0.0544164 -0.05806891 0.005269279 0.038279995 0.0018052266 -0.010470998 -0.04941566
-0.044915233 -0.048170608 -0.009605149 0.03362832 0.004888017 -0.053360343 -0.011096787 0.016281001
-0.051389217 -0.046606172 0.059928235 0.06454052 -0.057395127 0.09123652 -0.02405392 0.04173027
-0.019529067 0.0066711293 0.0025632372 0.06422551 -0.047537107 0.01487146 0.016538404 -0.0113787325
-0.05145779 -0.01712468 -0.03483389 -0.034844704 -0.024847236 -0.026235031 0.0058768727 -0.028970754
-0.04170532 -0.00016767968 -0.045043945 0.027218563 -0.0057058837 -0.0026765512 0.023178937 -0.07135477
5.322567e-05 -0.03546404 0.019902555 -0.026418405 0.027502567 0.03233024 -0.093166724 -0.04445648
0.031979438 -0.08237466 -0.047268566 -0.069967434 -0.011740568 -0.02608732 0.0052621416 -0.07468392
0.012172961 0.005678183 0.062000215 -0.018533438 -0.017799694 -0.07119731 0.041324824 -0.0033600272
0.028548146 -0.050474066 -0.046190713 -0.042372078 -0.009131591 0.019125795 -0.07040796 -0.099557914
-0.038539723 -0.0015926214 0.06644609 0.019479021 0.064783536 0.047080774 -0.027242877 0.03216635
0.063772336 -0.00867534 0.0010017315 0.023286814 0.074793264 -0.018298006 0.05239447 -0.041698866
-0.0064894846 0.006644564 -0.06782093 -0.022017289 0.007991774 -0.01350309 0.07002457 0.10053685
0.02506428 0.08887206 0.06877208 0.091916844 0.054838724 -0.014980067 -0.030821392 -0.036817625
0.034704164 0.023800204 0.005965304 -0.06579072 0.07735692 -0.0412815 0.052351676 0.04577249

model._model.a2c_network.value.weight f4 [1, 128]
00000000: d8a9 c5bc 1590 03bd 0630 643d 3bfa 1dbd
00000010: eee0 b43d d659 953c 4728 80bd 6a10 ae3d
00000020: c21e 8cbd 90cc ee3c 02ad 42bd d4a4 90bd
00000030: 63a5 843b 7539 ef3a 1a7b ae3d 839b 5c3d
00000040: d4e2 a23d bf25 8abc 5f91 8c3b 994f 543d
00000050: cdf2 a9bd 0862 853c 21bd 703c b8a3 b93c
00000060: 9ceb 92bd 3b9c 9dbd 9f75 703c de99 14bd
00000070: fc47 153d 0e5a 85bd dc41 70bd c145 ba3c
00000080: 7d7c 38bd e8ee 4bbd c4dd d73c a7c7 123b
00000090: 8043 8cbc 6f7c 43bd 70c2 9f3d 5dea 3bbd
000000a0: d972 d93c 7d4f 1b3d 0bfe 2e3b 3b88 56bc
000000b0: 17b4 98bd a3d2 92bd ffca 7c3d 580e 94bd
000000c0: 03b2 843d 0e3b 89bc 51db 3d3d 8e4c 113c
000000d0: feb3 5bbd 8caa 13bc 1a56 52bd 2305 24bd
000000e0: 99cb 803d 5047 b4bc e4b3 ad3d 5eb4 3b3c
000000f0: f44f a3bd 98cf 2cbd 5d25 84bd 19a9 59bd
00000100: ce73 753b 82b4 9cbd 730f 32bd 93ed af3d
00000110: 0470 883d 2dca 2bbd ad03 86bd 272e a9bd
00000120: 7b52 9d3c 72e2 8fbd 6821 16bd 3a2c a0bd
00000130: 11d8 28bc d6ea c43c 2899 b5bc 4861 863d
00000140: c019 1a3c 7d30 293d bd10 633d c40c e03c
00000150: 9150 cabb 8056 0b3d 7dbd b43d 9cbd b23c
00000160: 3815 9f3c eef8 debc 0f41 ef3c 94fc 2b3c
00000170: a565 b13c 2054 f83c f444 85bc 28d0 a83c
00000180: dc4a babc 45b3 7b3d 6cb8 933d e361 57bd
00000190: beaa 703b e0be 72bd 5e96 be38 fcd8 633d
000001a0: 9b95 a63d a63e c5bc 053d 24bd cbff 6cbd
000001b0: 396c 69bd bab5 5dbd 6635 3d3d 599a f83c
000001c0: 5679 78bd ba0a 1abc 7e54 2cbd 52c4 403d
000001d0: f331 84bd 8f7b 06bd 44aa 7bbc 9325 3e3d
000001e0: fbbc 77bc d046 56bd 67db a83c b369 813c
000001f0: bac0 8c3c e43e 523c 81ae 943d 154c 6d3d
-0.02412884 -0.03211983 0.05570986 -0.038568716 0.088319644 0.018231314 -0.06257682 0.084992245
-0.06841804 0.029150277 -0.047528274 -0.070626885 0.004048036 0.0018251376 0.085195735 0.053859245
0.0795342 -0.016863702 0.0042897905 0.051833723 -0.08298264 0.016282097 0.014693529 0.022661075
-0.07173845 -0.07695814 0.014676481 -0.03627955 0.036445603 -0.06511317 -0.05865656 0.02273834
-0.045040596 -0.049788386 0.026350863 0.0022396834 -0.01712203 -0.04772609 0.07800758 -0.045877803
0.026544021 0.037917603 0.0026701714 -0.013094003 -0.074562244 -0.07169082 0.06171703 -0.07229298
0.064792655 -0.016751792 0.046351735 0.00886835 -0.05363845 -0.0090128295 -0.051351644 -0.04004396
0.06288833 -0.02200666 0.08481577 0.011456577 -0.07974234 -0.042190164 -0.06452439 -0.05313978
0.0037453058 -0.07651617 -0.043471765 0.085902356 0.0666199 -0.041940857 -0.0654367 -0.08260756
0.019204369 -0.07025613 -0.036652952 -0.078209355 -0.0103054205 0.02403776 -0.022167757 0.06561524
0.009405553 0.041306008 0.055435885 0.027349837 -0.006174155 0.03401804 0.088252045 0.021818928
0.019419298 -0.027218308 0.029205827 0.010497231 0.021654913 0.030313551 -0.016268231 0.02060707
-0.022740774 0.06145026 0.0721291 -0.052583586 0.0036722864 -0.059264064 9.087914e-05 0.055626854
0.08134004 -0.024077725 -0.040097255 -0.05786113 -0.056987975 -0.054128386 0.046193503 0.030347036
-0.06066259 -0.0094019715 -0.042072766 0.047062226 -0.064548396 -0.03283268 -0.015360419 0.046422552
-0.01512074 -0.052313626 0.020612432 0.015797472 0.017181743 0.012832377 0.072598465 0.057933886

model._model.a2c_network.mu.bias f4 [9]
00000000: a3a0 d03b 900e fc3c df7b 8cba f213 333d
00000010: b99e 1abd 859c 5bbc 2f28 35bc 4060 2bbc
00000020: 9e91 da3c
0.0063668056 0.030768663 -0.0010718069 0.043720193 -0.037749026 -0.013404016 -0.011056944 -0.0104599595
0.026680764

model._model.a2c_network.mu.weight f4 [9, 128]
00000000: 8433 4d3b 37a9 c8bb fdd3 e83c 9e55 d5bd
00000010: b945 27bb 3908 0b3d 486a bdba 3b78 9dbc
00000020: 5a68 b8bc 92e8 56bd 9ed1 17bc ed13 3b3b
00000030: e81f b5bc 680d 693b a2a2 b4bc f9de b13c
00000040: 77ee 40bd 1057 933b 36c8 163d 36fc 94bc
00000050: 27c0 9b3c 1267 da3c 7f1d 47bd 45c2 033d
00000060: c0e6 603d a4a5 22bd 322c eb3a 5e53 f8bc
00000070: 1a18 9c3c 6211 bebc b1d5 10be 308c e13b
00000080: ddc8 e9bc d181 1d3d 1778 d93d dbf3 323d
00000090: 0c61 7abc 94ec 16bd 57ea d33c cfb5 2dbc
000000a0: ac7c bb3b 9f43 103b a973 5e3c 863d 023d
000000b0: 3e00 5dbd 7320 213d 6010 36bd 0cbd e9bd
000000c0: 388b a6ba a8f0 683d da2d 4b3d 8c55 b63d
000000d0: 73be f5bd 6753 51b9 5ba2 133d b2c6 973a
000000e0: a0aa 233d b801 ab3c ea48 9d3d 2cdf 7a3c
000000f0: abe6 78bb 30f1 96bc 1b29 633d 8015 efbc
00000100: edbd 503b 15f4 a63d 3634 983c 0236 0a3d
00000110: fe62 c2bd 403f 863c bc89 e73d 4291 dc3d
00000120: b6ef b4bd 8705 2b3c 0e28 98bd 3df3 98bc
00000130: 10be 80bd f5ef 53bc 578b 98bd 06ec 05bd
00000140: 29f8 9239 8a05 9fbd cb1b e53c b183 34bc
00000150: 8804 14bd b8b5 743d 0e9b 013a d2c2 91bc
00000160: 03ea cfbc 1214 8d3c 28ee 32ba 0637 303c
00000170: 023c 733d 51ba 25bd 1b8a 333c 3c0e 993d
00000180: 42f9 97bc 0bf9 d53d 2f89 11bd df25 143d
00000190: 881a 08bd 492d 1ebb 6038 943d cf5f d23d
000001a0: 27a5 2e3d 1cce 433d 7b59 3f3c 33a2 79bc
000001b0: 1109 4b3c c37b 953b ca09 09bd 4867 263d
000001c0: 44f8 f53c 56e8 293d 11f7 a1bd aa94 b9bd
000001d0: 2d77 693c 4f79 c03d bb59 0dbd 265e 8c3b
000001e0: c397 4fbd ffed f1bc 26c2 663c bdd5 4cbc
000001f0: 6770 713b 6591 853c 2a1a 1e3c d6d8 073c
00000200: 50b2 1abc 8cf4 b4bd 1ab1 2c3d 81b1 e2bb
00000210: 414b 5ebc 39c4 b0bc 1100 903a cf47 61b9
00000220: fd39 9e3d 1f08 2b3d c906 f73d 216d 8ebc
00000230: 02f7 8f3d b526 bcbb 4393 6d3d 1f9f 24bc
00000240: c054 bc3c d38c 57bd 1fb7 6a3b ed16 243c
00000250: 0c4d b7bc b2e3 74bd 294f 0cbe 0cc5 6e3c
00000260: 2bab a93d b2f8 1cbd 6dc8 d9bc 918a 1dbc
00000270: 01ff 31bd 73da 1d3d 521d 513c d53e a63b
00000280: db5c 0c3c 52b5 e2bb 9a7c ae3c 6645 63bc
00000290: 3a7e 8abb 22da afbb aa75 943d 3266 81ba
000002a0: 4227 243d ee46 d4bc 1de3 d9bc 4fb0 763d
000002b0: a215 563b 9945 203d c6d6 f63c 991c 12bd
000002c0: 5698 81bc eb74 dc3b 994a fa3c eb69 443d
000002d0: 6cdb 83bd b4e6 2bbc 9342 af3b c073 6a3c
000002e0: 855d 793c 23b4 3d3d 25b9 a3bb 61e3 0cbc
000002f0: 1078 bb3d 0bce 2abc 3621 46bd 3af5 38bd
00000300: 0fb4 62bc e222 223d c892 313d 6b98 a5bd
00000310: ae00 dcbc c114 2bbc c901 4d3d e638 81bd
00000320: 2e7c e8bb 0386 f23b 7ef7 243c 6767 11bc
00000330: dd9d 8e3d 3093 44bd d22f ab3c 130b 323d
00000340: b0a2 f53b 0b6f d5bb d964 c1bc f1ac b43d
00000350: 2eab b13c 231b 253a 9477 04bd ff74 cd3b
00000360: 5eff d0bb 239c d13c 554c d63c d9fd b1bc
00000370: dc34 38bd a6cf b2bc 8606 473b ac62 9fbd
00000380: 800d 28bc d460 343d 47d1 2abd 2035 c1bd
00000390: 86a3 43bd 01b2 2bbd 8c81 54bc 4944 bfbc
000003a0: 1deb 203c 5a70 b1bc 8131 74bb 51ff 823b
000003b0: e173 babc 8d0d 7038 952e ec3a 5dd9 433c
000003c0: 219a dfbd 68c7 04bc 308f 0abc 9135 21bc
000003d0: b60d 143c 794b 333b 8592 83bd e833 dd3b
000003e0: 9331 aebb fd57 923d 0997 22bc 89ce e4bd
000003f0: 5172 ce3b 952e f53c c18d 9a3c e673 eebb
0.0031311223 -0.0061236876 0.028421396 -0.10416721 -0.0025523736 0.03394339 -0.001445123 -0.01922237
-0.022510696 -0.05246789 -0.009266285 0.0028545812 -0.02210994 0.003556097 -0.022050206 0.021712767
-0.047102418 0.0044964626 0.03681203 -0.01818667 0.019012524 0.026660476 -0.048612114 0.03216769
0.05490756 -0.03970875 0.0017942248 -0.03031319 0.019054461 -0.023201648 -0.14144017 0.0068831667
-0.028538162 0.03845388 0.106186084 0.04368959 -0.015281927 -0.036846712 0.025868578 -0.010602429
0.005721649 0.0022012962 0.01357738 0.031796955 -0.05395531 0.039337587 -0.04444921 -0.11413011
-0.0012706285 0.056870133 0.049604274 0.089030355 -0.11999216 -0.00019962863 0.036043506 0.0011579602
0.039957643 0.020874843 0.07679923 0.015311997 -0.0037979286 -0.018425554 0.055459123 -0.029185057
0.0031851486 0.08152024 0.018579584 0.033742912 -0.094915375 0.016387582 0.113055676 0.10769893
-0.08834784 0.01043833 -0.07429515 -0.018670673 -0.062862515 -0.012935628 -0.07448452 -0.032695793
0.00028032184 -0.07764728 0.027967354 -0.011017726 -0.036137134 0.059743613 0.00049440644 -0.017793093
-0.02538014 0.017221484 -0.0006825649 0.010755306 0.0593834 -0.04046089 0.01095822 0.07473418
-0.018551473 0.10447892 -0.03553122 0.03616893 -0.033228427 -0.0024135879 0.07237315 0.1027218
0.04263797 0.047803983 0.011679049 -0.015236425 0.012392298 0.0045618727 -0.0334566 0.04062584
0.030025609 0.04148134 -0.07908452 -0.090615585 0.014249605 0.09398138 -0.0345094 0.0042836843
-0.05068184 -0.02953243 0.0140843745 -0.012502131 0.0036840679 0.016304681 0.009649793 0.008291444
-0.009441927 -0.08835706 0.042161085 -0.006918133 -0.013567747 -0.021577941 0.0010986348 -0.00021484423
0.07725904 0.04175579 0.12061841 -0.017386021 0.07029535 -0.005741919 0.058001768 -0.010047703
0.02298963 -0.052624535 0.0035814715 0.010015232 -0.022375606 -0.05978746 -0.13702072 0.014573347
0.08284601 -0.03832311 -0.026584828 -0.009615556 -0.04345608 0.038538408 0.012763338 0.005073408
0.00856706 -0.0069185877 0.021299649 -0.013871526 -0.004226473 -0.0053665796 0.07249005 -0.0009872376
0.0400765 -0.025912728 -0.026597554 0.060226735 0.0032666703 0.039128873 0.030131709 -0.035671804
-0.01581971 0.006727805 0.030553149 0.047952574 -0.06438336 -0.010492016 0.0053485124 0.0143098235
0.015220051 0.04631437 -0.004996436 -0.008599133 0.091537595 -0.010425101 -0.048371516 -0.04515574
-0.013836875 0.039584048 0.043352872 -0.08085712 -0.026855793 -0.01044196 0.05005053 -0.06309681
-0.0070948815 0.0074012293 0.010068772 -0.008874751 0.06963704 -0.04799193 0.020896826 0.043467592
0.0074962005 -0.0065134815 -0.023607658 0.088220485 0.02168807 0.0006298294 -0.0323406 0.0062700505
-0.0063780984 0.025587147 0.026159445 -0.02172749 -0.044972286 -0.02182753 0.0030368879 -0.07782492
-0.010257125 0.044037655 -0.04170349 -0.09433961 -0.04776337 -0.041917805 -0.0129703395 -0.02334799
0.00982168 -0.021660019 -0.0037260952 0.0039977212 -0.022760333 5.723308e-05 0.0018019254 0.011953679
-0.1091807 -0.008104183 -0.00845699 -0.009839431 0.009036472 0.0027358218 -0.06424431 0.0067505725
-0.0053159683 0.07145689 -0.009923705 -0.11172206 0.0063002487 0.029929439 0.018866422 -0.0072769998

onnx::Sub_38 f4 [26]
00000000: fc7b db3c 170a 7c3c 5596 cb3f c222 35bd
00000010: 6419 99bc 1bd8 113f 80f0 8a3c 2666 863e
00000020: f5b8 683e 27c2 a0b8 0a89 b93b bf24 5338
00000030: 049f 8b3b 9e23 8738 e24a 2c3b fd54 95bb
00000040: 8654 1d37 7317 cab7 bfb0 9d3c 496c 8ebc
00000050: 2c99 ca3e 14b7 313c a12f dfbb 757b b33e
00000060: ffff ff3e ffff ff3e
0.026792519 0.015383265 1.5905253 -0.0442226 -0.018688865 0.56970376 0.016960382 0.26249808
0.22726806 -7.665558e-05 0.0056620883 5.0340543e-05 0.0042608995 6.443936e-05 0.002628975 -0.0045572505
9.377609e-06 -2.4091196e-05 0.019249318 -0.017385619 0.39569986 0.010846872 -0.0068110977 0.35055128
0.49999997 0.49999997

onnx::Div_41 f4 [26]
00000000: 52d6 623f 11f5 623f 8d15 0240 4320 883f
00000010: 5d9d 853f ad4a 963e 6878 9c3f e00c a83f
00000020: c764 3d3f 9749 e93c 7304 213d 6d92 fc3c
00000030: 7dfb 1f3d 0515 053d f679 fe3c 86f8 1d3d
00000040: 275d 093c 3215 0a3c 9b41 863f 495b 853f
00000050: 7168 df3e d625 9c3f 7760 9b3f 74be cf3e
00000060: a900 003f a900 003f
0.88608277 0.8865519 2.0325654 1.0634845 1.0438648 0.29353848 1.2224245 1.3128929
0.739819 0.028477473 0.039310884 0.03083154 0.039058197 0.03249075 0.031064015 0.03856709
0.008384026 0.008427905 1.0488771 1.0418483 0.4363437 1.2199047 1.2138814 0.40574992
0.5000101 0.5000101
