ROS/models/m2best2.onnx (onnx, 773933 bytes, 12 tensors)

model._model.a2c_network.sigma f4 [9]
00000000: 9933 fabf da46 0bc0 8c82 e9bf f4a2 e3bf
00000010: 2834 e3bf 560d edbf 37b5 eabf b54d d7bf
00000020: 10d9 e1bf
-1.9546996 -2.1761994 -1.8242965 -1.7784104 -1.7750292 -1.8519695 -1.8336552 -1.6820589
-1.7644367

model._model.a2c_network.actor_mlp.0.bias f4 [512]
00000000: 5844 063c e224 073c fc94 0e3d 0442 943c
00000010: 0f0e 2c3c ebd0 2f3d ac30 93bc 69f9 b13c
00000020: ddb8 a33c f95c df3b e04a a5bc 051a 833d
00000030: 0a21 4abd fc89 64bd 20bd 42bc c539 9c3b
00000040: 65aa 25bd aa5d b9bc d822 6abc f3a3 d03c
00000050: 8938 973b 4a08 0b3c f17b 323d f064 66bc
00000060: 6700 143b c8c9 f03b d982 23bb 4e24 da3b
00000070: d93f 6c3d d6dc 8b3d ce23 01bb 1a9f 003d
00000080: 73e2 403d 01bb 3a3d 421b ff3c 5b0f 583c
00000090: 2145 c8bc 6f24 72bd e92f 5a3d 23bb a5bb
000000a0: 5b38 993c a474 603d 7f2d adbc 0eb4 d0ba
000000b0: 54cf 2b3c e1fa df3c 54fe e63b 57d7 cabc
000000c0: 9d79 abbc f87b 2abd 45bf 213d 1471 1c3d
000000d0: af1e 9b3c e82d 00bd 273c 5ebb 538b 6fbd
000000e0: a139 953c 8897 1fbc 6454 133d 5f86 43bd
000000f0: 0080 4e3d 706b 2ebc 619d 053d aabe 39bc
00000100: 06eb 273a 4904 d03b 7685 5f3d 6187 03bd
00000110: b04e 6c3b bc19 293d d230 933d a133 053d
00000120: 6228 c83b de34 923c 685a c0bc dde2 5c3b
00000130: cf4e 99bc b221 993c db6d d33c dd8d 5dbd
00000140: 3a35 833d 6c9c 24bb baa3 283d 7971 c43c
00000150: 6425 883d ccff 0a3d b90e 0abd 8862 9a3d
00000160: c66b d93c 34c7 643d 33ae f63c d2c5 db3c
00000170: 29ff 143d 1f81 733c 0e54 ebbc c261 0e3c
00000180: 9e51 d03c f75a 89bc 39e9 c9bc 5973 503d
00000190: 8cc9 01bd 735a d03b 5919 07bd 3c75 49bc
000001a0: 339c 213d 66f0 c2bc 0173 4fbc 4bf1 693d
000001b0: b8e9 c3bc 5128 00bc 6896 233b ed6a c73a
000001c0: 8b6f 373d f218 dbbc bc88 ad3c 5d88 6ebb
000001d0: 4e71 c8bb 7ff5 2cbc f358 fbbc 44da b53b
000001e0: ed8f f4bc 9ef1 d43c 1767 9bbc 56c7 e7bc
000001f0: 1250 f33b a23c 2b3d 514d 3d3d 503f b0bb
00000200: f752 0fbc b544 103d 99e9 fa3b 6719 233d
00000210: 8fd9 4f3c a9a1 383a 6fa8 62bb 3049 343c
00000220: 9219 733a c043 e73c 9dd4 a43d 030d 5c3c
00000230: c0bb 803c 5816 bbbc af16 8bbc d80b ba3b
00000240: 3e98 3e3c 1209 d53c 4002 0e3a ee51 c73c
00000250: ccb0 2ebb 0766 a03c e204 61bd b248 f93c
00000260: e791 d3bc 89ed 873d 3af2 b2bc ac30 193c
00000270: 991d 9f3c 02a3 d8bc bd71 ddbc da47 dfbc
00000280: cd7f 973c 0d99 17bd 96fd 853d 6519 fcbb
00000290: 3baa 11bd 7d0e 89bb 163d a1bd 1216 7d3d
000002a0: e93e 673d 5d6c 193a 3e53 903c 0644 ac3c
000002b0: 7bcf 3d3d 3de1 ae3c cff0 da3d 55ae f8bc
000002c0: a1b4 b03c e3cb 913d aeec 753d 56b9 4a3d
000002d0: 5605 56bc f89c babc f414 833c 7a25 63bd
000002e0: c3ca 6f3c 55c7 843b 7ab8 983d 9298 de3c
000002f0: d4ae 713d f4e7 eabc 9767 373c c2ef d53c
00000300: d2c7 01bc 91e5 2d3d 6335 8c3d 8a26 f03b
00000310: 99d3 ce3c 0d1d 29bd 6046 353d 50c5 20bd
00000320: 4158 ce3c 4198 2e3d 1b42 68ba e190 063d
00000330: e6be 4f3d 1f98 dd3b bfc6 37bd a501 55bc
00000340: 1c92 443c 2f5f cfbb 51bf 1bbd 6605 1d3d
00000350: 75e1 e7bc f75b 853d 268e fb3c cbaa aabc
00000360: a920 8f3c 1aa5 89bd ee55 6d3d 9f63 773c
00000370: cd4e 5b3c fd7f 1cbd e847 d23c a738 be3c
00000380: f8f8 8bbc 59a6 de3b e3ad 5c3c 72fe ac3b
00000390: 026f e13c 0cbf 2b3d 49b4 1abc d717 efbb
000003a0: cc9b 5ebc 73fa 073b 4069 893c a05b 3fbd
000003b0: b71f 2c3d d9e8 bcbc 57db c93c 9f77 f63c
000003c0: fc2f 713c 70ac 84bb 97fa eebc ad0d 31bd
000003d0: c542 483d 1424 e33c c7f1 0abb 0f43 32bd
000003e0: 0576 30bd dd90 6b3d 5c1d 28bb b475 60bd
000003f0: 91a8 b33c 3b9d fc3b 2eb4 c03c 5cca 8e3c
0.008195005 0.00824854 0.03481005 0.018097885 0.010501399 0.04292385 -0.017967544 0.021725373
0.01998561 0.006816503 -0.020177305 0.06401447 -0.049347915 -0.055795655 -0.011885911 0.004767629
-0.040445704 -0.02262767 -0.014290534 0.025468802 0.004614894 0.008485863 0.04357523 -0.014062151
0.0022583248 0.007348273 -0.0024949817 0.00665716 0.057678077 0.068292305 -0.001970518 0.03140173
0.04709096 0.045588497 0.031140927 0.013187255 -0.024447026 -0.059116777 0.053268347 -0.005057709
0.01870363 0.054798737 -0.021139858 -0.0015922801 0.010486443 0.027341308 0.0070493612 -0.024760885
-0.020932013 -0.041622132 0.03948905 0.038193777 0.01893553 -0.03129378 -0.0033910365 -0.05848248
0.018215956 -0.009740718 0.035969153 -0.047735568 0.05041504 -0.010645732 0.03262079 -0.011336962
0.00064055657 0.006348167 0.054570638 -0.03211153 0.0036057644 0.041284308 0.07187046 0.03251994
0.0061083296 0.017847475 -0.023480609 0.0033704557 -0.018714337 0.018692825 0.02580922 -0.05409037
0.064066365 -0.0025117649 0.041171767 0.02397989 0.06647757 0.033935353 -0.033705447 0.075383246
0.026540648 0.055854037 0.030112362 0.026827727 0.036376152 0.014862328 -0.028726604 0.0086902995
0.025429543 -0.016767008 -0.024647342 0.050891254 -0.03168635 0.0063584386 -0.032983158 -0.012296017
0.039455604 -0.023796272 -0.012661696 0.05711488 -0.023915157 -0.007822112 0.0024961475 0.0015214361
0.04478411 -0.026745293 0.021183364 -0.0036397197 -0.0061170226 -0.010556578 -0.030682063 0.005549701
-0.029853785 0.025994118 -0.018970056 -0.028293293 0.0074253166 0.04180587 0.046216313 -0.005378641
-0.008747808 0.035221774 0.0076572415 0.039819147 0.012686147 0.0007043132 -0.0034585258 0.011003777
0.00092735246 0.028230548 0.08048365 0.013430837 0.015714526 -0.022837803 -0.01697859 0.0056776814
0.011632977 0.026005302 0.00054172054 0.02433106 -0.0026655672 0.0195799 -0.054936297 0.030430172
-0.025826408 0.06637103 -0.021844018 0.009349983 0.019423293 -0.026444916 -0.027031774 -0.027255941
0.018493557 -0.037011195 0.06542508 -0.007693457 -0.035562735 -0.0041826353 -0.07872979 0.061788626
0.05645648 0.0005852634 0.017617818 0.02102853 0.046340447 0.021347636 0.10690462 -0.030356565
0.021570506 0.071189664 0.06004017 0.049493156 -0.013062796 -0.022779927 0.016001202 -0.055455662
0.0146357445 0.0040520825 0.07457061 0.02717236 0.05900462 -0.028675057 0.011194131 0.026115302
-0.007921176 0.04245526 0.0684612 0.007328813 0.025247382 -0.04128747 0.044256568 -0.039250672
0.025188567 0.04262567 -0.0008859948 0.03285301 0.050719164 0.006762519 -0.044867273 -0.01300088
0.011997726 -0.0063284854 -0.03802425 0.038335226 -0.028305748 0.065116815 0.03070743 -0.020833394
0.017471628 -0.06720944 0.057943277 0.015099435 0.013385487 -0.038207997 0.025669053 0.023220373
-0.017086491 0.0067947325 0.013469192 0.0052793557 0.027518753 0.041930243 -0.009442397 -0.007296543
-0.01358695 0.0020748645 0.01677382 -0.04671824 0.042022433 -0.02306025 0.024640722 0.030086337
0.014720913 -0.0040488765 -0.029172225 -0.043225933 0.0488918 0.027727164 -0.002120124 -0.043520983
-0.043081302 0.0575112 -0.0025652265 -0.05479975 0.021930965 0.007709173 0.023523416 0.017430477

model._model.a2c_network.actor_mlp.0.weight f4 [512, 26]
00000000: 019f 613e 6ff2 383e af35 d13d c214 f5bd
00000010: 04c3 c93d 90c8 ae3d b357 b4bd 5ed5 13be
00000020: 5634 01be 131d 003d 1777 163e dec9 e8bd
00000030: 1c2c e4bd 3d34 bc3d d0a8 42be a68f b2bb
00000040: af72 50be 3724 253d adbe dd3c 3fc0 c3bd
00000050: 7208 15bd 2160 c2bc eced 48be 2bb3 47be
00000060: d7be 1e3d 9f51 0b3e e8ac 1bbd a6e1 39bd
00000070: 4e6d cc3c eb18 1cbe f578 f83d 496d 463e
00000080: dfe2 10bd 70d6 5dbe 42cc 96bd c204 d63d
00000090: 842b 6d3d 7a74 0fbe c762 e7bd c55b 42be
000000a0: 280b 23be 3718 b83d 824f ea3c 20ae 43bd
000000b0: 4e91 06be 94f8 8a3d f076 efbd 3c88 00be
000000c0: 039a b2bd dcea 38be 85df 1dbe a0a8 0b3e
000000d0: 1fdb 693d 9110 b9bd eb12 ff3b ae68 f1bd
000000e0: 863d e2bd e389 2e3e c1f9 87bd 92d6 b23d
000000f0: 25a2 e43d 8fa5 b23d 4400 303d 0144 c63d
00000100: d44a 483c 2e72 033d d819 243d b5e9 8bbd
00000110: 1f6e fc3c 6971 99bd c496 0b3d 3223 e03d
00000120: cdf0 08be 2bf8 093e 9965 84bc d66c 163e
00000130: 9ab1 28bd ab84 293e a48c 223e a909 193e
00000140: 5441 e03d 7a9a 47be 7158 153d 1320 383e
00000150: ab68 3abe 9aa7 da3d 2ac6 cbbd ca00 f93c
00000160: 0dcd b83d a4ef a4bc a7c0 e23d a3ce e9bd
00000170: 2d4a e9bd 6699 053d 895b 6cbc 0683 9abd
00000180: cc49 a8bd 4870 a53d 5913 35be cfc0 a13c
00000190: 1bb9 29be 338e ba3d 3344 bebd 02b3 193e
000001a0: bc67 96bd b566 12be 503b 5d3e c405 e63a
000001b0: 802e 963e 4726 693e 5731 6f3e 8a35 e0bd
000001c0: 4ea1 00be 2b01 783d b69a 13be 9f01 d1bc
000001d0: 1fcf 63bd a2e8 9fbd 3331 e23d 090c 7cbd
000001e0: 8a8f e7bc 0b70 903c e3c8 d5bd 6e7c 6ebd
000001f0: 9f08 943d 1d6e 91bd 10ed 20be 4f0a 9f3d
00000200: 40e4 4b3d 2523 4d3e c5d1 343e c0b2 67be
00000210: 5119 81be 855c 2b3e e953 613e d22d 003c
00000220: bf6b 72be b5d0 b23c 1220 0d3e a124 20bd
00000230: 9f2a 883d 0a99 533e dc6f 863b 0c6f f0bc
00000240: 2b7a 333c 8156 08be fa00 1abe aaab ed3d
00000250: a5b2 9abd 1369 273e 02e8 a13d 0998 28be
00000260: 152e 0cbd bbd6 ce3c 04bc eabd 070b 46be
00000270: 83b1 26be c964 333d 842f 93bd 63bd 793e
00000280: 93a5 ac39 3967 32be cafb 4f3e fd18 71be
00000290: ff3e e3bd 0842 77bc a729 ac3d 04bc 9bbd
000002a0: bbb8 d33c 0292 133e ba28 56be d445 f1bc
000002b0: 027b 49bd b09a 1fbe b2c3 193e 0691 30bd
000002c0: c8d7 d6bc e60e 353d 6854 cdbb 6abc 01be
000002d0: 79c5 4d3e f657 0d3e f89b 31be c73a 13be
000002e0: 7275 eb3d 24da 3e3e 3bf0 463c 9047 4c3c
000002f0: 50d3 4ebe e495 60be 356e 713a 52f2 903d
00000300: ec9d db3d ef30 90bc d726 133e 55af 913d
00000310: f99c 92bd 1d71 e6bd fa7b 4bbd d2f3 aabd
00000320: df4c ef3d 86b4 43bd 62ee 413e 8b6b 43bd
00000330: 906c e2bc 7cfd 89bd bed0 793d 288d 25bd
00000340: e18c 84be 0684 9bbd 62e9 a83c 0596 0cbe
00000350: 3349 13bc 5b2b 653e 8ee8 d6bd 759b 7cbe
00000360: 470d 393d 7e6f 26be 2924 05be c409 fdbb
00000370: ffc2 ac3d 5758 073e 2097 e13d f002 0f3e
00000380: 3beb d3bd b700 243e bb12 e63d 036d ea3d
00000390: 2670 8b3c dc43 f03d bd7d 94bd 5ab1 95bd
000003a0: 2d53 ca3d 2463 adbd f0ac 413e 41a8 313e
000003b0: f6c9 2a3e e73c ac3c d4b3 e2bd 1e95 42be
000003c0: 9f05 1ebe 89ab 673d fac0 1ebe e18c d6bd
000003d0: c926 a33d 2a35 e5bd 75d5 a7bc 7fe5 e53d
000003e0: f765 69bd c9cb 26be 7d9d 1fbe 05e4 083e
000003f0: ad53 f4bd b9bb c93d d559 b93c 7fc0 333d
0.22033311 0.18061231 0.102153175 -0.1196685 0.098516494 0.08534348 -0.0880579 -0.14436862
-0.12617621 0.031277727 0.14693867 -0.11366628 -0.11141226 0.09189651 -0.1900971 -0.005449253
-0.20356248 0.04031774 0.02706846 -0.095581524 -0.036385007 -0.023727478 -0.1962201 -0.19501941
0.038756218 0.13605355 -0.038006693 -0.04538121 0.024954464 -0.1524388 0.12132446 0.19377626
-0.03537261 -0.21663833 -0.07363178 0.10450126 0.057902828 -0.14009276 -0.11298137 -0.1898032
-0.15922225 0.089889936 0.028602365 -0.04777348 -0.13141367 0.06785694 -0.116926074 -0.1255197
-0.08720782 -0.18058342 -0.15417297 0.13638544 0.057093736 -0.09036363 0.0077842376 -0.11787544
-0.11046891 0.17044787 -0.06639434 0.08732332 0.11163739 0.08722984 0.042969003 0.096809395
0.012224872 0.032091312 0.04006371 -0.068316855 0.030814229 -0.074923344 0.03407933 0.10944213
-0.13373108 0.13473575 -0.016161727 0.14689955 -0.041185 0.16554515 0.15873963 0.14945091
0.1094996 -0.19492522 0.036461297 0.17980985 -0.1820399 0.10676499 -0.09949906 0.030395884
0.09023485 -0.0201338 0.11071902 -0.11416366 -0.11391101 0.032616995 -0.014426121 -0.07544522
-0.08217201 0.080780566 -0.17683162 0.019745259 -0.16574518 0.091091536 -0.09290352 0.15009692
-0.073440045 -0.14296992 0.21604657 0.0017549326 0.29332352 0.22768508 0.23358665 -0.10947712
-0.12561533 0.06054799 -0.14414486 -0.025513468 -0.055617448 -0.07808043 0.1104454 -0.061534915
-0.028266687 0.017631551 -0.10438707 -0.058224134 0.07228207 -0.071010806 -0.15715432 0.07765638
0.049778223 0.20032938 0.17658146 -0.22626781 -0.25214627 0.16734512 0.22004665 0.007823424
-0.23673914 0.021828035 0.13781765 -0.039097432 0.06648754 0.20663849 0.00410269 -0.029349826
0.01095442 -0.13314249 -0.15039435 0.11605008 -0.07553605 0.16348676 0.0790558 -0.16464247
-0.034223635 0.025248876 -0.114616424 -0.19340144 -0.16278653 0.043797288 -0.07186797 0.24388652
0.0003292976 -0.17422189 0.20310894 -0.23544689 -0.11096 -0.015091427 0.08406382 -0.076042205
0.025844922 0.14411166 -0.20913973 -0.029452242 -0.049189575 -0.15586352 0.15016058 -0.043107055
-0.02622594 0.04420366 -0.0062661655 -0.1266953 0.20094861 0.13803086 -0.17344654 -0.1437789
0.1149701 0.18637902 0.012142236 0.012468234 -0.20197797 -0.21932179 0.00092098425 0.07077469
0.107234806 -0.017601458 0.14370285 0.0711352 -0.071588464 -0.112520434 -0.04967878 -0.08347286
0.11684584 -0.047779582 0.18938592 -0.047709983 -0.027639657 -0.067378014 0.060990088 -0.04041782
-0.25888732 -0.07593541 0.020619098 -0.13729103 -0.00898962 0.2237982 -0.10493575 -0.24668677
0.045178678 -0.16253468 -0.13002075 -0.0077221114 0.0843563 0.13217293 0.11015153 0.13965964
-0.10347601 0.16015898 0.11234041 0.114465736 0.01702125 0.11731693 -0.07250545 -0.07309218
0.09879146 -0.08466175 0.18913627 0.1734934 0.16678604 0.021025134 -0.11069456 -0.19002196
-0.15431832 0.056560073 -0.15503302 -0.10476089 0.07966382 -0.11191781 -0.020487526 0.112254135
-0.056982007 -0.16288675 -0.15587421 0.13368233 -0.119300224 0.098502584 0.022625843 0.04388475

model._model.a2c_network.actor_mlp.2.bias f4 [256]
00000000: 5d4a 80bc 9c3f 073b 903e 1f3d 5ef4 2b3d
00000010: 8eca b2bc 1775 1b3a 802e 2dbd 7158 30bd
00000020: f72b 33bd 08fe 15bc b8da 153c 2429 5abd
00000030: f39b 063c e73b 7e3c cb1f b8bc dafe 45bd
00000040: 2d94 b73c 8ed0 3cbd cea5 90bc ed11 11bc
00000050: 2b4e 0cbd a324 01bc 07d6 9f3c 719d 61bc
00000060: e80e 94bd 19f6 2dbd d447 45bd 85d5 43ba
00000070: d052 c5bd ce12 03bd 3b84 3f3d 32b6 5bbc
00000080: c2fe 05bd 44a5 e6bb b415 003b b4d3 53bd
00000090: ce58 2abd d967 96bc 05b6 27bd 0356 1bbd
000000a0: 3735 49bc 8dae 1dbd 3cdf fabc e1d9 393b
000000b0: 8a31 b93a d493 f4bc 5556 e13c 51e9 1c3c
000000c0: 3c31 543c 727d 9fbc 632c b93b 9bec 12bd
000000d0: 645a 7bbc 57db 10bd 73a4 0b3b 805c 293c
000000e0: ff8f adbc 0884 38bd 428d cebb da26 fcbc
000000f0: c28e 46bd f965 12bd 748a b83c 1bb0 54ba
00000100: 1cc9 b63c debe 21bd ce7a f93c d8b8 a5bc
00000110: 5b6f 1fbd 844d 9bbc 965b 223d 389b a5bc
00000120: ffa0 8e3d d604 513b 8f08 753c 3c59 2dbd
00000130: e6ac 553d c8e0 67bd 696f bebc 2fdf 65bd
00000140: 4179 68bd b95f c73c 3429 cb3c f5d6 a8bc
00000150: b20c 983b ddb0 53bc f334 59bc e066 39bd
00000160: 3e83 8abd c94d 7a3c 0ef4 213b 4e67 e5bc
00000170: f4ae 0abc ed30 ebbc 3b44 6fbc a2f8 773c
00000180: c006 25bd 651b bf3b 9946 be3d 6258 e3bc
00000190: c047 2dba 8171 6f3c ad26 83bb 96e6 41bd
000001a0: 0cdb d23b 7652 3bbd d916 1b3d 07bf 1cbc
000001b0: 1bee 1bbc 7208 10bc 198a 3dbd 00c3 8dbd
000001c0: d1bc 5abd b639 3fbd b521 25bc 1ea9 ca3c
000001d0: 694b 8ebd 9125 b7bc 8d7c 94ba 39d2 a7bb
000001e0: c2aa 28bd d540 b9bd 8621 fe3a d2d0 d7bc
000001f0: 5c89 19bd ead6 64bd 103f 0f3d 2350 54bd
00000200: 7da6 33bc 32f0 bebb 4ded 1ebd 0063 9f3c
00000210: 218b bfbc ddd9 b5bc d3cd 293c 0935 45bd
00000220: 1b59 61bb 7344 043d 0887 27bd ed1f 03bc
00000230: 0c69 c2bd c9cf a5bd 1ccf 03bc 63dc d1bb
00000240: b003 74bc ed6c 463d 2f78 41bd 4716 8fbc
00000250: 491c 11bd 85fc 0a3d 14b0 473d 8dcc bfbc
00000260: 4e54 3bbd d713 babb 3c21 0e3d 238b 01bc
00000270: 17ad b0bc 2f66 3ebd 2064 fb3b 2a8a 0fbd
00000280: 5950 803b 867c a23a 9994 2c3c bf02 11bd
00000290: f6e3 ffbc 16c5 ab3c 3c96 a4bc 1178 f33b
000002a0: 2fef 92bc 6879 443a 860f 5fbb fca0 2fbd
000002b0: 8348 45bd dcea 863c f117 293d 32d1 f0bc
000002c0: ccb7 6a3d 3c21 4bbd 21db 8a3c fefb b03c
000002d0: 7263 2fbb 398a 1bbd 2441 d23c 6dd7 6abd
000002e0: bb28 f6bc d336 fb3b ac1a 08bd 56b5 50bc
000002f0: 6769 c2bd 64d6 a53c 4e2f 5cbc b49d 96bb
00000300: 0df5 42bd c7d6 9fbc dcc7 0f3c fef3 79bc
00000310: 7450 67bb 39e8 88bc 2e4e 93bc 2df7 45bd
00000320: 68b0 f6bc 0668 80bc 2abb f3bb 7d1a d1bc
00000330: 1739 dcbc 3f49 a9bd a39d 033d 7729 eabc
00000340: 2d14 b13c e750 58bd f2ea 5cbd a4e7 0ebd
00000350: 909f f0bc 919e fdbc 0657 f7bb 8948 3c3c
00000360: 1730 3cbc 1bd5 94bd afab 653c 5c1f 2e3d
00000370: a5f1 74bd 5102 81bd ebd4 213d 8f27 ffbc
00000380: 98cd 7dbb 3750 2dbd a14a 87bd 96f0 253c
00000390: 6d7c 39bc bde4 e9bc c97f 77bd d4d0 3fbd
000003a0: 4c57 423b 9504 91bc 4014 a13c 79aa 8fbd
000003b0: 20b0 f23c 3111 583d 41a5 f6bc d17a 2fbd
000003c0: 6c28 09bd 881d 42bd b6ad f0bc c78d 303d
000003d0: 2444 a6bb b344 a2bb a54b 7f3b edab c43c
000003e0: d659 18bd 19fd c53b 4687 adba 83ba 72bd
000003f0: 73a0 da3c 2ca7 1ebc 5863 0b3d 4086 76bd
-0.01566046 0.002063728 0.038878024 0.041981094 -0.021825101 0.00059302285 -0.042280674 -0.043053094
-0.0437431 -0.009154804 0.009146385 -0.05326189 0.008215892 0.0155172115 -0.022476098 -0.04833875
0.022409523 -0.04609733 -0.017657187 -0.0088543715 -0.034254234 -0.00788227 0.019511236 -0.013770447
-0.07229406 -0.042471025 -0.048164204 -0.00074704766 -0.09634936 -0.032000355 0.046756964 -0.013410138
-0.03271366 -0.007038744 0.0019544186 -0.051715568 -0.041588597 -0.018360065 -0.04094507 -0.037923824
-0.012280754 -0.038496543 -0.030624025 0.0028358626 0.0014129144 -0.029855646 0.027506987 0.009577111
0.0129511915 -0.019468997 0.0056510433 -0.035870176 -0.015341375 -0.03536543 0.0021307736 0.010336995
-0.021186827 -0.04504779 -0.0063034603 -0.030780245 -0.04847599 -0.03574178 0.022526957 -0.00081134
0.022312693 -0.039488666 0.030454066 -0.020229742 -0.038924556 -0.01895786 0.039638124 -0.020215616
0.06964301 0.0031893752 0.014955654 -0.04232143 0.052166842 -0.056610852 -0.023246484 -0.056121048
-0.05675626 0.024337636 0.02479992 -0.020610312 0.0046401853 -0.012920585 -0.013257253 -0.045264125
-0.06763314 0.0152773345 0.0024712118 -0.028003361 -0.008464564 -0.028709853 -0.01460367 0.015134962
-0.04028964 0.005832123 0.09290809 -0.027752105 -0.0006610118 0.014614464 -0.0040024132 -0.047339045
0.006434804 -0.045732938 0.037863586 -0.009567029 -0.009517218 -0.008791076 -0.04627428 -0.06921959
-0.053402726 -0.046685897 -0.010078837 0.024738844 -0.06947977 -0.02235678 -0.0011328623 -0.005121496
-0.041178472 -0.09045569 0.0019388653 -0.02634469 -0.03748451 -0.05586902 0.03497225 -0.051834237
-0.010964987 -0.0058269734 -0.038800526 0.019456387 -0.023381772 -0.022198612 0.010364014 -0.04814628
-0.0034385386 0.03229184 -0.04090026 -0.008003217 -0.09492692 -0.080962725 -0.008044984 -0.006404446
-0.014893457 0.048443723 -0.047233757 -0.017466677 -0.035427365 0.033932228 0.048751906 -0.023412967
-0.045734696 -0.0056786346 0.034699664 -0.007906708 -0.02156691 -0.04648417 0.007671848 -0.035043873
0.003915828 0.001239673 0.010533475 -0.03540301 -0.03123663 0.020968001 -0.020091169 0.0074300845
-0.017936317 0.00074948976 -0.0034036352 -0.042878136 -0.048164856 0.016469412 0.041282598 -0.029396627
0.05730419 -0.04959224 0.016950192 0.021604534 -0.0026762155 -0.037973616 0.025665827 -0.057334352
-0.030048719 0.0076664477 -0.03322856 -0.012738546 -0.0949276 0.020243831 -0.013439013 -0.0045964364
-0.04759698 -0.019511594 0.0087756775 -0.015255926 -0.0035295757 -0.016712295 -0.017981615 -0.04833143
-0.030113414 -0.015674602 -0.007438083 -0.025525326 -0.026882691 -0.08265924 0.032132756 -0.028584225
0.021616066 -0.05281153 -0.053935 -0.03488888 -0.02937296 -0.0309594 -0.007548216 0.011491903
-0.011486075 -0.07267209 0.014017983 0.042510375 -0.059800763 -0.0629927 0.039509695 -0.031146793
-0.003872728 -0.042312827 -0.06606031 0.010128161 -0.011321169 -0.028551454 -0.0604246 -0.046830013
0.0029654084 -0.01770238 0.019662976 -0.07014937 0.029624999 0.05275077 -0.030108096 -0.042841736
-0.033485815 -0.047391444 -0.029379707 0.04310396 -0.005074041 -0.0049520372 0.0038955 0.024007762
-0.03719505 0.0060421345 -0.0013239167 -0.059259903 0.026687836 -0.009683412 0.03403029 -0.060186625

model._model.a2c_network.actor_mlp.2.weight f4 [256, 512]
00000000: dfd8 e9bc c065 c9bc a155 af3c f458 22bd
00000010: d8a0 e7bc 9071 85bd df86 25bd de30 d4bc
00000020: 39c9 80bb a3fc d1ba a385 53bc aab2 843d
00000030: 7698 c7bc a99b 67bd a427 283d bb9b eabc
00000040: 6027 9f3c 378d 1dbd 7aeb f7bc 03b5 443d
00000050: 4436 0cbc 21af c5bc b558 a6bc a97e 0bbd
00000060: 9a5b 84bc c3b0 613c 66e3 dc3c 71b6 babd
00000070: 1924 b03d cc05 053d c71d f6bc 282a 0b3c
00000080: 0e35 30bc eb73 61bc 2516 853d bcc0 0cbd
00000090: c83f 85bd 62ec cbbd 3ac3 7fbc ee21 f5bc
000000a0: 20f6 9f3c 055c 653d e6da b6bc d109 473b
000000b0: c2f1 26bb 36a5 b0bc 521c ceba b0aa 9b3c
000000c0: d95a 5dbc fa36 ba3b 93e3 dfbc e74a a53a
000000d0: 1358 27bc 3b12 dbbc 90d4 133d 0134 0fbd
000000e0: 90db aa3c 2e9c cabc 0a95 1a3b 4e4c 55bd
000000f0: 595d 613b 124b f23c afc7 54bc b542 3bbb
00000100: c0e9 a23b d552 8bbb 0e43 703c 1502 2dbd
00000110: ca7f 083d eeef fabc 1422 71bd eee2 27bb
00000120: a8ea c33c 4750 8ebc ece8 d13c 2444 bab9
00000130: 6c02 71bd 9b18 823c ad48 b23c b7b0 0fbd
00000140: 4984 13bc 419c 2cbd 0d36 af3d 71a4 a4bc
00000150: dccb 953d b803 b53c 6571 a0bc 3b7c eabc
00000160: 8a64 87bd 48ed 3e3d 411a 84bc 5e9d d43c
00000170: 507d 443d 2d2f 05bd 9b99 09bd a18a cabc
00000180: bb18 32bc 2774 f1bb 8237 9bbc 8897 e3bc
00000190: 2add 06bc 33e9 aabc 2006 eb3b 8fad 55bd
000001a0: cf99 c93a 19d5 adbd 033a 80bc 2bbb 88bd
000001b0: ccea 893c 2c51 1cbd 5759 243d 70b4 97bd
000001c0: 0c66 8e3d dd06 f53c 2551 a23c 5aa6 90bc
000001d0: c36a 27bd c4d3 b8bc 8005 ae3b 0f73 2c3c
000001e0: bfd1 4d3d 96d3 9ebc a0bb 14bd 8a58 88bc
000001f0: 8a13 50bc 22ae 433b 83df a5bc f007 e0bb
00000200: e942 39bc bb46 a83d ab36 e63b 30bc 6a3d
00000210: 9c58 a0bd 4a1f 3e3d 4e3c ccbc 0fe6 5cba
00000220: fda9 1e3b a017 c43c 348b 80bb e210 003c
00000230: 1301 dabc a3be b2bc 3387 abbd 452d e1bc
00000240: 25ec 2ebd 1297 36bd ddb5 97bd 3f66 bf3c
00000250: ddd4 38bc 3dcd fb3c ab52 023d 0987 9abc
00000260: 3209 00bd 1aaa 863c d920 adbd 1879 efbb
00000270: 2afd b4bd 47f8 f4bc f9f0 533c 36e1 033c
00000280: b559 b2bc 4792 6739 b127 17bd 4729 b6b9
00000290: f355 853c c696 4abd 299e 15bd ad14 113d
000002a0: 0f6a 943c c93b 0cbd 732e 7fbd 4740 a4bd
000002b0: 2b3b 1cbd 7d24 833d 7989 8f3c d739 f4bd
000002c0: d0ce bcbc 3449 95bb 279c cebc df95 193d
000002d0: c554 adbc 3ab7 3f3d 2841 253c 23a2 023d
000002e0: 0730 883c 064c a6ba 4c0d 393d 9e10 a2bc
000002f0: dc79 6fbc 959d ed3c 0fe6 0e39 ab6d 273d
00000300: 45ac 0e3d 8940 96ba a2b8 cbbc 9d83 043d
00000310: 6b77 b23c f378 7d3c 320d eabc 696e 58bd
00000320: 031d 8e3d 92f9 cfbc 4bf6 453d 7719 7ebd
00000330: 588a 103d 565f 0d3d cd4d ffbc c2d1 24bd
00000340: 3f05 8bba 3d62 05bd 2237 fb3b 0c3d 02bd
00000350: 6d47 633c 4901 7a3c 3b26 273d 367e 3abd
00000360: 0623 d1bc 50f6 9d3b 1c2b edbc 566b fabb
00000370: daf0 53bd 7ad5 1c3c 68cc 70bd 4645 21bc
00000380: 4746 c33c dc05 c9bc dfe5 39bd edb0 a43c
00000390: e1a5 6bbc 0b38 89bc 5404 10bd cf14 54bd
000003a0: b48b 93bc 9815 20bc 63bd a73c 3405 e6bc
000003b0: b97d 653c 6758 a3bd ee15 a03c 2f55 e0bd
000003c0: bfb8 013d ea09 f4bd 00c9 a6bd 6d0b d6bc
000003d0: 7f13 243d 8a8d 5e3b 4371 4c3c 0f4e baba
000003e0: fbfc 5fbb fd66 89bd 31d4 bd3c 7627 85bd
000003f0: 9ace 0dbd 84e5 5c3d 61e3 313c 3698 b5bc
-0.028545795 -0.024584651 0.021403136 -0.039635614 -0.028274938 -0.06515801 -0.040411826 -0.025902208
-0.0039302376 -0.0016020726 -0.012910279 0.0647939 -0.024364691 -0.056544933 0.04105343 -0.028638711
0.019427955 -0.03846475 -0.030263651 0.04802419 -0.00855786 -0.02413136 -0.02030597 -0.03405634
-0.01615696 0.013775053 0.0269639 -0.09116829 0.08600635 0.03247623 -0.030043496 0.008493938
-0.010754837 -0.013760547 0.06498364 -0.034363493 -0.06506306 -0.09957196 -0.0156105105 -0.029923405
0.019526541 0.05599596 -0.022321176 0.0030370841 -0.0025473689 -0.021563154 -0.0015724993 0.019002289
-0.013510429 0.0056828232 -0.027330196 0.0012610824 -0.01021387 -0.026742091 0.036091387 -0.034961704
0.020856649 -0.024732675 0.002358737 -0.052074723 0.0034387915 0.029576812 -0.012987061 -0.0028573696
0.004971713 -0.0042518177 0.014664425 -0.042238314 0.033324994 -0.030631986 -0.05887039 -0.0025617438
0.023915604 -0.017372264 0.025623761 -0.00035527453 -0.0588402 0.015880873 0.02176317 -0.035080638
-0.009003707 -0.042141203 0.08555231 -0.020097943 0.07314274 0.0220965 -0.01958532 -0.02862369
-0.06610973 0.046613008 -0.0161258 0.025953945 0.04797107 -0.032515693 -0.033593755 -0.024724307
-0.010870154 -0.0073685828 -0.018947367 -0.027782217 -0.008231441 -0.020863151 0.007172361 -0.05216747
0.0015380922 -0.08487911 -0.015652662 -0.066763245 0.016835593 -0.03816335 0.040124264 -0.074074626
0.06953058 0.0299105 0.019814083 -0.017657448 -0.0408733 -0.022561915 0.0053107142 0.010525479
0.050248858 -0.019388001 -0.036311746 -0.016643781 -0.012699971 0.002985843 -0.02024818 -0.0068368837
-0.0113074565 0.08216616 0.00702556 0.057308376 -0.07829401 0.04641656 -0.0249311 -0.00084266154
0.0024210208 0.023937047 -0.0039228443 0.007816525 -0.02661184 -0.021819418 -0.083753966 -0.027487407
-0.042705674 -0.044577666 -0.074077345 0.023364184 -0.011281219 0.030737514 0.03181712 -0.018863218
-0.03125877 0.016438533 -0.08453531 -0.0073081367 -0.0883735 -0.029903544 0.01293587 0.0080493
-0.021771291 0.00022084369 -0.036903087 -0.000347445 0.016276335 -0.049460195 -0.036527786 0.03542011
0.018116979 -0.034236703 -0.062300157 -0.080200724 -0.038142364 0.06403444 0.017521607 -0.119250946
-0.023047835 -0.0045558456 -0.025220944 0.037496444 -0.021158585 0.046805598 0.010086335 0.031892907
0.016624464 -0.0012687452 0.045178697 -0.019783314 -0.014616456 0.029005805 0.00013627879 0.040876072
0.034832258 -0.0011463325 -0.024868313 0.03235208 0.021785459 0.015470731 -0.028570745 -0.05283967
0.06939127 -0.02538756 0.048330586 -0.062036004 0.035288185 0.034514748 -0.031165028 -0.040239103
-0.0010606422 -0.03256439 0.0076664845 -0.0317965 0.01387201 0.0152590955 0.040807944 -0.04553052
-0.025529396 0.0048206225 -0.02895122 -0.00764219 -0.051743366 0.009572381 -0.058788687 -0.009843176
0.023837222 -0.024538927 -0.045385238 0.020103896 -0.01438281 -0.016750356 -0.035160378 -0.051777657
-0.018010952 -0.009770773 0.020476049 -0.028078653 0.014007025 -0.07975846 0.019541707 -0.109537475
0.03167033 -0.119159535 -0.081438065 -0.026128495 0.040057655 0.0033958876 0.012478176 -0.0014213937
-0.0034177888 -0.067090966 0.02317247 -0.06501667 -0.03462086 0.05392982 0.010857434 -0.022167306

model._model.a2c_network.actor_mlp.4.bias f4 [128]
00000000: b02c 113c 99db 69bc 1752 efbb 3715 c0bb
00000010: bffa 7a3c d722 253b 4e64 cbbc 64eb 77bc
00000020: 9eb1 a1bc 34dd 3ebd 8b6a df3a 165f 0fbd
00000030: e057 f63a cdf8 53bd f024 613c 67cc 03bd
00000040: b02c 873c 38d3 2dbd 4c08 65bc 6c58 32bd
00000050: 043f 1abd b29b dabc cfdb d8bc 1389 37bc
00000060: d05c 0139 2b75 0bbc f351 2fbc b7a3 f6bc
00000070: 97ee 8b3c ce94 4cbd 8566 6b3b 0b85 07bb
00000080: c17a 40bd 1e4f 80bc de34 f53a d905 f6bc
00000090: 7e12 4fbc d75a e2bc 93cf acbc f090 50bd
000000a0: cc3f e439 5500 b4bc 9c54 b23c 7558 e7bb
000000b0: 9955 f9bb 6aeb 1ebd 3932 1ebd 0903 a9ba
000000c0: ce24 98bc 836e 60bc f10d 39bd 33ec dfbc
000000d0: 5fac 2cbd 926c babc 0860 f1bc 7afc 25bb
000000e0: 49e0 7a3c 3766 44bc 7244 7fbc 532e d83b
000000f0: 2292 d1bb 41ca 97bc 3a63 eebc 02f3 abbb
00000100: 3a1b 36bd 7ec8 f9bc 6c7c ddbb 5ebf babc
00000110: 4022 25b8 25cb 0cbd d336 c7b9 34f2 45bd
00000120: 42b8 f4bc 0667 24bd d84a 0dbc ed8d febb
00000130: 364e 72bc 667c 1ebd 04d1 7f3b fb5e 91bc
00000140: c2d6 6bbb 2ae6 58bb 1471 19bd 154b d5bc
00000150: e536 7cbb bc91 b5bc b037 6abc de25 ae3b
00000160: 1351 03bc 7ef8 a2bc ba07 aebb 4058 eebc
00000170: f38b 83bc e9a2 aebc dee4 d3bc 2cfa 8fbc
00000180: f7a9 7cbc f94e 3ebd d249 8d3c 5e10 b9bc
00000190: 73a1 303c ab23 f9bc d82f 3cbd 59a6 80bb
000001a0: f747 53bc d148 84bb c53f d83a a2be 73ba
000001b0: f509 e7bb 4b53 47bc caee a6bc fdf2 5ebc
000001c0: 84e0 f6bb 1599 35bc f6a0 03bd 831f f2bc
000001d0: 1b44 13bd 3dd9 3c3c 1e9c fabb 7a06 d7bb
000001e0: a426 2abd b164 1cbd 483a 1bbd 010a 193c
000001f0: 6f3f c0bc e2bb efbb 9d5e 47bd bfbb a3bc
0.008860752 -0.014273548 -0.007303487 -0.005861904 0.015318572 0.0025197768 -0.024828102 -0.015131805
-0.019738015 -0.046597674 0.0017045302 -0.03500279 0.0018794499 -0.051750947 0.013741717 -0.032177355
0.0165008 -0.042437762 -0.013979029 -0.043541357 -0.037657753 -0.02668557 -0.026472 -0.011202115
0.00012336974 -0.008511822 -0.010700691 -0.030107362 0.017081542 -0.0499466 0.003591926 -0.0020678665
-0.046992067 -0.015662726 0.0018707772 -0.030032085 -0.012638686 -0.027631206 -0.021095073 -0.050919473
0.0004353508 -0.021972815 0.02176886 -0.0070601054 -0.007609081 -0.038798727 -0.038622115 -0.0012894581
-0.018572237 -0.013698223 -0.04517931 -0.027334308 -0.042156573 -0.022756848 -0.029464737 -0.002532749
0.015312263 -0.011987261 -0.0155802835 0.006597319 -0.006395594 -0.01852906 -0.02910005 -0.0052474746
-0.04445956 -0.03049111 -0.006759217 -0.02279633 -3.9370963e-05 -0.03437342 -0.00037997085 -0.048326686
-0.029873017 -0.040137313 -0.008623801 -0.0077683837 -0.014789155 -0.038692854 0.0039034495 -0.017745486
-0.003598616 -0.0033096173 -0.037461355 -0.026036778 -0.0038484868 -0.022164218 -0.0142955035 0.0053145727
-0.008014935 -0.019893881 -0.0053109797 -0.029094815 -0.016057944 -0.021317916 -0.025865968 -0.017575346
-0.015421382 -0.046462033 0.017247114 -0.022590812 0.01078068 -0.030412516 -0.045944065 -0.00392608
-0.012895576 -0.0040370007 0.0016498497 -0.0009298121 -0.0070507475 -0.012165855 -0.020377535 -0.013607738
-0.0075340886 -0.011083861 -0.032135926 -0.029556042 -0.035953622 0.011526403 -0.007648005 -0.0065620514
-0.041540757 -0.038181964 -0.03789738 0.009340764 -0.023467747 -0.0073160985 -0.048674215 -0.019986985

model._model.a2c_network.actor_mlp.4.weight f4 [128, 256]
00000000: ac43 62bd d428 423d c3f7 1cbd 7467 4a3d
00000010: 0242 d4bc b9d3 433d a1db 6bbd 4ca6 c7bd
00000020: dbf7 78bd 0ad3 a2bd 0d3f 31bc 056f 64bc
00000030: 1e30 3a3d 5c68 7a3d 10e8 87bc 59d7 d53c
00000040: 3549 d73c d9d9 a53c b196 8cba e58a ec3c
00000050: c5f7 733d 88c8 603d cdeb 1bbd 0c3a 6bbc
00000060: 32dc e43b baa3 1cbd 794d a33b 84e8 3dbd
00000070: 3ca4 27bc 4a52 793d 096d 8e3b 9073 93bd
00000080: d5a2 89bd 4290 c03a 3564 4abd 7e3c b7bd
00000090: 3ce6 f5bc b8bb 823d 86ce f6bc 3ad2 f4bc
000000a0: 2af7 153d f351 69bc b765 8f3c b5fd 563d
000000b0: fbc4 8c3c 8190 4ebd 73aa 043d 3b77 233d
000000c0: b1fa 8ebd d176 eabb 4a7f af3b 0690 08bd
000000d0: 4a95 7f3c a3fa b2bc 8b73 6dbd 097e 4d3d
000000e0: 52c6 a9bd 508d b53d 09e2 a2bc 8d83 c7bb
000000f0: 92b5 aa3c 48c5 49bd ab7d af3d e6cf 9ebb
00000100: 3ca9 b6bc 9b71 9cbc 0ca5 98bd 6e25 c8bc
00000110: 03fe ba3c d0c4 02bd 3d5f 45bd 7476 5a3d
00000120: 9f2b b9bd e90c 893c 251b fc3c 18a1 9dbb
00000130: e3f3 da3b 54c7 173d e951 893d abe8 0a3d
00000140: 1cdf 253c e3ce 5dbc 37ee 0ebd ed7b 08bc
00000150: b298 a43c 2f82 4cbd 02f1 983c 704f 9cbd
00000160: e40c fc3b 41a1 21bd 1f39 1bbd d554 383d
00000170: 282e 253d ce61 26bc e6bb e03c 23f1 093c
00000180: e72c 443b 3e9a babd 1878 4d3d 52ce 6fbc
00000190: 2453 a5bc b956 143b 3fac 523c 833c ee3c
000001a0: 88cd b73c 4aa6 f7bc 53b8 98bd 2c4a 733d
000001b0: 0663 56bd b20b d1bc fef3 3e3c 8d8c 643d
000001c0: 4648 593d 4117 843b 05e6 23bd b8dd dd3c
000001d0: 7762 343b 9695 ffbb 47bb c6bc 3e71 72bc
000001e0: 4f66 c73b acf8 a33d fd3b 34bd 7283 cbbc
000001f0: 9209 a5bd 0dd2 6bbd 030a d33c 38d2 91bc
00000200: c036 68bc fbf6 1c3d a38c 163d 213d ecbc
00000210: a847 8e3d 7030 94bd 8f19 493d 5e14 d93c
00000220: a346 9c3a 5bb3 2d3d 3745 43bd 71c9 643c
00000230: bc39 62bd 6139 ecbc af7c 93bc 5f51 34bd
00000240: 237b c0bd c128 a7bc c6cb 57bd 4880 813d
00000250: 1b25 e73c 2902 67bd 1dc0 cbbb 5e68 373b
00000260: eeda 25bd 5bb5 2bbb a505 a53a 71b2 593c
00000270: 650b eb3c 421c cc3c 0ea6 913c 353f 1cbd
00000280: 7709 48bd 971a 1b3d 5f3d 75bd 4e2e 3abd
00000290: 8c3e ac3d 2b55 073d 6489 8d3d 896a 86bd
000002a0: bddc 3b3d 1589 e93c b3ec 2fbd bf53 79bd
000002b0: 0e17 e13b a629 533c 7f98 143d a2de 35bd
000002c0: 5629 56bd 340c 59bc 9181 aabd a020 9c3d
000002d0: 08db 133d 1a15 b2bc a0cd 7dbd 1887 773d
000002e0: fd96 093d e9f1 91bd a0b5 aebc 8eb3 b0bc
000002f0: 4e59 353d a221 5db9 d0f9 903c 0688 0b3d
00000300: 6701 95bc c9b1 66bd 5de8 00bd 7b56 90bd
00000310: e0fa acbd 22e3 dbbb 035f 5dbd ef95 433d
00000320: cb0a 81bd b6cd c6bc 916a a8bc 8f0c 923c
00000330: c582 523d d097 9ebd 1f83 383d ba6c 56bd
00000340: 96a2 2ebc f431 8cbb 1368 693d 268a b93b
00000350: bb00 6b3c 669a bb3d 1a1d 813d d8ea 95bc
00000360: efdd 0bbc b8fd 05bc 7714 67bd 7839 d53c
00000370: cb9d df3c 28fe 88bc 8610 f43c ba1f 02bc
00000380: 8ebf 8b3d 6ef7 453d bc1e 56bd 2ce6 a43b
00000390: 715b 5b3d 4681 94bb 88d3 113c 6a0c 03bc
000003a0: 972a d23c 3949 64bd ea9e 4b3c 8a28 873c
000003b0: 7f67 21bd 2c04 35bc b27e db3b ad84 a4bc
000003c0: 0ba8 97bb 12a9 d2bb 3889 9dbd 54b9 5d3d
000003d0: 8d29 72bd fb34 c2bb 8160 4c3d 5524 153d
000003e0: 91a9 8fbc 1e7c 733d 4b0f aebc 157f 26bc
000003f0: a909 e03c 7429 423d a810 123d 21e2 4e3d
-0.05524032 0.047402218 -0.03832222 0.049415067 -0.025910381 0.047809336 -0.0575825 -0.097485155
-0.06078325 -0.07950409 -0.010818255 -0.013942485 0.045456044 0.06113468 -0.016590148 0.026103662
0.026280025 0.02024548 -0.0010726062 0.028874824 0.059562463 0.05487874 -0.038066674 -0.014357101
0.006984257 -0.03824208 0.0049836007 -0.046364322 -0.010232028 0.060869493 0.004346494 -0.07199776
-0.06720511 0.001469143 -0.04941197 -0.08947085 -0.03001701 0.06383461 -0.030127775 -0.0298854
0.036612667 -0.01424073 0.017504556 0.052488048 0.017183771 -0.05043078 0.032389116 0.03990863
-0.06981409 -0.0071552773 0.00535575 -0.033340476 0.015599558 -0.021848029 -0.05797152 0.050169025
-0.0828978 0.08864844 -0.019883173 -0.00608868 0.020838533 -0.049260408 0.08568891 -0.004846561
-0.022297494 -0.01909714 -0.07453355 -0.02443191 0.0228262 -0.031925976 -0.04818653 0.053335622
-0.09041523 0.016729789 0.030774662 -0.0048104636 0.0066819056 0.03705533 0.06705076 0.033913296
0.010123994 -0.013538095 -0.034895148 -0.008330327 0.020092342 -0.04992884 0.018669609 -0.07632339
0.0076919664 -0.039460424 -0.03789627 0.045002777 0.04032722 -0.010155154 0.027433347 0.008419308
0.002993399 -0.091114506 0.05016336 -0.014636593 -0.020181246 0.0022634699 0.0128584495 0.029081589
0.022436872 -0.03023066 -0.07457032 0.059396908 -0.05234053 -0.025518272 0.011654852 0.055798102
0.05304744 0.0040310924 -0.040014286 0.027083263 0.002752451 -0.0077998145 -0.024259223 -0.014797507
0.006085194 0.08006415 -0.04400252 -0.024842951 -0.08058466 -0.057573367 0.02576161 -0.017800435
-0.01417321 0.038321476 0.036755215 -0.028837742 0.06947261 -0.07235801 0.04909664 0.02649897
0.0011922907 0.042407375 -0.04767343 0.013964043 -0.05523084 -0.028835954 -0.01800379 -0.044022914
-0.093984865 -0.020405175 -0.052684568 0.06323296 0.028215935 -0.056398544 -0.00621797 0.0027985792
-0.04049199 -0.0026200626 0.0012590183 0.013287173 0.028691957 0.024915818 0.017779376 -0.038146216
-0.04883715 0.037867155 -0.05987298 -0.045454316 0.08410367 0.033040207 0.06910971 -0.06563289
0.04586481 0.028507749 -0.042950343 -0.060870882 0.0068692034 0.012888348 0.036278244 -0.044401772
-0.052285515 -0.013247538 -0.08325494 0.0762341 0.036097556 -0.021738578 -0.061963677 0.06043157
0.03359126 -0.07126219 -0.02132684 -0.021569993 0.04427462 -0.00021088732 0.017697245 0.03406527
-0.018189145 -0.056321893 -0.0314716 -0.07047745 -0.08446288 -0.006710426 -0.05404569 0.04775041
-0.06300887 -0.024268012 -0.020558627 0.017828254 0.051394243 -0.077438 0.04504692 -0.052349783
-0.010658881 -0.004278416 0.05698402 0.0056622205 0.014343436 0.091603085 0.06304379 -0.018300459
-0.0085368 -0.008178167 -0.056416 0.02602838 0.027296921 -0.016722754 0.029793035 -0.0079421345
0.068236455 0.04833167 -0.052275404 0.0050323214 0.053554002 -0.004532012 0.008900531 -0.007998565
0.025655074 -0.055733893 0.012428025 0.016498823 -0.039405342 -0.011048358 0.006698453 -0.020082796
-0.0046281866 -0.006428846 -0.07692188 0.05413182 -0.059121657 -0.005926726 0.04989672 0.036411602
-0.01753691 0.05944454 -0.021247527 -0.010162135 0.027348356 0.047402814 0.035660416 0.050508622

model._model.a2c_network.value.weight f4 [1, 128]
00000000: 8ca7 23bb a47c 63bd 96a8 953d b03f e73a
00000010: f7a3 da3c f89f c0bc fc85 68bd ad1c 47bd
00000020: 0ee0 39bd 2db0 403d 54c5 74bb 0ea0 0a3d
00000030: 5d19 a93d e743 423d b0dc a3bd 74a3 abbd
00000040: ca84 31bd 6e50 553d 8861 8abd 27ae 923d
00000050: a887 7abd cbc0 183d 68e4 0bbd aedd fcbc
00000060: 6df8 b03d b8b1 453d 5799 c0bc 2381 933c
00000070: bb3f 323d f58c b93a 8a8e a63d 7a1e 1d3d
00000080: 124f 963d 2449 633d 8107 b73c 858a 21bc
00000090: b410 f0bc c3c2 6ebd 94ae 8fbd dcd7 413d
000000a0: 7849 4f3d 3459 873b 2a18 b7bc ee9a 3e3d
000000b0: abfc 463d 281c 413d 5f21 88bd 42ca 693d
000000c0: c00c 63bc 66b7 893d d89a 963c c3d2 20bb
000000d0: 4596 b23d fee0 89bd 2d2d 96bc 24ea 4ebd
000000e0: 91ed 70bd 9b4a 6fbc beaa 99bd 148b 723d
000000f0: b495 803d 5fdb 823d 5f85 c33c 6a14 77bd
00000100: 0f91 7a3c f71d 523d a6e5 62bd 2a20 4c3d
00000110: 22d8 17bd c946 b33c 0833 2b3d e851 523d
00000120: fa10 803d b740 9dbc a2b3 73bc 8bb0 07bd
00000130: cfc2 a7bd 6097 8cbd dbf7 3d3d 7567 9fbd
00000140: 3f68 52bd 1e77 263d d191 b13c a5fa 0bbd
00000150: e283 6abc d63b bebc e2d0 a63d a80c 90bd
00000160: 54e4 ec3c 5b16 453d b3fa 863d 0947 843d
00000170: a32b 0c3c 70ba 343d fca2 1abd 5cf7 883d
00000180: a6bf 00bd 4ae2 b23d 88a6 813a 5a41 b13d
00000190: b72d 83bc 741e 813d 797f a1bc 777a 303a
000001a0: b1b4 0abc f60e a23d 9e2a bb3b adc4 93bd
000001b0: 72fc 013c 867e 253d 7be7 50bd af2a dcbb
000001c0: 5eaa 05bd 45fa 53bd 959d 31bd 030a 28bd
000001d0: cebe 983c 3142 a53d 7978 a73d caaa 00bd
000001e0: d20a 3fbc 4d6c b43b 16c5 973c 1d96 883d
000001f0: e1f3 a53d 3837 a0bc 82f4 41bc 44d7 253d
-0.0024971692 -0.05553879 0.07307546 0.0017642882 0.026689513 -0.023513779 -0.056768402 -0.04861133
-0.04537969 0.047043014 -0.0037349062 0.033844046 0.08256791 0.047428038 -0.08001077 -0.083807856
-0.04333953 0.052078657 -0.06756884 0.07162123 -0.061164528 0.037293237 -0.034153372 -0.030867424
0.086411335 0.04826519 -0.023510618 0.018005913 0.04351781 0.0014156388 0.08132656 0.038359143
0.073393 0.055489674 0.022342445 -0.009859686 -0.02930484 -0.058291208 -0.0701572 0.047325
0.050607175 0.004130507 -0.02235039 0.04653447 0.048580807 0.047145993 -0.0664699 0.057077654
-0.01385802 0.067244336 0.018384382 -0.0024539686 0.08720068 -0.06732367 -0.018332088 -0.050516263
-0.05882031 -0.01460519 -0.075032696 0.059214666 0.062785536 0.06389498 0.023867307 -0.060322203
0.015293374 0.051298108 -0.05539479 0.04983536 -0.037071355 0.021884339 0.041796714 0.051347643
0.06253238 -0.019195898 -0.014874371 -0.03312735 -0.08191454 -0.0686481 0.04637895 -0.07783405
-0.051368948 0.040640943 0.021675976 -0.03417458 -0.01431367 -0.023221891 0.0814531 -0.07033664
0.02891747 0.048117023 0.06590786 0.064588614 0.008555326 0.044123113 -0.03775309 0.06687805
-0.03143277 0.087345675 0.0009891549 0.08655043 -0.01601301 0.063046366 -0.019714104 0.0006732116
-0.008465932 0.0791301 0.0057118675 -0.07215247 0.007933723 0.040403865 -0.051002007 -0.0067189555
-0.032633178 -0.051752347 -0.043363173 -0.041025173 0.01864567 0.08069266 0.08177275 -0.031412877
-0.011660295 0.0055060745 0.018526595 0.06669257 0.08103157 -0.01955758 -0.01183808 0.040488496

model._model.a2c_network.mu.bias f4 [9]
00000000: e691 98bc e46b 6d3c 25c2 1b3c 3150 ba3c
00000010: ac15 3abc 0b3e 01bc 0979 19bc d06b 2e3d
00000020: 97eb a8bb
-0.018624257 0.014491055 0.009506737 0.022743316 -0.011357706 -0.007888327 -0.009367236 0.042583287
-0.0051550376

model._model.a2c_network.mu.weight f4 [9, 128]
00000000: 1184 48bd 3f15 12bc 1494 9e3c 6fc5 1dbc
00000010: e974 06bc 4be0 0a3d 95e5 e0bd 2a8b 1d3e
00000020: 4b9e 72bd 083e cf3b 6b30 cbbd 520c 8fbd
00000030: 25c6 b8bd bcc9 2c3c 8305 863c e0b9 b73c
00000040: 9d83 9abc 8919 98bb b400 db3c 5e66 4a3c
00000050: 20b6 c73c 2700 183c 543b 913b bdbe 14bd
00000060: 2a65 acbd b723 1cbd 2f90 56bc e937 87bc
00000070: 9607 f3bb b8f3 a43c 96dc 07bd 0107 5abd
00000080: fcd0 cc3d 237e 123d c5bc 563c 0e2d 81bd
00000090: a976 f1bb 8112 a13d 750a 7ebd e8f1 31bd
000000a0: a6e1 a5bc 5814 90bb 620d e0bd 2ce2 bfbd
000000b0: f462 07bd 1f31 94bd 116d ad3c 018e 64bd
000000c0: 05bb 1b3e c71f 953a d139 893b 750a 293e
000000d0: 1387 883d d516 fb3c bf9f 18bd c600 823d
000000e0: 2ec1 51bd 9fb1 ba3c ca40 22bc 74ab 623d
000000f0: 9f0c 193c ee53 c2bd 1012 47b8 be3a dcbc
00000100: 5591 213d 1bf9 9c3d 7a85 513d 87c6 bd3d
00000110: 27ea 06bc 64fd 35bc a3ed c03c a91f 533d
00000120: 05a0 3cbc f24a bdbd e06c 7bbc e4a8 1d3d
00000130: 73d5 b9bd f870 cf3a 3369 05bd bc47 9f3b
00000140: 99e2 f8bc b14f 943c a838 a93b d622 7f3d
00000150: 3dfb 0dbc 3e4a 24bd d6f0 86bb e44d cdbd
00000160: 766e 8cbb d42c 26bc 9999 39bd 2d65 233d
00000170: 3cd9 21bd a4a0 4dbc decc 0a3d 7a56 883d
00000180: c5cf b9bc 5713 343c 8e0e 76bd f4a1 d33d
00000190: c56b 1fbd 2d77 563d 32b8 92bc c3f6 00be
000001a0: 9ea3 a6bc 5cb9 14bb 7849 0d3d 1625 1bbd
000001b0: 8e73 e33c 8e82 b4bd 08e5 b23d 2770 59bd
000001c0: f1e4 663c cf12 0abd 1d46 7b3d b3e1 65bc
000001d0: 5103 e03b ccd8 97bd eb4e e9bb a827 70bd
000001e0: e909 483c 4394 ad3d c6a6 7f3b 78d0 bdbc
000001f0: aaaa bbbd 44b6 ef3c 877f f23c 51a1 8abd
00000200: da8d cebc 076a 18bc 7245 6a3d 3020 cdbd
00000210: dbcf 8bbc 4b44 bc3b 1091 943d 6b47 b93b
00000220: 54b6 c7bc dd07 a5bc ed93 cf3d eb48 52bd
00000230: 6965 3d3d 3fb3 163d e50a 8c3d 0c26 0e3c
00000240: c1fa b1bb f4dc 893b deda d8bb 75e7 61bc
00000250: c5ca ba3a 253a 233d 4d83 2bbc bcf5 df3c
00000260: c544 3fbd 8604 40bc 9b57 8fbb 9665 4f3c
00000270: 059a dfbc ca93 243d f229 b73c c937 a0bd
00000280: d09c 4ebd 0db5 933b 1b6f d83d 944a 833c
00000290: 9d6c 80bc 9cf4 113d 8e30 fbbc 0ac0 8f3d
000002a0: 6d16 083d e3e5 833d 393a cd3c 7ae6 c1bb
000002b0: 6b9e 323c db8b b63d 211e 64bd 7a37 a63b
000002c0: d8d9 2c3d 46fb 023e c7d1 84bc cbe4 02bd
000002d0: c41a e8ba ef7a cdbc d02b c13c 1abf f33d
000002e0: 5770 8b3c 3243 78bc a9d9 0dbc b633 a93c
000002f0: eae4 0c3d 8842 eebd aa8b 24bd ca1c bdbc
00000300: ffe2 e53b 9bea 803d 4f1a b3bb 22c2 69bd
00000310: 46dc f33a 4182 353c 07ad 0cb9 61b8 bd3b
00000320: baab 49bd e9d0 4d3d 6417 33bc 32f5 393d
00000330: 4be2 11be 1501 11bd ad2f 90bb b16e bd3c
00000340: 12ec 043d e61c 78bb b6cc 9cbc ebce b73b
00000350: 5e64 43bd adff efbb 1f18 32bb 0a7c 92bc
00000360: 67ce e33b 0cb3 293c c3ff 153b 11a0 b2bd
00000370: 9d45 bfb9 24c9 dabc d91a d63b 5383 cf3c
00000380: 1344 1b3d 5062 ddbc bad6 793c 504b 363d
00000390: 0cbc 243b 27ba 8fbd 759a 7bbd 05f2 4dbd
000003a0: bbb8 5a3d 14f5 5ebd ee83 af3a 67f5 473a
000003b0: 7735 a2bc 6172 a23d d093 52bb b6a7 2d3d
000003c0: 6240 04bd 53d3 97bd d0f2 e5bb 4e40 12bc
000003d0: f3d6 26bb 3bfc 55bc 955e 503d 7153 2abd
000003e0: 3ae1 35bd 1cab 133d e684 c03b 3678 563d
000003f0: 8825 433c d93d 843c 8774 20bc 9eba 02bc
-0.048954073 -0.008916198 0.019357719 -0.009629591 -0.0082065845 0.03390531 -0.10981289 0.15385118
-0.05923299 0.0063245334 -0.09921344 -0.06984772 -0.09022168 0.010546144 0.01636005 0.0224275
-0.018861586 -0.004641716 0.026733734 0.012353508 0.024378836 0.00927738 0.0044321213 -0.036314715
-0.08417733 -0.038119998 -0.0130958995 -0.016506152 -0.007416676 0.020135745 -0.03316935 -0.053229336
0.10000798 0.035764825 0.01310653 -0.063074216 -0.0073688817 0.078648575 -0.06202169 -0.04344359
-0.0202492 -0.0043969564 -0.109400526 -0.09369311 -0.033053353 -0.072359316 0.021170171 -0.055799488
0.15208061 0.0011377268 0.0041878005 0.16507895 0.06666388 0.030650536 -0.03726172 0.06347804
-0.05120962 0.022789774 -0.009903142 0.05533929 0.009341388 -0.094886646 -4.746212e-05 -0.02688348
0.03944524 0.076647006 0.051152684 0.09266382 -0.008234537 -0.011107776 0.023550814 0.051543865
-0.011512761 -0.0924281 -0.015345782 0.038491145 -0.09073915 0.0015826514 -0.03257103 0.0048608463
-0.030381488 0.018104406 0.0051642247 0.06228908 -0.008665857 -0.040109865 -0.0041180653 -0.10024622
-0.004285629 -0.010142524 -0.045312498 0.03989141 -0.03951381 -0.012550507 0.033886783 0.06657119
-0.02268208 0.010990939 -0.060072474 0.103336245 -0.038921136 0.05235975 -0.017910097 -0.12594132
-0.02034169 -0.002269349 0.034493893 -0.037877165 0.027765062 -0.08813964 0.087350905 -0.053085472
0.01409267 -0.033709344 0.061346162 -0.014030862 0.006836333 -0.074143976 -0.0071200035 -0.05863157
0.012209394 0.08475544 0.0039009317 -0.023170695 -0.09163411 0.029261716 0.029601825 -0.0676905
-0.025214124 -0.009302623 0.057195134 -0.10015905 -0.017066887 0.005745446 0.07254231 0.0056542656
-0.024378933 -0.020145351 0.101356365 -0.05133907 0.04623929 0.036792036 0.068380155 0.008676063
-0.0054315035 0.004207248 -0.006617888 -0.013788094 0.0014251104 0.039850373 -0.010468316 0.027338855
-0.046696443 -0.0117198285 -0.004374457 0.012658497 -0.027295122 0.040180005 0.022358868 -0.0782314
-0.050442517 0.004507667 0.10568067 0.016026773 -0.01567679 0.03563367 -0.030662801 0.070190504
0.033224512 0.06440332 0.025052177 -0.0059173675 0.010902028 0.08913394 -0.055692796 0.0050725313
0.04219994 0.12791166 -0.01621331 -0.031956475 -0.0017708172 -0.025083033 0.023580462 0.11901684
0.017021341 -0.015152739 -0.008657851 0.02065454 0.034397997 -0.116337836 -0.040172257 -0.023085017
0.0070155854 0.062947474 -0.0054657827 -0.057069905 0.0018605075 0.011078418 -0.00013415898 0.005789802
-0.049236037 0.05024806 -0.01093087 0.045399852 -0.1424648 -0.035401423 -0.0044002146 0.02312407
0.032451697 -0.0037859022 -0.019140583 0.0056093833 -0.04770314 -0.00732418 -0.0027175022 -0.017881412
0.0069520953 0.0103576295 0.0022888042 -0.087219365 -0.00036482225 -0.02670724 0.006533962 0.025331175
0.037906718 -0.027024418 0.015248949 0.044505417 0.0025136499 -0.070179276 -0.0614266 -0.050279636
0.05339883 -0.054432943 0.0013390759 0.00076278154 -0.019800885 0.07931972 -0.003213156 0.04239627
-0.032287963 -0.07413354 -0.007017471 -0.008926464 -0.002545771 -0.013060625 0.05087145 -0.041583482
-0.044404246 0.036051854 0.0058752177 0.052360736 0.011910804 0.016142773 -0.009793407 -0.007979063

onnx::Sub_38 f4 [26]
00000000: ff16 a2bc f3cb 5ebc 3ea2 cd3f bd94 d3bd
00000010: 021b 14bd 0822 143f badc a03c 77bb 62be
00000020: f4a1 9e3e f5c3 20b7 065f b43b 9e3f b9b8
00000030: 76d9 813b f3e5 9137 ace2 273b 980e 98bb
00000040: c31b 70b8 1982 20b7 5106 20bd ac72 0cbd
00000050: 0d68 d03e bd6f 2b3c d646 4ebb cc8c b33e
00000060: ffff ff3e ffff ff3e
-0.019786356 -0.01359843 1.6065137 -0.10331104 -0.03615857 0.5786443 0.0196365 -0.22141825
0.30982935 -9.582368e-06 0.0055044917 -8.833337e-05 0.003962691 1.7392425e-05 0.0025617285 -0.0046404116
-5.7246314e-05 -9.567034e-06 -0.039068524 -0.034289047 0.40704384 0.010463652 -0.0031475327 0.35068357
0.49999997 0.49999997

onnx::Div_41 f4 [26]
00000000: 8281 713f 177c 6c3f 25a2 0240 33ff 913f
00000010: eaf5 8d3f 147e 973e c170 9d3f f3d8 a83f
00000020: 9436 373f 7ff2 c93c 67cd 0d3d 2af1 ca3c
00000030: c013 173d 615e d33c b54d ea3c eb71 f23c
00000040: a7f2 073c 75bc ff3b bd1e 913f 37d4 8d3f
00000050: e82b e23e 501b 9d3f 9f79 9c3f f47b cf3e
00000060: a900 003f a900 003f
0.9433824 0.92376846 2.0411465 1.1406006 1.1090672 0.29588377 1.2300035 1.3191208
0.71567655 0.024651764 0.034619715 0.0247732 0.03688407 0.02580184 0.028601507 0.029595336
0.008297599 0.0078044483 1.1337506 1.1080388 0.44174123 1.227396 1.2224616 0.40524256
0.5000101 0.5000101
